logs/dict/ogbg-molbbbp-GCN-64-5-128-0.0001-0.5-0.0-cls-47.pth (torch, 402148 bytes, 43 tensors)

atom_encoder.atom_embedding_list.0.weight f4 [119, 128]
0	0x3dc25ea1	0.09490705
1	0x3e2bc79c	0.16775364
2	0xbe4a1725	-0.19735391
3	0x3da20e41	0.07912875
4	0x3c799bc1	0.0152348885
5	0x3e1ae2ac	0.15125531
6	0x3d7322dc	0.059359416
7	0x3d578cea	0.05262462
8	0x3e9fea05	0.3123323
9	0xbe8411cc	-0.25794828
10	0x3d014f99	0.03157005
11	0xbdb10f4f	-0.08645498
12	0x3d0a2f3b	0.03373645
13	0x3e1b4b9b	0.1516556
14	0xbd71d2ce	-0.05903893
15	0xbd3f8ef1	-0.04676718
16	0xbd877215	-0.06613556
17	0xbdb0ad25	-0.08626775
18	0x3e295c54	0.16539127
19	0x3c62740a	0.013821611
20	0x3d485628	0.04891029
21	0xbd86da8c	-0.06584653
22	0xbeb9fd8d	-0.36326256
23	0xbd2ce5a1	-0.04221118
24	0x3e454408	0.19264233
25	0xbca46989	-0.020069854
26	0xbd8d45d3	-0.068980835
27	0x3d9e457f	0.07728099
28	0x3d10eed4	0.035384014
29	0xbe52705d	-0.20550676
30	0x3d124905	0.035714168
31	0x3e1d5230	0.15363383
32	0x3c664b07	0.014055974
33	0xbdc13c82	-0.09435369
34	0xbd6c7b4d	-0.057734776
35	0x3ded6502	0.11591531
36	0xbe821f08	-0.254143
37	0x3d581424	0.052753583
38	0xbe2c8b77	-0.16850077
39	0x3d482c64	0.04887046
40	0xbe77393d	-0.24142928
41	0xbe8faa72	-0.28059727
42	0xbd36ba2d	-0.044611145
43	0x3c2c8568	0.010529853
44	0x3e0d858f	0.1382048
45	0x3e632bb7	0.22184645
46	0xbe0eaf77	-0.13934122
47	0xbeb43abc	-0.3520106
48	0xbe37b567	-0.17940293
49	0x3da88c87	0.082299285
50	0x3d3e7dc2	0.04650665
51	0x3e3785b4	0.17922097
52	0xbd86996d	-0.065722324
53	0x3e371b70	0.1788156
54	0xbdb2e980	-0.08735943
55	0xbe624e2e	-0.22100136
56	0xbe1bcc39	-0.15214624
57	0x3dc138e4	0.09434679
58	0xbe5b3ce9	-0.21409954
59	0x3d927e74	0.07153025
60	0x3e010529	0.12599625
61	0xbda2f852	-0.079575196
62	0xbddbe7d8	-0.1073758
63	0x3dd83279	0.10556502
64	0x3e345ab3	0.17612724
65	0x3cfa226d	0.030533994
66	0xbccb79b5	-0.024838308
67	0xbdfa5134	-0.122225195
68	0xbe277909	-0.16354765
69	0x3e51da65	0.20493467
70	0xbdd5b6c0	-0.104352474
71	0xbdfb2e48	-0.12264687
72	0xbdb4a1e4	-0.08819941
73	0xbd8bed12	-0.06832327
74	0xbe80450b	-0.25052676
75	0x3e184c52	0.14872864
76	0x3e4277a3	0.1899095
77	0x3d83e154	0.06439462
78	0x3d53a505	0.051671047
79	0xbe4cb07d	-0.199892
80	0xbe34f4de	-0.17671534
81	0xbe0b77d5	-0.13619931
82	0x3e5a7baf	0.21336244
83	0x3e072ca7	0.13200627
84	0x3d4de17a	0.05026386
85	0xbe7d30b2	-0.24725607
86	0x3e3ba8fc	0.18326181
87	0xbd32ed9f	-0.043683644
88	0xbe07d82a	-0.13266054
89	0xbddd1b78	-0.10796255
90	0x3e698ec8	0.22808373
91	0xbd8ab319	-0.067724414
92	0xbced37f2	-0.02895734
93	0x3de0b7b8	0.109725416
94	0xbd8ea9e9	-0.069660015
95	0x3e33c10c	0.1755411
96	0x3dcf62d3	0.10126271
97	0x3de343e3	0.11096933
98	0xbd3c2244	-0.045931116
99	0x3d5a42a4	0.05328621
100	0xbe10e948	-0.1415149
101	0xbd662018	-0.05618295
102	0xbe0f019e	-0.1396546
103	0xbc2e305a	-0.010631645
104	0xbe27035d	-0.16309877
105	0xbd1f9186	-0.03895714
106	0x3e62a275	0.22132285
107	0xbe97d9ec	-0.2965845
108	0x3e4b1de4	0.19835621
109	0x3cb1f492	0.021723066
110	0xbe0d1684	-0.1377812
111	0x3c20edcc	0.00982232
112	0xbd89d1fa	-0.06729503
113	0x3e0724a9	0.13197578
114	0x3d63433a	0.055484034
115	0xbda38d1f	-0.07985901
116	0x3e06fd35	0.13182528
117	0x3e9e72f8	0.3094709
118	0x3dbe3eeb	0.092893444
119	0x3d145f14	0.036223486
120	0xbe099910	-0.13437295
121	0x3e0d36fb	0.13790505
122	0x3e1edf36	0.15514836
123	0x3db5ff3a	0.08886571
124	0xbd994676	-0.074841425
125	0x3daea3db	0.08527347
126	0x3eed39cb	0.46333155
127	0xbd0b7edc	-0.03405653
128	0x3e1c234b	0.15247838
129	0xbe1a375d	-0.15060182
130	0xbe05afc8	-0.13055336
131	0xbd90fb5a	-0.070791915
132	0xbb4d596b	-0.0031333815
133	0x3db4522d	0.08804736
134	0x3db9f6d6	0.09080283
135	0x3ddd1395	0.107947506
136	0x3c6d425e	0.014481155
137	0xbdf5a312	-0.11993994
138	0x3ce2636b	0.027635297
139	0x3c04a38a	0.008095631
140	0xbd6a0d05	-0.057141323
141	0x3d85002d	0.06494174
142	0xbe1c3749	-0.15255465
143	0x3dd8e332	0.10590209
144	0x3e1aaf75	0.15105994
145	0x3c9b4135	0.018951992
146	0x3dd715a5	0.10502175
147	0xbd8232d8	-0.06357354
148	0x3e19a16e	0.15002987
149	0x3df6aded	0.120448925
150	0x3dee731b	0.116430484
151	0xbc9a9fd1	-0.018875035
152	0x3e045510	0.12923074
153	0x3e056fcc	0.13030928
154	0x3e11d608	0.14241803
155	0xbe1158b9	-0.14194001
156	0x3e10a76d	0.14126368
157	0xbda6a224	-0.081363946
158	0xbe07b8d0	-0.13254094
159	0x3e0af185	0.13568695
160	0xbcfbdcf4	-0.030745007
161	0xbe094051	-0.13403441
162	0x3e025d16	0.12730822
163	0x3e1232a1	0.14277126
164	0x3d9c08dc	0.07618877
165	0xbdc0d0a8	-0.09414798
166	0xbbe45c33	-0.006968999
167	0x3dd00a47	0.1015821
168	0x3d322daa	0.04350058
169	0xbc2de18b	-0.010612856
170	0x3d7b84f4	0.06140609
171	0x3d20fe1b	0.039304834
172	0x3e1819a7	0.14853536
173	0xbaa923a6	-0.0012904301
174	0x3db2df50	0.08734
175	0x3dfc90c6	0.12332301
176	0xbc09c5a6	-0.0084089395
177	0x3c24a4f5	0.010049094
178	0x3cb7c9b2	0.022435043
179	0xbd9f5e01	-0.07781602
180	0x3df08ef3	0.117460154
181	0xbddcf384	-0.107886344
182	0xbdec627a	-0.115422204
183	0x3d6d5f9c	0.05795251
184	0x3dae7e9c	0.085202426
185	0xbd527573	-0.05138154
186	0xbccc59da	-0.024945188
187	0xbcade5cb	-0.021227738
188	0x3cacbb49	0.021085398
189	0xbdecf092	-0.11569323
190	0x3dc2471d	0.0948622
191	0x3d8f052b	0.069834076
192	0xbd052f66	-0.032515906
193	0x3e1a40a7	0.15063725
194	0xbdb17241	-0.0866437
195	0x39ecd33e	0.00045170815
196	0xbd6bdc12	-0.057582922
197	0x3dbd61fe	0.09247206
198	0xbcc3b61f	-0.023890553
199	0xbe00bcb1	-0.1257198
200	0x3e119840	0.14218235
201	0x3e12c3ff	0.14332579
202	0x3d86de22	0.06585337
203	0x3d0f3f46	0.03497245
204	0x3d1f0ec0	0.038832426
205	0xbe1ea94c	-0.15494269
206	0xbc4fd2d3	-0.012684542
207	0xbe1c87fe	-0.15286252
208	0x3d88046e	0.0664147
209	0x3d9b46d2	0.07581867
210	0x3c828617	0.01593308
211	0x3d1bbdbd	0.038022745
212	0x3d448db1	0.04798669
213	0xbdb16f28	-0.086637795
214	0x3d377a49	0.044794355
215	0xbe13d1de	-0.14435527
216	0xbd4fc131	-0.05072135
217	0xbe1719db	-0.14755957
218	0xbcf7346a	-0.03017636
219	0x3c50a8bd	0.012735543
220	0x3e08d36f	0.13361906
221	0x3e01a536	0.12660679
222	0x3d95bc0a	0.07311256
223	0x3de1c519	0.110239215
224	0xbd15db5c	-0.03658615
225	0xbd48ce64	-0.049024954
226	0x3de59799	0.112105556
227	0xbda70fd6	-0.08157317
228	0x3e1d6abf	0.15372752
229	0x3de1801c	0.11010763
230	0xbdcdcdab	-0.10048994
231	0xbda82a13	-0.0821115
232	0xbdfaf8af	-0.12254464
233	0x3de1ee89	0.11031825
234	0xbdd75884	-0.1051493
235	0x3d0ae29d	0.03390752
236	0x3e10b37a	0.14130965
237	0x3dcd2baa	0.10018094
238	0xbd8c08b3	-0.06837597
239	0x3dec77bc	0.11546275
240	0x3c8dafe4	0.017295785
241	0x3d018a6b	0.031626146
242	0x3e15c100	0.14624405
243	0x3c842f31	0.016135784
244	0xbc4a40ba	-0.012344534
245	0xbbf1725b	-0.0073683686
246	0x3d757229	0.059923325
247	0xbcd0648d	-0.025438571
248	0x3dedeec4	0.116178066
249	0x3ccf3433	0.025293445
250	0x3d8b7574	0.06809512
251	0xbdb3b33d	-0.08774421
252	0xbdaa68b6	-0.08320753
253	0x3d4697c1	0.048484568
254	0xbca4bb20	-0.02010876
255	0xbd70ffe5	-0.05883779

atom_encoder.atom_embedding_list.1.weight f4 [4, 128]
0	0x3bc3f55b	0.0059801764
1	0x3e71e3f9	0.23622121
2	0x3dca3ba3	0.09874656
3	0xbe36db79	-0.1785716
4	0xbe13c5a1	-0.14430858
5	0xbe0ad0b3	-0.13556175
6	0x3dbe067f	0.09278583
7	0x3d405472	0.046955533
8	0xbd2923bd	-0.04129385
9	0xbcca72ab	-0.024712881
10	0x3dddb17a	0.108248666
11	0xbe37c060	-0.17944479
12	0xbdc26f9b	-0.09493943
13	0xbe639072	-0.2222307
14	0xbdf4b46c	-0.11948475
15	0xbd55bcb3	-0.05218191
16	0xbce8acd3	-0.028402722
17	0x3c989f82	0.018630747
18	0xbcfeab48	-0.031087533
19	0x3ba5e9d9	0.005063277
20	0xbd47dab8	-0.04879257
21	0x3e1a2d90	0.15056443
22	0xbe4dc0c1	-0.20093061
23	0x3ca8e2ee	0.020616021
24	0x3c5d2fc5	0.013500159
25	0xbd9f2e1b	-0.07772466
26	0xbe03eda6	-0.12883624
27	0xbe10c3eb	-0.14137237
28	0x3df98a78	0.12184614
29	0x3e487a0a	0.19577804
30	0xbd92d888	-0.07170206
31	0x3e723c0c	0.23655719
32	0xbdea8abb	-0.11452242
33	0x3e3be031	0.18347241
34	0x3be36e80	0.006940663
35	0xbd665475	-0.05623289
36	0x3cde7121	0.027153553
37	0x3cdeebcf	0.027212052
38	0xbc48e64f	-0.012261941
39	0xbdbb8ef3	-0.09158125
40	0xbdc05efa	-0.09393115
41	0x3e3afea8	0.18261206
42	0x3d7d1103	0.0617838
43	0xbdc5005d	-0.0961921
44	0xbe24f18f	-0.16107772
45	0xbe0d8cd2	-0.1382325
46	0x3d345622	0.044027455
47	0xbd8e5245	-0.069492854
48	0x3da14e49	0.0787626
49	0x3d386314	0.045016363
50	0x3e0ccb07	0.13749324
51	0x3da6f896	0.08152883
52	0xbe71b361	-0.23603584
53	0xbd27d98e	-0.04097896
54	0xbdb133f4	-0.086524874
55	0xbe5c7e5f	-0.21532582
56	0xbc07bfff	-0.0082855215
57	0xbe0df33b	-0.13862316
58	0x3dad90e0	0.08474898
59	0xbc482a53	-0.012217122
60	0x3e0b1a8f	0.1358435
61	0xbe1eb46d	-0.15498514
62	0x3e162188	0.14661229
63	0xbdf5efff	-0.12008666
64	0xbe361cab	-0.17784373
65	0xbdebc908	-0.11512953
66	0x3e3bb76b	0.18331687
67	0xbe036c21	-0.12834217
68	0xbe3f306b	-0.18670814
69	0xbcf69379	-0.030099617
70	0xbcb4511f	-0.022011338
71	0xbe20861c	-0.15676159
72	0x3e6a3a11	0.22873713
73	0x3e1368d0	0.14395452
74	0x3e3d0380	0.18458366
75	0x3caa37ae	0.020778503
76	0x3d365f58	0.04452452
77	0x3d9c4255	0.07629839
78	0x3e2b8e40	0.16753483
79	0xbbf59daa	-0.0074956017
80	0xbd312bed	-0.04325478
81	0xbe2967d3	-0.16543512
82	0x3cc1d47d	0.023660893
83	0xbd17d7f1	-0.037071172
84	0x3d0a5e30	0.03378123
85	0xbd972699	-0.07380409
86	0x3e68ee6e	0.22747204
87	0x3b886f44	0.0041636545
88	0xbe568beb	-0.20951812
89	0xbdf17b69	-0.11791117
90	0x3bf3e86b	0.007443478
91	0x3e0032d1	0.12519385
92	0x3c3b5e6c	0.011436086
93	0x3e0bf201	0.13666536
94	0xbe6670be	-0.22503945
95	0xbe08fa17	-0.13376652
96	0xbdb99c51	-0.09063018
97	0x3e175ac9	0.14780726
98	0x3d31f68a	0.04344801
99	0x3d9a3e40	0.075314045
100	0x3e3d6078	0.18493831
101	0xbb7f141b	-0.0038921896
102	0xbdfca052	-0.12335266
103	0x3df1fac6	0.11815409
104	0x3e76d538	0.24104774
105	0x3e3df17e	0.18549153
106	0x3e60656c	0.2191369
107	0xbca2f79b	-0.019893458
108	0xbe33c540	-0.17555714
109	0x3dcb5ef5	0.09930221
110	0xbdaa9c9d	-0.08330653
111	0xbe19c66f	-0.15017103
112	0xbe168085	-0.14697464
113	0x3d0d3573	0.0344748
114	0xbe312764	-0.17300183
115	0x3e0295aa	0.12752405
116	0x3b848850	0.00404457
117	0x3d5a30f7	0.053269353
118	0x3de70107	0.11279493
119	0x3d3e972e	0.046530895
120	0xbdbd5cf1	-0.09246243
121	0x3d6e95e2	0.05824841
122	0x3b8fb77b	0.0043858862
123	0xbddf48c8	-0.10902554
124	0x3ccbc31b	0.024873307
125	0xbe3186e6	-0.17336616
126	0xbddf5643	-0.10905125
127	0x3d41ddb8	0.047330588
128	0x3c98f314	0.018670596
129	0xbdc9f60d	-0.098613836
130	0x3c7200f2	0.014770733
131	0xbc8facb8	-0.017538413
132	0xbe2b535c	-0.16731018
133	0xbde96b42	-0.11397411
134	0x3dc214e3	0.0947664
135	0x3e1743ed	0.14772005
136	0x3e5236f0	0.2052877
137	0x3db3fd09	0.08788497
138	0xbd135157	-0.035966244
139	0x3c09a022	0.008399995
140	0xbdafb268	-0.0857895
141	0x3e282703	0.16421132
142	0x3d656bc5	0.05601098
143	0xbe0f5618	-0.13997686
144	0x3d155cdd	0.036465514
145	0x3e4ceb37	0.20011602
146	0x3e240db5	0.16020854
147	0xbd8f0de0	-0.06985068
148	0x3e66d448	0.22541916
149	0xbe2f2360	-0.17103338
150	0xbdb74cce	-0.08950196
151	0x3d2edff3	0.042694043
152	0xbe110e26	-0.14165553
153	0xbd88f568	-0.066874325
154	0x3e10dbfa	0.14146414
155	0x3d447810	0.047966063
156	0x3e651dc0	0.2237463
157	0xbc888ea1	-0.016669573
158	0x3dee9af2	0.11650647
159	0x3d710939	0.058846686
160	0xbd3b3b88	-0.04571107
161	0x3ce1a8d6	0.027546328
162	0xbe618621	-0.22023822
163	0x3e177433	0.1479042
164	0xbe832848	-0.2561667
165	0x3d973300	0.07382774
166	0x3d0d893f	0.034554716
167	0xbd8a2a4f	-0.06746351
168	0xbdb90201	-0.09033585
169	0x3cb8e731	0.022571178
170	0xbdb29fd7	-0.08721893
171	0xbe1860ea	-0.1488072
172	0xbdad5c8c	-0.084649175
173	0x3be293af	0.006914578
174	0xbe1d81f9	-0.15381612
175	0xbd40193c	-0.046899065
176	0xbdcc593a	-0.09977956
177	0xbe4bebbf	-0.19914149
178	0xbc8df8d7	-0.01733057
179	0x3e68b769	0.22726215
180	0x3e12b3b3	0.14326362
181	0x3e44a7e5	0.19204672
182	0x3c306c48	0.010768004
183	0xbe0dd723	-0.138516
184	0xbe11e30d	-0.14246769
185	0xbe7db43c	-0.24775785
186	0x3d816479	0.06317992
187	0xbd5f9ddb	-0.054593902
188	0xbd8eeff3	-0.069793604
189	0x3d6bee71	0.057600442
190	0xbe11f99f	-0.14255379
191	0xbe108be9	-0.14115871
192	0x3db5c0b3	0.08874645
193	0x3e115469	0.14192356
194	0xbd6f0855	-0.058357555
195	0xbe2ee9ee	-0.17081425
196	0xbd2bd903	-0.041955005
197	0x3db8e6c1	0.09028388
198	0xbe336a39	-0.1752099
199	0x3dc61e96	0.096738026
200	0xbe56e627	-0.20986234
201	0x3d6f5961	0.058434848
202	0xbe7625ff	-0.24037932
203	0xbd837a3c	-0.06419799
204	0x3dffd073	0.124909304
205	0xbdcfba47	-0.101429515
206	0x3e25ecf3	0.1620367
207	0x3e39a6f0	0.18130088
208	0x3dacab54	0.08431116
209	0x3d95e1bd	0.07318447
210	0xbdf20b62	-0.11818577
211	0x3da18e76	0.078885004
212	0x3d850fbe	0.06497143
213	0xbe445085	-0.19171341
214	0x3c1e3a27	0.009657419
215	0xbe247ab4	-0.16062433
216	0x3e187e8e	0.14892027
217	0xbd964949	-0.07338197
218	0x3e466f54	0.19378406
219	0xbe032ba9	-0.12809624
220	0xbe201405	-0.15632637
221	0xbd4f244d	-0.05057173
222	0x3cfd4130	0.030914873
223	0xbe3e95aa	-0.1861178
224	0xbd7c7729	-0.061637077
225	0xbb1275e5	-0.0022348103
226	0x3e1f7263	0.15570979
227	0x3e816fd2	0.25280625
228	0xbd98170d	-0.074262716
229	0xbe11c28c	-0.1423437
230	0x3d9fe758	0.07807797
231	0xbe5a0e16	-0.21294436
232	0x3dd44c6d	0.103661396
233	0x3e25e6e7	0.16201364
234	0xbde5c5ed	-0.11219392
235	0xbdcf4aea	-0.101217106
236	0xbce1ed59	-0.027578996
237	0xbca4dbce	-0.020124342
238	0xbcb1d35d	-0.021707231
239	0x3e32bfae	0.17455932
240	0x3d90a2e9	0.07062323
241	0xbdf83848	-0.1212011
242	0xbdc73639	-0.09727139
243	0xbe312f5b	-0.17303221
244	0x3d60f3d4	0.054920033
245	0xbdd1d1d2	-0.10245098
246	0xbd9ce8a0	-0.07661557
247	0x3e2148c3	0.15750413
248	0x3c31de64	0.010856245
249	0xbc104943	-0.008806529
250	0xbe528604	-0.20558935
251	0x3d66453d	0.056218375
252	0xbe1c33d6	-0.15254149
253	0x3da6b7d6	0.08140533
254	0xbb99ea88	-0.0046971478
255	0xbd7fa384	-0.0624118

atom_encoder.atom_embedding_list.2.weight f4 [12, 128]
0	0xbcb2b1fb	-0.021813383
1	0x3d344689	0.04401258
2	0xbc3cf470	-0.011532888
3	0xbd7df6ce	-0.06200295
4	0x3e8f9dfe	0.28050226
5	0xbc152fae	-0.009105606
6	0x3db1a205	0.08673481
7	0xbd5d2c8d	-0.053997565
8	0x3e619329	0.22028793
9	0xbe444736	-0.1916779
10	0xbe563555	-0.20918782
11	0x3d948d4c	0.07253513
12	0xbe3b5215	-0.1829303
13	0xbd93fd7b	-0.07226082
14	0xbd825bcd	-0.06365166
15	0xbc92740e	-0.017877605
16	0x3defa5ca	0.11701544
17	0x3d2c57c2	0.04207588
18	0x3e42c98b	0.19022195
19	0x3d60ef6d	0.054915834
20	0xbd287aae	-0.04113262
21	0xbd66e349	-0.0563691
22	0x3e46ecc9	0.19426264
23	0xbe561496	-0.2090629
24	0x3e05a58b	0.13051431
25	0x3e893872	0.26800877
26	0x3dce509d	0.100739695
27	0xbe09c0a1	-0.13452388
28	0x3db78e87	0.08962732
29	0x3bc96d07	0.0061470303
30	0x3dcaed8a	0.09908588
31	0xbe395a43	-0.18100838
32	0xbdcc0ac8	-0.09962994
33	0x3abda91f	0.0014469958
34	0x3e88b1c1	0.26698115
35	0xbd4106da	-0.047125675
36	0x3cb0c58f	0.021578578
37	0xbe332849	-0.17495836
38	0x3d45f7b6	0.04833194
39	0xbd8811c7	-0.06644016
40	0x3e85b077	0.26111194
41	0x3d1071f4	0.035264924
42	0x3e339bad	0.17539854
43	0x3e1007bf	0.14065455
44	0xbd5aa8ef	-0.053383764
45	0xbe2288c9	-0.15872492
46	0xbc231c74	-0.009955514
47	0x3d910967	0.070818715
48	0xbe41e354	-0.18934375
49	0xbbd860c3	-0.006603332
50	0x3dc4845b	0.09595557
51	0x3e1c684e	0.15274164
52	0xbd396633	-0.04526348
53	0x3bf8ae07	0.007589105
54	0x3d058dd6	0.03260597
55	0xbd426f9d	-0.047469724
56	0xbcb6638a	-0.02226426
57	0xbde9168b	-0.11381253
58	0xbe5b6c63	-0.21428065
59	0xbe142624	-0.14467674
60	0xbe8d2bfd	-0.27572623
61	0x3d25ea08	0.040506393
62	0xbcf34e54	-0.029700436
63	0x3d060b4d	0.03272562
64	0xbd9d79d4	-0.076892525
65	0x3e07bed8	0.13256395
66	0x3e13877c	0.14407152
67	0xbcec86e7	-0.02887292
68	0xbe00553d	-0.12532516
69	0xbe2b471d	-0.16726346
70	0xbe0519b2	-0.12998083
71	0x3e3817e7	0.17977868
72	0xbe723fc6	-0.2365714
73	0x3cbc6e88	0.023001924
74	0xbe6980e3	-0.22803073
75	0xbe88b510	-0.2670064
76	0x3dd05e4a	0.10174234
77	0xbdfc58da	-0.123216346
78	0xbe7cdb30	-0.24692988
79	0xbdcf707f	-0.10128879
80	0xbcab8d64	-0.020941444
81	0x38c7838c	9.513562e-05
82	0xbe8251d0	-0.25453043
83	0xbe00833d	-0.12550063
84	0x3dfb73dc	0.12277958
85	0xbc66b495	-0.01408114
86	0xbc690fde	-0.014224974
87	0xbe5e478d	-0.21706982
88	0x3e015596	0.12630305
89	0xbcd62fd4	-0.026145853
90	0xbd0f6d73	-0.03501649
91	0x3ceb820f	0.02874854
92	0xbe516b4e	-0.2045109
93	0xbe6b2693	-0.22963934
94	0xbca25e8a	-0.01982047
95	0xbc8b2ed7	-0.016990108
96	0xbdaba7f5	-0.08381645
97	0xbe0cea11	-0.13761164
98	0xbe6866e2	-0.22695497
99	0x3ded22c2	0.11578895
100	0xbe032b12	-0.12809399
101	0xbde0d90c	-0.109788984
102	0xbdebc8fa	-0.115129426
103	0xbcadf697	-0.021235747
104	0x3bad6dfd	0.0052926526
105	0x3d25a0f0	0.040436685
106	0x3e2e8d7c	0.1704616
107	0x3e8698aa	0.26288348
108	0xbdf80c9a	-0.121117786
109	0x3d878931	0.06617964
110	0xbe051636	-0.12996754
111	0xbdc1473b	-0.09437414
112	0xbe103d86	-0.1408597
113	0xbcd983c2	-0.026552085
114	0xbcbd5d3c	-0.023115747
115	0x3ddd1160	0.1079433
116	0xbd398c83	-0.045300018
117	0xbd619cf2	-0.055081315
118	0x3e48d85b	0.19613783
119	0x3e05ec44	0.1307841
120	0xbd836702	-0.064161316
121	0x3d40b82d	0.047050644
122	0xbe23216e	-0.15930721
123	0xbe4f2ae2	-0.20231202
124	0xbd65abd9	-0.05607209
125	0xbdf13e47	-0.117794566
126	0xbe0c1283	-0.13678937
127	0x3dd1e1b4	0.102481276
128	0x3c8d1449	0.017221587
129	0x3dd4bd29	0.10387642
130	0x3db06db1	0.08614672
131	0xbdc45b98	-0.095877826
132	0x3dee3c28	0.11632568
133	0x3daa62fe	0.083196625
134	0x3c990ea8	0.018683746
135	0xbd8b0b60	-0.06789279
136	0x3cd71a4d	0.026257658
137	0x3dcefa35	0.10106317
138	0xbe22e045	-0.15905865
139	0xbdbba4bb	-0.09162279
140	0x3da81141	0.08206416
141	0x3e230577	0.15920053
142	0x3d816a6b	0.06319126
143	0x3c7e58b9	0.015524083
144	0xbdfeaa99	-0.12434883
145	0x3dad14e7	0.084512524
146	0x3a55bd01	0.0008153469
147	0xbde4768a	-0.11155422
148	0x3e3588fc	0.17728037
149	0x3e325dc5	0.17418583
150	0xbdabcf53	-0.08389153
151	0x3dd1579f	0.102217905
152	0xbe40db06	-0.18833551
153	0xbe228963	-0.15872721
154	0xbe2474e5	-0.16060217
155	0xbe2e270d	-0.17007084
156	0xbcb76ea6	-0.022391628
157	0x3e15fc95	0.14647134
158	0xbbb7c499	-0.005608153
159	0xbdc85de5	-0.09783534
160	0xbcfcb196	-0.030846398
161	0x3de9d8d5	0.114183106
162	0x3e457052	0.19281128
163	0x3c8edd59	0.017439531
164	0xbd7be682	-0.061499126
165	0xbd8d901d	-0.06912253
166	0xbcf7675c	-0.030200653
167	0x3dd9c3a0	0.10633016
168	0xbd718950	-0.058968842
169	0x3de3a5ec	0.111156315
170	0x3e2a0382	0.166029
171	0x3e12f785	0.14352234
172	0x3dc50932	0.096208945
173	0x3d8ec171	0.0697049
174	0x3d35570a	0.04427246
175	0x3e298228	0.16553557
176	0xbca47a05	-0.020077715
177	0x3ce58364	0.028016753
178	0x3da25312	0.07926001
179	0xbe13ef33	-0.14446716
180	0xbddd92e1	-0.108190306
181	0x3deb465e	0.11488031
182	0xbe1a91aa	-0.15094629
183	0xbdc09a7a	-0.09404464
184	0xbdb10b89	-0.08644778
185	0x3d96f7da	0.07371493
186	0xbe4fad37	-0.2028092
187	0x3cc96d8a	0.024588365
188	0xbe14e181	-0.14539148
189	0x3dea12d1	0.1142937
190	0x3e3e851f	0.18605469
191	0x3e4e0367	0.20118485
192	0x3e5767c4	0.21035677
193	0x3dacfab5	0.08446256
194	0x3e261469	0.16218723
195	0x3dc6307f	0.09677219
196	0x3db9050d	0.090341665
197	0xbca8a3f8	-0.020585999
198	0xbb3a9dc2	-0.0028475379
199	0x3e2e6b4c	0.17033118
200	0x3e172d64	0.14763409
201	0x3cc08967	0.023503019
202	0x3e27367c	0.16329378
203	0x3cac99fd	0.021069521
204	0xbe0ec482	-0.1394215
205	0xbe084af9	-0.1330985
206	0xbe2da6d2	-0.16958168
207	0xbdb31346	-0.087439105
208	0xbe02eecb	-0.12786405
209	0x3ded42dc	0.11585018
210	0x3e276ec8	0.16350853
211	0x3e17cd85	0.14824493
212	0xbe2cd95e	-0.16879794
213	0x3e1fff74	0.15624791
214	0xbd2707ff	-0.04077911
215	0x3e4c28f3	0.19937496
216	0xbdfb46ed	-0.122693874
217	0x3e132f64	0.14373547
218	0xbe0f6f5c	-0.14007324
219	0xbce40ca2	-0.027838055
220	0xbde345e8	-0.11097318
221	0x3e2e9400	0.17048645
222	0xbe565c21	-0.20933582
223	0x3db41629	0.08793289
224	0x3dcd1df8	0.10015482
225	0xbd5dd8e9	-0.05416194
226	0xbe009b58	-0.12559259
227	0x3da67fde	0.081298575
228	0x3aaac079	0.0013027332
229	0xbe31fe2e	-0.17382118
230	0x3c7b23a6	0.0153283235
231	0xbe1e7d26	-0.15477428
232	0xbce1639a	-0.027513314
233	0xbdc907bb	-0.098159276
234	0x3cbd4f90	0.023109227
235	0xbc5fd21c	-0.013660934
236	0x3c7b5378	0.015339725
237	0x3e000406	0.12501535
238	0x3dff7c88	0.12474924
239	0x3d5e0f83	0.054214012
240	0xbddaa815	-0.1067659
241	0x3ba98b27	0.005174059
242	0x3d9eff63	0.07763555
243	0xbde7d50b	-0.113199316
244	0x3e152ae7	0.14567147
245	0x3d5e35d1	0.054250542
246	0xbdc236b8	-0.09483093
247	0xbd23928c	-0.03993468
248	0x3c94915d	0.01813572
249	0x3dde151b	0.10843869
250	0x3ceb6364	0.028733917
251	0x3e3f1ceb	0.18663375
252	0x3e3a5c8d	0.18199368
253	0x3e154ff6	0.14581284
254	0xbb909dbb	-0.004413334
255	0x3d46adb3	0.048505496

atom_encoder.atom_embedding_list.3.weight f4 [12, 128]
0	0xbe3d239b	-0.18470614
1	0x3d4441d0	0.047914326
2	0xbe2a0427	-0.16603146
3	0x3e0a00dd	0.13476892
4	0xbd96ccbe	-0.0736327
5	0x3dfc304a	0.12313898
6	0x3e12be18	0.14330328
7	0x3d0ca868	0.034340292
8	0x3e20cccd	0.15703125
9	0x3e2af22b	0.16693942
10	0xbdddf4ad	-0.10837684
11	0xbbd67d47	-0.006545696
12	0xbe2e9720	-0.17049837
13	0x3e1013d2	0.14070061
14	0xbdee2688	-0.11628443
15	0xbdf6d6ee	-0.12052713
16	0x3d9cfe3b	0.07665678
17	0xbe38669e	-0.18007895
18	0xbb9acb16	-0.0047239168
19	0x3e2f669e	0.17128989
20	0xbdad138e	-0.084509954
21	0x3e2ded09	0.16984953
22	0xbd3df8a6	-0.046379708
23	0xbd42c0ad	-0.04754703
24	0xbd468952	-0.048470803
25	0x3d7766c5	0.060400743
26	0xbd8c34f1	-0.06846035
27	0xbc7d7e5a	-0.015472019
28	0xbd931449	-0.071816035
29	0x3e1902d7	0.1494249
30	0x3e0a3f06	0.13500604
31	0x3e2bd75b	0.1678137
32	0x3c8dfbbd	0.017331952
33	0xbe4f7083	-0.20257764
34	0x3e22b4f7	0.15889345
35	0xbd3e7df1	-0.046506826
36	0x3e401f91	0.18762042
37	0xbd101d0e	-0.03518396
38	0x3dabb815	0.0838472
39	0x3e065cd4	0.13121349
40	0xbe06bbe7	-0.13157617
41	0x3e211745	0.15731533
42	0xbe087f44	-0.13329798
43	0x3e2bbaf5	0.16770537
44	0xbda95f1e	-0.08270095
45	0xbe26fd3b	-0.16307537
46	0x3cef94c9	0.029245751
47	0x3d2ad3b0	0.041705787
48	0x3cd96bc6	0.026540648
49	0x3c573940	0.013136208
50	0x3e0a90d4	0.1353181
51	0xbe0f6da3	-0.14006667
52	0xbe2b82b3	-0.16749077
53	0x3e0bc29d	0.13648458
54	0xbce19211	-0.02753547
55	0x3e18db4c	0.14927405
56	0xbd68b956	-0.056817375
57	0x3d90c3df	0.070686094
58	0xbdd65319	-0.10465068
59	0xbd1df043	-0.03855921
60	0xbcc5823a	-0.024109948
61	0xbe08097f	-0.13284872
62	0x3dfd35cb	0.12363776
63	0xbe193fb1	-0.14965703
64	0x3dc9fef0	0.098630786
65	0x3e10dbb3	0.14146309
66	0xbbce38b5	-0.006293381
67	0x3cf4a32d	0.029862965
68	0xbded5298	-0.11588019
69	0xbd4c1ba3	-0.049831044
70	0x3bcf94ea	0.0063348906
71	0xbbebc9c3	-0.0071956827
72	0x3b6de4a2	0.0036299606
73	0xbd8a62c6	-0.06757121
74	0x3e26369c	0.1623177
75	0x3d9b300c	0.075775236
76	0x3e041f7b	0.12902634
77	0x3e17b24c	0.14814109
78	0x3e3b1a01	0.18271638
79	0x3e05c068	0.13061678
80	0x3e00f5b0	0.12593722
81	0x3e3f9b3f	0.18711565
82	0x3e30609d	0.17224355
83	0x3d289387	0.041156318
84	0x3b9163dc	0.004436953
85	0xbe105d5a	-0.14098111
86	0x3c40b495	0.011761804
87	0xbe301ede	-0.17199275
88	0xbd803b83	-0.06261351
89	0xbe05cbf6	-0.13066086
90	0x3d909562	0.070597425
91	0xbdebe3d8	-0.11518067
92	0x3dcd01c7	0.100101046
93	0xbcc48cb3	-0.023992872
94	0x3e017537	0.1264237
95	0xbe0599e8	-0.13046992
96	0xbe1588d4	-0.14602977
97	0xbd9dc0bd	-0.077027775
98	0x3b85fad0	0.004088737
99	0xbe0e72eb	-0.13911025
100	0x3d3cb432	0.046070285
101	0xbd328805	-0.04358675
102	0x3e337be3	0.17527728
103	0xbdd382f4	-0.10327712
104	0xbe0b764d	-0.13619347
105	0xbe2179a8	-0.15769064
106	0x3dc1da08	0.09465414
107	0xbe44bd07	-0.19212733
108	0xbe3e9669	-0.18612064
109	0x3e3f8303	0.18702321
110	0xbda36b6a	-0.07979472
111	0x3e04827f	0.12940405
112	0x3db3f268	0.0878647
113	0x3df00819	0.117202945
114	0xbdfef4c3	-0.12449028
115	0xbe2a317c	-0.1662044
116	0x3d99f111	0.07516683
117	0x3e1b3aed	0.15159197
118	0x3e2a9f7d	0.16662402
119	0xbdab321e	-0.083591685
120	0x3e0472f8	0.12934482
121	0x3ccdaead	0.025107706
122	0xbccadf21	-0.0247646
123	0x3d162388	0.03665498
124	0xbcbb9d08	-0.022902027
125	0xbc3aa18d	-0.011391056
126	0x3d5974b4	0.053089812
127	0x3d64484f	0.05573302
128	0x3e01dd95	0.12682183
129	0x3db93fb8	0.090453565
130	0xbe51fb74	-0.20506078
131	0x3c60a4b8	0.013711147
132	0x3da254ce	0.079263315
133	0x3e41efec	0.18939179
134	0xbe31f2e4	-0.17377812
135	0xba862614	-0.0010234737
136	0x3d5d0376	0.05395838
137	0xbd47beca	-0.048765935
138	0x3db5348b	0.088479124
139	0xbe126183	-0.1429501
140	0x3d0a42f5	0.03375526
141	0x3e1de515	0.15419419
142	0xbe3259bb	-0.17417042
143	0x3e027c7e	0.12742803
144	0xbb92a8e1	-0.0044756983
145	0xbe42f003	-0.1903687
146	0x3e2b2eae	0.16717026
147	0xbdca75b7	-0.098857336
148	0x3d37d2a7	0.044878628
149	0xbe47a844	-0.19497782
150	0x3e0d9f75	0.1383036
151	0x3bdcec88	0.006742064
152	0x3da83b81	0.082144745
153	0x3e4e489a	0.20144883
154	0x3d15a5c4	0.03653504
155	0xbce0ad77	-0.027426464
156	0xbe2e672d	-0.17031546
157	0xbdd0f1a4	-0.10202339
158	0x3dd84ee0	0.10561919
159	0x3e0d3832	0.13790968
160	0x3caa80a6	0.020813297
161	0xbe00a21d	-0.12561841
162	0xbe0721f0	-0.1319654
163	0xbdbeced2	-0.093167916
164	0x3e140df5	0.14458449
165	0xbe51cbbc	-0.20487875
166	0xbc56491c	-0.013078954
167	0x3e209608	0.15682232
168	0xbc9af35a	-0.018914867
169	0xbc9b609b	-0.018966964
170	0x3dc18e9c	0.09451029
171	0xbd8710a5	-0.065949716
172	0x3dd4c3b7	0.10388892
173	0x3e1b3bff	0.15159605
174	0xbcb0ed1c	-0.021597438
175	0x3e34c1c0	0.17652035
176	0xbd9d439f	-0.07678913
177	0x3bf17a8f	0.0073693465
178	0xbd5df7ed	-0.05419152
179	0xbdbed413	-0.09317794
180	0xbd3d477d	-0.046210755
181	0x3c1d09e0	0.009584874
182	0xbe1aed48	-0.15129578
183	0xbe1aae0e	-0.15105459
184	0x3dc3bb8c	0.09557256
185	0xbdce6357	-0.10077541
186	0xbe4b527e	-0.19855687
187	0x3d81cfd2	0.06338467
188	0x3d3a9cb0	0.045559585
189	0x3e08cc08	0.13359082
190	0xbe2d6228	-0.16931975
191	0x3dbf208e	0.09332381
192	0x3d8deae4	0.069295675
193	0xbcb0931c	-0.021554522
194	0xbe073630	-0.13204265
195	0x3de035ae	0.109477386
196	0x3dfd3b80	0.12364864
197	0x3c560c24	0.013064418
198	0x3baa297e	0.0051929345
199	0xbde519fe	-0.11186598
200	0x3e3611b1	0.17780186
201	0x3cc9c22a	0.024628717
202	0xbdd465e6	-0.10370998
203	0xbd91eee0	-0.0712564
204	0x3df1d14d	0.11807499
205	0xbdfe7efe	-0.124265656
206	0x3b40c83f	0.002941623
207	0xbbdd4060	-0.006752059
208	0xbc7d200e	-0.015449537
209	0xbdc4516a	-0.09585841
210	0xbd94241a	-0.07233448
211	0x3e1d7816	0.1537784
212	0xbe2fd2e4	-0.17170292
213	0x3d049777	0.03237101
214	0x3d102b92	0.035197802
215	0xbe1a1a0d	-0.15049
216	0xbd5a999c	-0.05336915
217	0x3dd3f056	0.10348575
218	0x3aa0d762	0.001227122
219	0xbe254c9b	-0.16142504
220	0x3cde8a5d	0.027165586
221	0xbdb1f2c8	-0.08688885
222	0x3e433202	0.19062045
223	0x3dc9acde	0.09847425
224	0x3bb9f5d4	0.005675057
225	0x3d7b78ad	0.061394382
226	0xbdd943b7	-0.10608619
227	0xbddb3529	-0.10703499
228	0xbe50a363	-0.20374827
229	0xbe04bbed	-0.12962313
230	0xbe1fe98a	-0.15616432
231	0x3e2632dd	0.1623034
232	0xbd79aa31	-0.060953323
233	0x3dcbe120	0.099550486
234	0x3e166387	0.14686404
235	0xbd3007cf	-0.042976197
236	0x3d91be64	0.07116392
237	0xbdef3dc9	-0.116817065
238	0x3e050c02	0.12992862
239	0x3d9ea3dd	0.07746098
240	0xbcc9465e	-0.024569687
241	0xbe067354	-0.13129932
242	0x3ae8de36	0.0017766419
243	0xbd5662ce	-0.05234032
244	0xbe1dd0c1	-0.15411665
245	0xbd8530d0	-0.06503451
246	0x3e39a357	0.18128715
247	0xbd1db501	-0.038502697
248	0xbd88d4ba	-0.06681199
249	0x3e1c41ab	0.15259425
250	0xbe35be22	-0.17748311
251	0xbe0aacec	-0.13542527
252	0xbd9f46ff	-0.07777213
253	0xbe393ab7	-0.18088804
254	0x3e1ffc80	0.15623665
255	0xbdfa445c	-0.1222007

atom_encoder.atom_embedding_list.4.weight f4 [10, 128]
0	0xbd7e4403	-0.06207658
1	0xbda0d2b5	-0.07852689
2	0xbd597956	-0.05309423
3	0xbd44e05e	-0.048065536
4	0xbc89689b	-0.016773513
5	0x3e048892	0.12942722
6	0xbdf9ba39	-0.12193722
7	0xbe312ac5	-0.17301472
8	0x3da5f26e	0.081028804
9	0xbdfda281	-0.12384511
10	0xbe3e6546	-0.1859332
11	0xbe1d7897	-0.15378033
12	0xbdc05563	-0.09391286
13	0x3e03ba4c	0.12864035
14	0xbd2217a8	-0.03957334
15	0x3dee0e7b	0.11623856
16	0xbc9b0816	-0.018924754
17	0xbda5b0bd	-0.08090351
18	0xbdedf9cf	-0.11619913
19	0x3da5c6ac	0.08094534
20	0x3da49792	0.08036722
21	0xbd80b909	-0.06285293
22	0x3d88886b	0.06666645
23	0xbe32b8dd	-0.17453332
24	0x3e1e4de8	0.15459406
25	0xbde277e0	-0.110580206
26	0xbc09b2f5	-0.008404483
27	0x3d1d0b42	0.038340814
28	0x3e3ddd8f	0.18541549
29	0x3ded99c1	0.11601592
30	0xbd28e96a	-0.041238226
31	0x3e483382	0.19550899
32	0x39f5e8f4	0.00046903605
33	0x3e22840a	0.15870681
34	0xbd68dbfa	-0.05685041
35	0x3e428193	0.18994741
36	0x3e06add2	0.13152245
37	0x3d749513	0.05971248
38	0x3d3b6963	0.0457548
39	0xbe01bfa5	-0.12670763
40	0xbe4b39c0	-0.19846249
41	0xbc82d388	-0.015970007
42	0xbcfda772	-0.030963633
43	0xbdd893ce	-0.105750665
44	0xbe016789	-0.12637152
45	0x3d066189	0.03280786
46	0xbdd38e20	-0.103298426
47	0xbd23ffeb	-0.040038984
48	0xbe30b89a	-0.1725792
49	0xbe1a42ce	-0.15064546
50	0x3e276ab3	0.16349296
51	0x3dec0832	0.11525001
52	0x3e300b1f	0.17191742
53	0x3dd6ca01	0.10487748
54	0xbdb4e565	-0.08832816
55	0x3d99260b	0.07477959
56	0x3c0d6016	0.008628866
57	0xbde4671e	-0.111524805
58	0x3d762b54	0.060099915
59	0x3d6238a4	0.055229798
60	0x3b27c569	0.0025599843
61	0xbc999628	-0.018748358
62	0x3e47fdf7	0.19530474
63	0xbdf36f08	-0.11886412
64	0x3ce50f4a	0.027961392
65	0x3d5d3d03	0.054013263
66	0xbe14ecdc	-0.1454348
67	0xbdaebe92	-0.08532442
68	0x3d82abb4	0.06380406
69	0x3db2224c	0.08697948
70	0xbe3900ff	-0.18066786
71	0x3e262a43	0.16227059
72	0xbdc26f7e	-0.09493922
73	0xbd185bd9	-0.037196968
74	0xbe14b677	-0.1452273
75	0x3d1bbf58	0.038024276
76	0x3dc3bab0	0.09557092
77	0xbddef4bd	-0.10886524
78	0x3daa36fa	0.08311267
79	0xbe200ab9	-0.1562909
80	0x3d97ee45	0.07418493
81	0xbdd795e7	-0.105266385
82	0x3e196ba2	0.14982465
83	0xbdf9ff8c	-0.12206945
84	0xbe55afff	-0.20867918
85	0x3e0052ea	0.12531629
86	0x3cb640fe	0.022247788
87	0x3df98fb9	0.12185616
88	0xbe365477	-0.17805658
89	0xbe42d6af	-0.19027208
90	0xbe065ed0	-0.13122106
91	0x3d705df5	0.058683354
92	0x3ddd37b0	0.10801637
93	0xbe466205	-0.19373329
94	0x3d1465dd	0.036229957
95	0xbe3e7f18	-0.1860317
96	0x3d74ff45	0.059813756
97	0x3d832507	0.06403547
98	0x3cf39241	0.029732825
99	0xbdc76fd1	-0.09738124
100	0xbdaca4f0	-0.08429897
101	0xbc8b6ce5	-0.017019698
102	0x3d9a60e0	0.07538009
103	0x3d8060aa	0.06268437
104	0x3c95b7a2	0.01827604
105	0x3e47c933	0.19510345
106	0x3d3e6e73	0.04649205
107	0x3e2c45ed	0.1682355
108	0xbded54bb	-0.11588427
109	0xbe33dcd9	-0.17564715
110	0xbe5224fd	-0.20521922
111	0x3e1cecb5	0.15324672
112	0x3e13b7c9	0.14425577
113	0x3cb36120	0.021896899
114	0xbdfda7f5	-0.12385551
115	0xbe1c6ad1	-0.15275122
116	0xbc040feb	-0.008060436
117	0x3dea3e09	0.114376135
118	0xbde874da	-0.11350413
119	0xbc7b2cd8	-0.015330516
120	0xbde4c80b	-0.11170968
121	0x3d183e56	0.037168823
122	0xbe0730ab	-0.13202159
123	0x3de39dcc	0.11114082
124	0x3e17fb71	0.14842011
125	0x3d9a5c51	0.07537139
126	0xbde6ec8e	-0.11275588
127	0x3deb6a02	0.11494829
128	0x3cad561c	0.021159224
129	0x3cfa9938	0.030590639
130	0x3cb966bd	0.022631997
131	0x3e28afc3	0.16473298
132	0x3e465a91	0.19370486
133	0xbd35089a	-0.044197656
134	0x3db62864	0.08894423
135	0xbe11948f	-0.14216827
136	0xbdc99ee0	-0.09844756
137	0xbe54f529	-0.20796646
138	0x3e0df9e8	0.13864863
139	0xbceb8d43	-0.028753882
140	0x3e2c68af	0.16836809
141	0x3e46ce5a	0.19414654
142	0x3da25ce0	0.07927871
143	0x3d825b94	0.063651234
144	0xbd8e89ce	-0.06959878
145	0xbe1f071c	-0.15530056
146	0xbda51f9b	-0.08062669
147	0x3d64ec65	0.055889506
148	0x3e844bd8	0.25839114
149	0x3deb0aba	0.11476655
150	0xbdd6e054	-0.10492006
151	0xbbf5d6f2	-0.00750243
152	0x3dc6521a	0.096836284
153	0xbd1605ea	-0.036626734
154	0x3db502a3	0.088383935
155	0x3de36bc1	0.11104537
156	0xbd87d61b	-0.06632634
157	0x3e36b0f8	0.17840946
158	0xbe253003	-0.16131596
159	0xbdd808d0	-0.10548556
160	0xbc1bbe4d	-0.00950582
161	0xbbbff373	-0.005857879
162	0xbe52d09d	-0.20587392
163	0x3d553ca4	0.052059785
164	0xbe83a8c2	-0.2571469
165	0xbd304640	-0.043035746
166	0x3e095057	0.13409553
167	0x3d61ff6b	0.055175226
168	0xbe069ec7	-0.13146506
169	0x3d959c11	0.07305158
170	0x3de529bd	0.111896016
171	0x3e64370d	0.22286625
172	0x3e503d48	0.20335877
173	0x3da5624d	0.0807539
174	0x3ce8e6e8	0.028430417
175	0xbd6bac81	-0.05753756
176	0xbd619432	-0.05507297
177	0x3e12805c	0.14306778
178	0xbd8a4e63	-0.06753232
179	0xbd63e81a	-0.05564127
180	0x3e496988	0.19669163
181	0x3d7d84cd	0.061894227
182	0x3e61f24f	0.2206509
183	0x3e30e4ed	0.17274828
184	0x3cd75d80	0.026289701
185	0x3e17018d	0.14746685
186	0x3e701f88	0.23449528
187	0x3bca4370	0.00617259
188	0xbe34c0c2	-0.17651656
189	0xbe13b186	-0.14423189
190	0x3c797090	0.015224591
191	0x3e3013ac	0.17195004
192	0x3dcd2631	0.1001705
193	0x3deb71c8	0.114963114
194	0x3c6c1801	0.01441002
195	0xbd9ff1ff	-0.07809829
196	0xbdd9a888	-0.10627848
197	0xbc666378	-0.014061801
198	0x3ddada1d	0.10686133
199	0x3c89367f	0.016749619
200	0x3cb297b4	0.021800853
201	0xbd8b4e46	-0.06802039
202	0xbe1acc6d	-0.15117045
203	0x3e028788	0.12747014
204	0xbdab1325	-0.08353261
205	0xbe405dc2	-0.18785766
206	0xbdf80642	-0.121105686
207	0x3e1f31f7	0.15546404
208	0xbe47af23	-0.19500403
209	0x3dc4e0dd	0.09613202
210	0x3e2e7f8d	0.17040844
211	0x3dd7c53f	0.105356686
212	0xbe43725c	-0.19086593
213	0x3de3b9a2	0.11119391
214	0x3e23b66d	0.15987559
215	0x3c19e65a	0.009393299
216	0x3db3959b	0.08768769
217	0xbc865c05	-0.0164013
218	0xbe4291d0	-0.19000936
219	0x3df251ee	0.11832033
220	0xbd742e00	-0.05961418
221	0x3d709778	0.0587382
222	0x3b9b0ed1	0.004731991
223	0x3e0bc5de	0.13649699
224	0x3e527d4d	0.20555611
225	0xbca16639	-0.019702064
226	0xbdb5bb74	-0.088736445
227	0xbdd9e28f	-0.10638916
228	0xbd9a5dc0	-0.07537413
229	0x3df9ed86	0.12203507
230	0x3e4d8e22	0.2007375
231	0xbdfdebc0	-0.12398481
232	0xbe643ee1	-0.22289611
233	0x3e1bb1ea	0.15204588
234	0x3dcc298b	0.09968861
235	0x3e45de8b	0.19323175
236	0xbe276961	-0.16348793
237	0xbe584a33	-0.21122055
238	0x3dbbb0b8	0.09164566
239	0x3e015799	0.12631072
240	0xbde4a94b	-0.111651026
241	0x3e0a3896	0.13498148
242	0xbe0c5b57	-0.13706718
243	0x3de17316	0.11008279
244	0xbe31586a	-0.17318884
245	0xbcbd6b64	-0.023122497
246	0x3e188d20	0.14897585
247	0xbd5058c0	-0.05086589
248	0xba3361c3	-0.0006842876
249	0x3dea40b6	0.11438124
250	0x3ca9b5de	0.020716604
251	0xbe63a724	-0.22231728
252	0xbd4be282	-0.04977656
253	0xbe33438e	-0.17506239
254	0xbd485d50	-0.048917115
255	0xbe0146ed	-0.12624712

atom_encoder.atom_embedding_list.5.weight f4 [6, 128]
0	0xbe5c6dc2	-0.21526244
1	0x3d6f7762	0.05846346
2	0xbd744ba8	-0.059642464
3	0x3c616d1e	0.013758926
4	0x3c15e59b	0.0091489805
5	0x3d02bfda	0.031921245
6	0xbb78cec1	-0.0037965032
7	0x3baa6060	0.005199477
8	0x3cd68639	0.02618705
9	0x3df3baaa	0.11900838
10	0x3de74f1c	0.11294386
11	0xbe49780e	-0.19674703
12	0xbdd9eb10	-0.10640538
13	0xbd73022b	-0.05932824
14	0xbe3d36d7	-0.18477951
15	0x3e2aa428	0.16664183
16	0xbe0ba81f	-0.13638352
17	0x3c4ea150	0.012611702
18	0xbe475517	-0.19466053
19	0x3e0a67cf	0.13516162
20	0xbe39b16c	-0.18134087
21	0x3e2300da	0.15918294
22	0xbddecc1b	-0.10878774
23	0x3d722bb3	0.059123706
24	0xbe44d215	-0.19220765
25	0xbe0276aa	-0.12740579
26	0xbdb4117c	-0.087923974
27	0xbcb6998d	-0.022290016
28	0x3dc7aba5	0.097495355
29	0xbcd71766	-0.026256274
30	0x3de6bf72	0.11266984
31	0x3e05de0f	0.1307299
32	0xbcde5f9d	-0.027145201
33	0xbe3e7a62	-0.18601373
34	0xbdb7c40a	-0.08972938
35	0xbd75545b	-0.0598949
36	0xbe0edd23	-0.13951544
37	0x3e40ad20	0.18816042
38	0xbe623c5b	-0.22093336
39	0x3de2678c	0.11054906
40	0xbe3226a9	-0.1739756
41	0x3e0ee940	0.13956165
42	0xbcaf4552	-0.02139536
43	0x3e291e3d	0.16515441
44	0x3d12a623	0.03580297
45	0x3d032bcd	0.032024194
46	0xbdbdf2d9	-0.09274835
47	0xbe4726aa	-0.19448343
48	0xbd3f9738	-0.046775073
49	0xbe2535e0	-0.16133833
50	0xbcc1c960	-0.023655593
51	0x3d1bc800	0.03803253
52	0x3e273698	0.1632942
53	0xbe13b987	-0.14426242
54	0xbd918947	-0.07106262
55	0x3d77a5d7	0.06046089
56	0xbd6976d2	-0.05699808
57	0xbd87abee	-0.0662459
58	0x3e438322	0.19092992
59	0x3cc79827	0.024364544
60	0xbe59c81c	-0.21267742
61	0x3da8c29f	0.08240246
62	0x3e110807	0.14163218
63	0x3e222a26	0.15836391
64	0xbdfc7aba	-0.12328096
65	0x3e53935b	0.2066168
66	0xbd810b35	-0.06300966
67	0x3e3c8845	0.18411358
68	0x3d978ff8	0.07400507
69	0xbe3ad6e8	-0.18246043
70	0x3e033689	0.12813772
71	0x3da023bc	0.07819316
72	0x3e4536b7	0.19259153
73	0xbcbed959	-0.023296999
74	0xbe11c4c3	-0.14235215
75	0xbdf195f1	-0.11796177
76	0x3ae04b93	0.0017112367
77	0x3d9f1c14	0.07769027
78	0x3d89508b	0.067048155
79	0xbe20644d	-0.15663262
80	0xbe296fab	-0.16546504
81	0xbce9c57d	-0.028536553
82	0x3e4bf34c	0.19917029
83	0xbe026488	-0.12733662
84	0x3e4c17d8	0.1993097
85	0xbe481259	-0.19538249
86	0xbbd93a40	-0.0066292584
87	0xbe10aee9	-0.14129223
88	0xbcc0e173	-0.023545003
89	0xbdaf5a06	-0.085620925
90	0x3e4155a3	0.18880324
91	0x3e2c77dd	0.16842599
92	0xbc46f0df	-0.012142389
93	0xbc7ecf53	-0.01555236
94	0xbcc64a45	-0.024205336
95	0x3ca2606c	0.019821368
96	0xbe292d56	-0.165212
97	0xbd865883	-0.06559851
98	0x3cc7f7d7	0.024410171
99	0xbd334f0b	-0.043776553
100	0x3e499ccb	0.19688718
101	0xbe4b4686	-0.19851121
102	0x3ddf174d	0.10893116
103	0xbdaeab90	-0.08528817
104	0xbe2bad85	-0.16765411
105	0xbe05e037	-0.13073812
106	0x3e20439e	0.15650794
107	0x3e25742b	0.16157596
108	0x3d977ea6	0.07397203
109	0x3dee9148	0.11648804
110	0xbe190036	-0.14941487
111	0x3dbc2df6	0.09188454
112	0xbdf91761	-0.12162662
113	0x3e39c57f	0.18141745
114	0x3dfdff8b	0.124022566
115	0x3dde7071	0.1086129
116	0xbe01fd3f	-0.12694262
117	0x3e0b5579	0.13606824
118	0xbdfd97b6	-0.12382452
119	0xbcacd456	-0.021097343
120	0x3e42a9bb	0.1901006
121	0xbd31867f	-0.043341156
122	0x3e052bcb	0.13004987
123	0xbd827175	-0.063692965
124	0x3e17c657	0.14821754
125	0xbe607d46	-0.21922788
126	0x3d77953c	0.060445055
127	0xbe5002b0	-0.20313525
128	0xbd8a52ea	-0.06754096
129	0xbe0f0554	-0.13966876
130	0xbeb4c1cb	-0.35304102
131	0x3d952b50	0.07283652
132	0x3e305c42	0.17222694
133	0xbed0f8f2	-0.4081493
134	0x3e7c23bd	0.24623008
135	0xbdcffdb5	-0.10155813
136	0xbd185638	-0.0371916
137	0x3e924be1	0.28573516
138	0xbe814c6a	-0.25253612
139	0xbe9cb330	-0.3060546
140	0x3eacda83	0.3376046
141	0x3dad0595	0.0844833
142	0xbeb860aa	-0.3601125
143	0x3d3ca7ab	0.046058338
144	0xbdde384f	-0.10850584
145	0xbd3e66a7	-0.046484616
146	0x3e83ad6e	0.25718254
147	0xbe096952	-0.13419083
148	0xbe017521	-0.12642337
149	0xbd15a376	-0.03653284
150	0xbe09abc8	-0.13444436
151	0xbaa5bfeb	-0.0012645697
152	0xbe8a7142	-0.27039534
153	0x3e88a164	0.2668563
154	0xbc5e0ea7	-0.013553298
155	0xbd1c33b3	-0.03813524
156	0xbeef3a11	-0.4672399
157	0x3eb9a0d7	0.36255524
158	0xbdde56c8	-0.10856396
159	0x3e92185b	0.28534207
160	0xbca64030	-0.020294279
161	0xbdaf8238	-0.08569759
162	0x3e6d8ac8	0.23197472
163	0x3d3d1240	0.046159983
164	0x3dd6aa24	0.104816705
165	0x3dc77a8c	0.09740171
166	0x3cf76f5a	0.030204464
167	0x3cf1b441	0.029504897
168	0xbe089812	-0.1333926
169	0x3def5d47	0.11687713
170	0xbccb5bc8	-0.024824038
171	0x3d841640	0.06449556
172	0xbe860e01	-0.2618256
173	0xbe819164	-0.25306237
174	0xbe82b790	-0.25530672
175	0xbd7d5949	-0.061852727
176	0xbc4e61fc	-0.0125966035
177	0xbe7cb7c9	-0.24679483
178	0xbbb6b606	-0.005575898
179	0x3e905485	0.28189483
180	0xbd19db99	-0.03756294
181	0x3e008d06	0.12553796
182	0xbe31da5d	-0.17368455
183	0xbeb35dd6	-0.3503253
184	0xbe95be97	-0.2924697
185	0xbc07097a	-0.0082420055
186	0xbebdf527	-0.371011
187	0x3d8a889e	0.06764339
188	0x3e91c185	0.28467956
189	0xbd516ca0	-0.051128983
190	0xbead2c58	-0.33822894
191	0xbcb32c29	-0.021871643
192	0x3c412729	0.011789122
193	0xbd39b0ef	-0.045334753
194	0xbd4f9c6b	-0.05068628
195	0x3ebb2798	0.36553645
196	0xbe31e879	-0.17373838
197	0xbebe4652	-0.37163025
198	0x3e50f8b4	0.20407373
199	0xbddd9fe4	-0.10821512
200	0x3e0573da	0.13032475
201	0xbed88f26	-0.42296714
202	0xbe8eb3ac	-0.27871454
203	0xbe39a62a	-0.18129793
204	0x3e25b0fe	0.16180798
205	0xbe22e72b	-0.15908496
206	0xbe8a9b71	-0.27071717
207	0x3c99351b	0.01870208
208	0x3e97be19	0.2963722
209	0x3e9da29c	0.30788124
210	0x3e9839f4	0.29731715
211	0x3e9d5835	0.3073136
212	0xbe66669e	-0.22500083
213	0xbe8808c9	-0.26569203
214	0xbe64fa1f	-0.22361039
215	0x3dac02cb	0.0839897
216	0x3db82d08	0.08992964
217	0xbea3a2a9	-0.31960037
218	0xbdd5bfa2	-0.10436942
219	0xbd1ec5fd	-0.038763035
220	0x3d618e47	0.055067327
221	0x3d90afd0	0.070647836
222	0xbcf6c2f7	-0.030122263
223	0x3e58ac64	0.21159512
224	0xbdb12d39	-0.08651204
225	0x3dffdc84	0.12493232
226	0x3e8f53b7	0.27993557
227	0x3cf949e0	0.030430734
228	0xbe1cb6bd	-0.15304084
229	0xbe00682f	-0.12539743
230	0x3e287a82	0.16452983
231	0x3df63c72	0.12023248
232	0x3cf2bc99	0.029630946
233	0x3eb022b3	0.34401473
234	0x3e882b0f	0.2659535
235	0xbe096a33	-0.13419418
236	0x3e1d00fb	0.15332405
237	0xbd13f881	-0.036125664
238	0x3ebf2138	0.3733003
239	0x3e1287f2	0.14309672
240	0x3e97d59a	0.29655153
241	0x3d5b9d80	0.053617
242	0x3e558612	0.20851925
243	0x3e581a5d	0.21103807
244	0xbebd5350	-0.36977625
245	0xbd29c783	-0.041450035
246	0xbd741b96	-0.05959662
247	0x3e323cbe	0.17405984
248	0x3ebeb3d2	0.37246567
249	0x3c8c5569	0.01713057
250	0xbeac48d4	-0.33649313
251	0xbe871297	-0.2638137
252	0x3ec86aba	0.39143926
253	0x3e54a1a0	0.2076478
254	0xbc7fce76	-0.015613189
255	0xbe5a26ad	-0.21303816

atom_encoder.atom_embedding_list.6.weight f4 [6, 128]
0	0x3de276cc	0.11057815
1	0xbe0a3c8a	-0.13499656
2	0xbe1d2d10	-0.15349221
3	0x3e034515	0.12819321
4	0xbdb0a831	-0.0862583
5	0x3e4bab1b	0.1988949
6	0xbdd36037	-0.10321086
7	0xbe6336de	-0.22188899
8	0xbe522e33	-0.20525436
9	0x3eb1af19	0.347039
10	0x3df80f41	0.121122845
11	0x3ce797a8	0.028270558
12	0xbd177aab	-0.03698222
13	0xbd98ef42	-0.0746751
14	0xbe298522	-0.16554692
15	0x3e2128aa	0.15738168
16	0xbddebd1a	-0.10875912
17	0x3e187970	0.14890075
18	0xbd88ef5e	-0.06686281
19	0xbdba8544	-0.0910745
20	0xbc285c85	-0.010275965
21	0xbe13f152	-0.14447525
22	0x3e05ce05	0.13066871
23	0xbe07a205	-0.132454
24	0x3e32933f	0.17438982
25	0xbbb3d890	-0.0054884627
26	0x3c736acd	0.014857006
27	0xbd908d07	-0.07058149
28	0xbe250fce	-0.1611931
29	0x3e63c077	0.22241388
30	0x3e455db9	0.19274034
31	0xbe33f67c	-0.17574495
32	0xbd463ff8	-0.04840085
33	0xbe19dfb7	-0.15026747
34	0xbe187d62	-0.1489158
35	0x3d7a22d0	0.061068356
36	0xbdd8c1e3	-0.10583856
37	0x3d49abf6	0.04923626
38	0xbe2f7e07	-0.1713792
39	0xbe81f54d	-0.25382462
40	0x3e2cefff	0.16888426
41	0x3e260912	0.16214398
42	0x3db2baf4	0.08727065
43	0xbe5034b8	-0.2033261
44	0x3cee9ee2	0.029128496
45	0xbe2152de	-0.15754268
46	0xbd41da05	-0.04732706
47	0xbdba7eed	-0.091062404
48	0xbe617bcf	-0.22019885
49	0x3e774c2a	0.24150148
50	0x3d818514	0.06324211
51	0x3ddbe5a1	0.107371576
52	0xbdce03dd	-0.100593306
53	0xbe2650a4	-0.162417
54	0xbe2b63d1	-0.16737296
55	0xbda9978c	-0.082808584
56	0xbd270f01	-0.040785793
57	0xbd8cab17	-0.0686857
58	0xba527791	-0.0008028681
59	0xbe2050a8	-0.15655768
60	0x3d652f80	0.055953503
61	0xbc20fa37	-0.009825281
62	0xbd7057a5	-0.058677334
63	0xbd85cf06	-0.06533627
64	0xbd45d57e	-0.048299305
65	0xbd7d3c18	-0.061824888
66	0xbe834aa9	-0.256429
67	0x3d3c3f95	0.045959074
68	0xbd636b0f	-0.05552202
69	0xbe27e2ba	-0.16395083
70	0x3e2068ca	0.15664974
71	0xbc88bb5f	-0.016690908
72	0x3c0b0c52	0.008486824
73	0xbe357780	-0.17721367
74	0x3e83ca45	0.25740257
75	0x3e0ab92c	0.135472
76	0xbd99c926	-0.07509069
77	0x3df44825	0.11927823
78	0x3e5a2a17	0.21305119
79	0xbd722f96	-0.059127413
80	0xbe250636	-0.1611565
81	0xbc9c8fd1	-0.019111546
82	0xbe36f0cd	-0.17865296
83	0x3e30d2af	0.1726787
84	0x3daee9fd	0.085407235
85	0x3d385970	0.04500717
86	0x3e60e1a5	0.21961077
87	0xbd5f5a6d	-0.054529596
88	0xbe68c20a	-0.2273027
89	0x3c171a95	0.009222646
90	0x3e6f9bbc	0.23399252
91	0x3e5eece1	0.2177005
92	0x3c4d7caa	0.012541929
93	0xbcdbc9aa	-0.02682956
94	0x3d588c37	0.052868094
95	0x3e447154	0.19183856
96	0xbcee86ee	-0.029117074
97	0x3e0b28bd	0.13589759
98	0x3e2fbb5e	0.17161319
99	0xbdceecc4	-0.10103753
100	0xbdab52b7	-0.08365386
101	0xbdbb5955	-0.09147898
102	0xbe0a2680	-0.13491249
103	0xbd4d63da	-0.050144054
104	0x3e5af26b	0.21381538
105	0x3d3e7f4e	0.046508126
106	0x3e0a4947	0.13504516
107	0xbe49c318	-0.19703329
108	0x3e0262b2	0.12732962
109	0xbdae77f6	-0.085189745
110	0x3e89dce9	0.26926354
111	0x3da5a328	0.0808776
112	0xbd98b607	-0.07456594
113	0x3d044c71	0.032299463
114	0x3ccb7097	0.02483396
115	0xbe499dfd	-0.19689174
116	0x3d7c1d4a	0.06155137
117	0x3e52ab75	0.20573218
118	0xbd98316c	-0.074313015
119	0x3e592603	0.21205907
120	0x3d783c2a	0.060604252
121	0xbe1de78d	-0.15420361
122	0x3e756b7e	0.23966786
123	0x3e34168b	0.17586724
124	0x3d0f3516	0.034962736
125	0x3d786003	0.06063844
126	0x3de88665	0.11353759
127	0xbe90727f	-0.28212354
128	0xbdc62130	-0.09674299
129	0xbe12ae3c	-0.14324278
130	0x3e3f58c5	0.18686207
131	0xbe152135	-0.14563449
132	0xbddc2e25	-0.10750989
133	0x3e1156a2	0.14193204
134	0xbe4b0d2d	-0.19829245
135	0xba22fe84	-0.00062177354
136	0x3cfda82d	0.030963982
137	0x3e484ca8	0.19560492
138	0xbdc611f5	-0.09671394
139	0xbe0aa1ff	-0.13538359
140	0x3dd9d92b	0.10637125
141	0x3e3a6fda	0.1820673
142	0x3dd20ef1	0.10256756
143	0x3cefa289	0.029252307
144	0xbdbd39e5	-0.09239558
145	0x3dc338ce	0.09532319
146	0xbdad22ab	-0.08453878
147	0x3de7ee1c	0.11324713
148	0x3d764004	0.060119644
149	0x3c905e52	0.0176231
150	0x3baded29	0.0053078127
151	0x3e1c7ecd	0.15282746
152	0xbd028d11	-0.031872813
153	0xbc474b65	-0.012163972
154	0x3e1a17cc	0.1504814
155	0x3dbf6ab5	0.093465246
156	0x3dbd1c7a	0.09233947
157	0x3dbf3cda	0.093377784
158	0xbc694a68	-0.014238931
159	0x3e189cfb	0.14903633
160	0x3dc88482	0.09790899
161	0xbd58adcf	-0.05290013
162	0x3d9afd7d	0.0756788
163	0x3e0902d1	0.1337998
164	0xbe5b773f	-0.21432208
165	0xbd2c42ed	-0.042056013
166	0xbd80bc75	-0.06285945
167	0xbe3e6ebe	-0.18596932
168	0x3e422a81	0.18961526
169	0xbe138bb1	-0.14408757
170	0xbe314259	-0.17310466
171	0xbdc3dea0	-0.09563947
172	0xbd91c49a	-0.07117577
173	0xbe14194b	-0.14462774
174	0x3e1ba6b6	0.15200314
175	0x3e3d0c2b	0.18461673
176	0xbc8759c3	-0.016522294
177	0x3e243f19	0.16039695
178	0xbe0e6f53	-0.13909654
179	0xbdd56432	-0.10419501
180	0x3be78356	0.007065217
181	0xbe4d2f60	-0.20037603
182	0xbe385c00	-0.18003845
183	0x3dd7c24c	0.10535106
184	0x3d8cf07e	0.06881808
185	0x3e17d9c4	0.14829165
186	0x3d08d0eb	0.033402365
187	0xbcc28375	-0.023744324
188	0xbe2b9680	-0.1675663
189	0x3e0588c0	0.13040447
190	0xbe3d4149	-0.18481936
191	0xbd6b6836	-0.05747243
192	0xbe01b1c4	-0.12665468
193	0x3e11cb5f	0.14237736
194	0xbe01674e	-0.12637064
195	0xbda97964	-0.082751065
196	0x3e426f96	0.18987879
197	0x3dbe659f	0.092967264
198	0x3e3f5e28	0.18688262
199	0xbd00335a	-0.031298973
200	0x3dda0fe9	0.10647566
201	0x3e038653	0.1284421
202	0x3e0942d2	0.13404396
203	0x3e38d41d	0.18049665
204	0x3d7454a8	0.059651047
205	0xbe0c59ee	-0.1370618
206	0xbe05a360	-0.13050604
207	0x3e2b7398	0.16743314
208	0x3dc75248	0.09732491
209	0xbd9e7e9c	-0.077389926
210	0xbdc08895	-0.09401051
211	0xbd9eb6e3	-0.077497266
212	0xbd9475d9	-0.0724904
213	0x3da98a87	0.08278375
214	0xbd36be74	-0.044615224
215	0xbd9daad1	-0.07698596
216	0xbcdaee10	-0.026724845
217	0x3e3d65e3	0.18495898
218	0xbe43da84	-0.19126326
219	0xbcdbed5d	-0.026846582
220	0x3e3b1173	0.18268375
221	0xbe501f12	-0.20324352
222	0x3e40e100	0.1883583
223	0x3cd001aa	0.025391418
224	0x3cfa9ca3	0.030592268
225	0x3d94415e	0.0723903
226	0xbcd9f283	-0.026604896
227	0x3d4b7c56	0.049679123
228	0x3e2afe47	0.16698562
229	0x3e4d97e6	0.20077476
230	0xbd322862	-0.043495543
231	0xbdbd0fc9	-0.092315264
232	0xbcd7061b	-0.026248029
233	0x3bdafcbd	0.006682961
234	0x3e1ec481	0.15504648
235	0xbd8e525b	-0.06949302
236	0xbd96ee32	-0.07369651
237	0xbdf994c4	-0.12186578
238	0xbe03d5e8	-0.12874568
239	0xbd0f693e	-0.035012476
240	0x3c999719	0.018748807
241	0xbd9ef0a5	-0.07760743
242	0xbe252c01	-0.16130067
243	0xbe465a9d	-0.19370504
244	0xbe1c637f	-0.1527233
245	0xbe4288dc	-0.1899752
246	0xbe3b475f	-0.18288945
247	0xbe286300	-0.16444016
248	0xbd100c07	-0.03516772
249	0x3d840708	0.064466536
250	0x3bb12199	0.0054056165
251	0xbe4a4eff	-0.19756697
252	0xbe4a1ba0	-0.197371
253	0x3d90f3fc	0.07077786
254	0xbcf56b57	-0.02995841
255	0xbe151090	-0.145571
