logs/dict/ogbg-molbbbp-GCN-64-5-128-0.0001-0.5-0.0-cls-46.pth (torch, 402148 bytes, 43 tensors)

atom_encoder.atom_embedding_list.0.weight f4 [119, 128]
0	0xbde83bd7	-0.113395385
1	0x3de886d8	0.113538444
2	0x3dd0ba5d	0.10191796
3	0x3e5fc6ce	0.21853182
4	0xbe567218	-0.20941961
5	0xbde6571e	-0.11247085
6	0x3e0632b5	0.1310528
7	0xbd069ac1	-0.03286243
8	0x3d818c0a	0.063255385
9	0x3d8a9420	0.06766534
10	0xbdff2614	-0.12458435
11	0xbdbf25c2	-0.093333736
12	0xbc9ae8d8	-0.018909857
13	0x3d6e0af1	0.058115903
14	0x3ed0c10c	0.40772283
15	0x3e861b4a	0.26192695
16	0x3e2870b0	0.16449237
17	0x3da086ae	0.07838188
18	0xbdcb6fd7	-0.09933441
19	0xbc73b59e	-0.014874844
20	0xbdf896a6	-0.12138109
21	0x3d7697c9	0.060203347
22	0xbe5cebda	-0.21574345
23	0x3db6661b	0.08906194
24	0xbce1dc6f	-0.027570931
25	0xbac7966c	-0.0015227324
26	0x3e05c504	0.13063437
27	0x3e249f30	0.1607635
28	0x3df85f71	0.12127579
29	0x3ca0fe67	0.019652558
30	0xbd951794	-0.07279888
31	0x3e89e744	0.26934254
32	0xbe0fe488	-0.14052022
33	0xbd18091f	-0.037118074
34	0x3d7e3d1d	0.06207
35	0x3d019295	0.031633932
36	0xbc3b023e	-0.011414109
37	0x3ea7d470	0.32779264
38	0x3e032da6	0.12810382
39	0x3dc3822c	0.09546313
40	0x3e4a030d	0.19727726
41	0x3d52cbd4	0.051463917
42	0xbdb0dc2d	-0.08635745
43	0x3df33c5c	0.11876747
44	0x3a8f337b	0.0010925377
45	0xbe5cfe07	-0.21581279
46	0xbbd70d61	-0.006562874
47	0x3dc531bd	0.096286274
48	0xbd0879d0	-0.033319294
49	0x3e3bd820	0.18344164
50	0x3dda1873	0.106491946
51	0xbd38f354	-0.04515393
52	0x3d831b68	0.06401712
53	0xbdaeb8e0	-0.08531356
54	0x3c98b3d6	0.01864044
55	0xbe08d2bc	-0.13361639
56	0x3e379fe5	0.17932089
57	0xbdb85ddf	-0.090022795
58	0xbdde4d11	-0.10854543
59	0x3cb4a970	0.02205345
60	0xbe43dec7	-0.19127952
61	0x3df07197	0.117404155
62	0x3e118f00	0.14214706
63	0x39455e7f	0.00018822587
64	0xbe082fd5	-0.13299496
65	0x3d30643b	0.043064337
66	0x3da683aa	0.08130582
67	0xbe26b0af	-0.16278337
68	0xbe1547d4	-0.14578182
69	0x3e7a8cd3	0.24467783
70	0xbe097038	-0.13421714
71	0x3d842dcf	0.0645405
72	0x3e8d51d9	0.27601507
73	0x3df55ed4	0.11980978
74	0xbe198447	-0.14991866
75	0xbdf773c9	-0.12082631
76	0x3e9d37e1	0.30706695
77	0xbe1f0286	-0.15528306
78	0xbe5b8784	-0.21438414
79	0x3e27808c	0.1635763
80	0xbd3f97f3	-0.04677577
81	0xbe17cc06	-0.14823923
82	0xbc3b5a56	-0.011435112
83	0x3e145237	0.14484487
84	0xbd4f3fbd	-0.050597895
85	0x3d8ba736	0.06819002
86	0x3d749385	0.059710998
87	0x3e3b1a79	0.18271817
88	0xbdb7995b	-0.08964797
89	0xbdb6d0d3	-0.08926549
90	0x3d2a40ad	0.041565586
91	0x3e1caddb	0.15300696
92	0x3b68926b	0.0035487663
93	0x3e1055c6	0.1409522
94	0xbd2715b9	-0.0407922
95	0x3e70b3bd	0.23506065
96	0x3e53697c	0.20645708
97	0x3e4f813a	0.2026414
98	0x3e4b945a	0.1988081
99	0xbe4426cc	-0.19155425
100	0x3df0ef72	0.117644206
101	0x3c614ca2	0.013751181
102	0xbe82f707	-0.25579092
103	0xbc2cd4a4	-0.010548744
104	0x3e55700a	0.20843521
105	0xbdd8c578	-0.10584539
106	0x39c95f5e	0.00038408762
107	0xbcb7c434	-0.022432424
108	0xbe151d58	-0.14561975
109	0xbcc42f7a	-0.02394842
110	0xbc415e0d	-0.011802209
111	0xbdaddee4	-0.08489779
112	0xbd22ac3a	-0.03971503
113	0x3ca022ea	0.019547898
114	0x3d8997e0	0.06718421
115	0x3d1df302	0.03856183
116	0xbccd09df	-0.025029121
117	0x3d0d80ee	0.034546785
118	0x3e558e0e	0.20854971
119	0x3cf98b2c	0.03046187
120	0x3e4d1857	0.20028816
121	0x3d8a6eb1	0.06759394
122	0xbe9d8818	-0.30767894
123	0x3cc0d8e3	0.02354092
124	0xbe0fe76b	-0.14053123
125	0x3da5d989	0.08098132
126	0xbdc37b5b	-0.095450126
127	0x3df15868	0.1178444
128	0xb9f93c3c	-0.0004753786
129	0xbdc247a4	-0.094863206
130	0x3b16edf5	0.0023030017
131	0x3dab5ee3	0.083677076
132	0x3d957290	0.07297242
133	0x3dd1818b	0.102297865
134	0xbdcc657e	-0.099802956
135	0x3d5ac67b	0.053411942
136	0x3da3fcab	0.08007177
137	0x3dbd9320	0.092565775
138	0x3d07d80c	0.033165023
139	0x3c87e87e	0.016590353
140	0x3c8f8ab5	0.017522195
141	0xbd08c056	-0.03338655
142	0xbd3b74a3	-0.04576553
143	0x3cc58393	0.024110591
144	0x3df59a8c	0.11992368
145	0x3c379728	0.011205472
146	0x3d5a4a25	0.053293366
147	0xbe0c7bd9	-0.13719119
148	0xbd9c2b8f	-0.07625496
149	0x3d99005a	0.0747077
150	0x3d9581ea	0.0730017
151	0x3cece6cd	0.028918648
152	0xbc75e713	-0.015008706
153	0x3d412cb4	0.047161773
154	0x3e054cb6	0.13017544
155	0xbd4f30b1	-0.050583545
156	0xbdd8564d	-0.105633356
157	0x3e0936eb	0.13399856
158	0x3df33bdd	0.118766524
159	0x3dcdd506	0.100503966
160	0x3d4f96ea	0.050681032
161	0x3ddfbb5b	0.10924407
162	0x3e095004	0.1340943
163	0x3d71fedc	0.059080943
164	0x3b227188	0.0024786908
165	0xbde0e66d	-0.1098145
166	0x3d410ecc	0.047133252
167	0x3de6b2b9	0.112645574
168	0x3d7750ef	0.06037992
169	0x3d1c3709	0.038138423
170	0x3e095b7f	0.13413809
171	0x3e0ce00f	0.13757347
172	0x3d99549f	0.07486843
173	0x3e016a83	0.12638287
174	0xbcf59043	-0.029976016
175	0xbd0d573f	-0.034507032
176	0xbda8494b	-0.082171045
177	0x3df8d912	0.12150778
178	0xbe0ffd1f	-0.14061402
179	0xbe0ccc84	-0.13749892
180	0x3c644980	0.013933539
181	0x3d4f8d14	0.050671652
182	0x3d329d38	0.043606967
183	0x3d8bc809	0.06825263
184	0x3c948a7e	0.018132444
185	0xbc8934aa	-0.016748745
186	0xbe04bf58	-0.12963617
187	0xbd79a772	-0.060950704
188	0x3d1d4353	0.038394284
189	0x3d049189	0.032365356
190	0x3d5e858d	0.054326583
191	0xbd27ab1e	-0.040934674
192	0x3dbfabdc	0.093589514
193	0x3ca593b1	0.020212026
194	0x3d14d3bf	0.03633475
195	0xbe15d521	-0.14632083
196	0xbe1ef0fe	-0.15521619
197	0xbdc75fd1	-0.097350724
198	0xbd7e3ba1	-0.062068585
199	0xbda32abd	-0.07967136
200	0x38eb304c	0.00011214669
201	0xbe0d306c	-0.13788003
202	0xbe1bf862	-0.1523147
203	0x3de72ce8	0.11287862
204	0x3e16279e	0.1466355
205	0xbddaec2e	-0.10689579
206	0xbb87b82d	-0.0041418285
207	0x3dc3355a	0.095316604
208	0x3cebf51b	0.028803399
209	0x3d67f807	0.05663302
210	0xbdc3ddb3	-0.0956377
211	0xbe0e6840	-0.13906956
212	0xbcdf56cf	-0.027263073
213	0x3d57429a	0.05255375
214	0xbdf2fb6d	-0.11864362
215	0x3d3c5eda	0.045988895
216	0x3e13f96b	0.14450614
217	0xbcfdc0f8	-0.030975804
218	0xbc5beb15	-0.013422747
219	0xbc954f75	-0.018226365
220	0xbe069634	-0.13143235
221	0x3d64c29e	0.055849664
222	0xbd4e82b2	-0.05041761
223	0xbc8120c9	-0.015762703
224	0xbda26368	-0.079291165
225	0xbd8a6cb3	-0.06759014
226	0x3e0d8395	0.13819726
227	0x3c0ed089	0.008716711
228	0xbe077725	-0.13229044
229	0x3d2ae412	0.04172141
230	0xbd41b3bb	-0.047290545
231	0x3bf587b0	0.007492982
232	0x3cec1a51	0.028821142
233	0xbe1dec34	-0.15422136
234	0xbd8674c6	-0.065652415
235	0xbd61e451	-0.05514938
236	0xbddcc692	-0.10780062
237	0xbc7cdb46	-0.015433138
238	0x3a2cba96	0.0006589083
239	0x3d04d08b	0.032425445
240	0x3d2d34bd	0.042286623
241	0x3de99955	0.11406199
242	0x3df89958	0.12138623
243	0x3b3dc0fa	0.0028954134
244	0x3d8525b0	0.06501329
245	0xbd98e3a2	-0.074652925
246	0xbd8d18b8	-0.0688948
247	0x3cdbe4b2	0.026842449
248	0xbe1a5286	-0.15070543
249	0x3d6a5b29	0.057215843
250	0xbdefb4b8	-0.11704391
251	0x3e18a243	0.14905648
252	0x3e1f8a6a	0.15580145
253	0x3de9f982	0.11424543
254	0xbe1d217a	-0.15344802
255	0x3b99f124	0.0046979357

atom_encoder.atom_embedding_list.1.weight f4 [4, 128]
0	0xbdd58af6	-0.10426895
1	0xbe7205a1	-0.2363496
2	0x3d71ae5b	0.05900417
3	0x3d5d47ae	0.054023437
4	0x3e06128f	0.13093017
5	0x3e2a4d9a	0.16631165
6	0xbe125eea	-0.1429402
7	0x3e135253	0.14386873
8	0xbe092be4	-0.13395649
9	0x3d8b26bc	0.06794497
10	0xbe261526	-0.16219005
11	0x3d9a7222	0.075413
12	0xbe55a4fb	-0.20863716
13	0x3e1317a6	0.1436449
14	0x3e4a0add	0.19730707
15	0x3e10397a	0.14084426
16	0x3db6ff72	0.08935441
17	0x3e72fb6d	0.23728724
18	0x3d9f5ed0	0.07781756
19	0xbccc7df2	-0.0249624
20	0x3dc79f50	0.09747183
21	0xbc97d5a6	-0.018534493
22	0xbd9cade4	-0.076503545
23	0xbd828abc	-0.06374118
24	0x3b7aa808	0.0038247127
25	0x3bcb7bbc	0.0062098186
26	0xbd6dabc8	-0.05802515
27	0x3d3d1b5c	0.04616867
28	0xbb82fab1	-0.00399717
29	0xbd6bfd4c	-0.05761461
30	0xbd00221a	-0.03128252
31	0x3e3646fe	0.17800519
32	0x3d5abb85	0.05340149
33	0xbe01cef4	-0.12676603
34	0xbcbe4706	-0.023227226
35	0x3e1ef533	0.15523224
36	0x3df392b1	0.118932135
37	0x3dc9f0b9	0.09860367
38	0xbe0c404e	-0.13696405
39	0xbe6fa9c2	-0.23404601
40	0xbd39fb87	-0.04540589
41	0x3de339d2	0.11095013
42	0x3de77568	0.1130169
43	0x3dae9e16	0.08526246
44	0xbd86df2e	-0.06585537
45	0x3e2b65bf	0.16738032
46	0xbe096926	-0.13419017
47	0x3d2b179c	0.041770563
48	0xbe363511	-0.1779368
49	0xbe1c2c6e	-0.15251324
50	0x3d132402	0.03592301
51	0xbdf009c5	-0.117206134
52	0x3e2e7b22	0.17039159
53	0x3e1c9e42	0.15294746
54	0x3e146d16	0.14494738
55	0x3e33ab27	0.17545758
56	0x3e10b354	0.14130908
57	0xbe1a17ca	-0.15048137
58	0xbdba2628	-0.09089309
59	0xbc829edf	-0.015944896
60	0xbe1349e0	-0.1438365
61	0x3de68cb2	0.11257304
62	0x3dd0b1d1	0.10190166
63	0x3cd889e9	0.026432948
64	0x3dc3319a	0.09530945
65	0xbe143714	-0.14474136
66	0x3e25fc78	0.1620959
67	0x3e1bb2af	0.15204881
68	0x3e0c86ac	0.13723248
69	0x3e43033c	0.19044203
70	0x3dc2714b	0.09494265
71	0xbe22d3af	-0.15901063
72	0x3ddcd406	0.10782628
73	0x3dcb4e35	0.09927026
74	0x3c85bacb	0.016324421
75	0xbe0b0309	-0.13575377
76	0x3de56a1c	0.112018794
77	0x3e05b8d6	0.1305879
78	0xbd547ecf	-0.051878747
79	0x3d980ab9	0.0742392
80	0x3ddc145c	0.10746071
81	0xbc3e7049	-0.011623451
82	0x3d529d18	0.051419348
83	0x3dbc64dd	0.09198926
84	0x3e304a5e	0.17215869
85	0x3e46a195	0.19397576
86	0x3df4d933	0.1195549
87	0x3ddc7ff9	0.10766596
88	0xbd5908cc	-0.052986905
89	0x3e56dc88	0.20982563
90	0x3df261cd	0.1183506
91	0x3e33b12e	0.17548057
92	0x3d86d8ee	0.06584345
93	0x3dbdafca	0.09262045
94	0x3df61ee3	0.1201761
95	0x3e5cd346	0.2156497
96	0xbd6676e1	-0.056265716
97	0x3daa4ae9	0.08315069
98	0xbcf35455	-0.029703299
99	0x3d854379	0.0650701
100	0x3df21f9b	0.118224345
101	0x3e03480a	0.1282045
102	0xbd6580af	-0.056030925
103	0xbdc23a49	-0.09483773
104	0xbdac6203	-0.08417132
105	0x3e07377b	0.13204758
106	0xbe62c596	-0.22145686
107	0x3d329300	0.04359722
108	0x3dbf1602	0.093303695
109	0x3e42e07b	0.19030945
110	0xbda0b0a9	-0.07846195
111	0xbd067683	-0.032827865
112	0xbdec3840	-0.11534166
113	0x3e7c4520	0.24635744
114	0xbdfd431d	-0.123663165
115	0x3db6c814	0.089248806
116	0xbdee3e25	-0.11632947
117	0xbd8f11c3	-0.0698581
118	0xbd93ec36	-0.07222788
119	0xbdb306b5	-0.08741514
120	0x3ddd439b	0.1080391
121	0xbd86aabf	-0.06575536
122	0x3d8d7e40	0.06908846
123	0x3e0862ad	0.13318892
124	0x3e27027b	0.1630954
125	0xbe2c3d2c	-0.1682021
126	0xbde3b766	-0.11118965
127	0xbe443428	-0.19160521
128	0x3e4ac891	0.19803073
129	0x3e2e4ad2	0.17020729
130	0x3e00d6e3	0.12581973
131	0xbde87ee5	-0.11352328
132	0x3e5f8779	0.21829022
133	0x3e7b5e1b	0.24547617
134	0xbdbafdd1	-0.09130443
135	0x3dc726b0	0.09724176
136	0x3e08bad8	0.13352525
137	0xbe84a871	-0.2590976
138	0x3d814b5a	0.063132
139	0x3d8b5288	0.06802851
140	0x3d630f98	0.055434793
141	0xbd2ed4cd	-0.04268341
142	0xbe1b8f2f	-0.15191339
143	0x3dde483e	0.10853623
144	0x3e782eb1	0.24236561
145	0x3cfb7502	0.030695442
146	0x3d2143dd	0.03937136
147	0x3cf924c1	0.030413033
148	0x3d16795d	0.036736835
149	0xbc333473	-0.010937798
150	0x3c0b4143	0.008499446
151	0xbe562b4e	-0.20914957
152	0xbd98c36e	-0.0745915
153	0x3d50684a	0.050880708
154	0xbe14ea5e	-0.14542529
155	0xbb291c7b	-0.002580433
156	0xbe7edbe9	-0.24888577
157	0xbdf19d68	-0.11797601
158	0x3cd250a1	0.025673212
159	0xbe1f7dcb	-0.1557533
160	0x3e3210ba	0.17389193
161	0xbd4c0a35	-0.04981442
162	0x3def8d70	0.11696899
163	0x3d04040a	0.032230414
164	0xbe5741a6	-0.21021137
165	0x3e7a3345	0.2443362
166	0x3d66736e	0.056262426
167	0xbe0057b5	-0.12533458
168	0xbe731f53	-0.23742418
169	0x3e7c2b2d	0.24625845
170	0x3e854b31	0.2603393
171	0x3e2a0f09	0.16607298
172	0x3e487c03	0.19578557
173	0xbde8be60	-0.11364436
174	0x3da55d09	0.08074386
175	0xbca0eea9	-0.019645052
176	0x3e02948f	0.12751983
177	0xbe2ce2e4	-0.16883427
178	0x3deb8390	0.11499703
179	0x3e0b27da	0.13589421
180	0xbd2e3d17	-0.04253873
181	0x3d81bc25	0.06334714
182	0xbdb040e0	-0.08606124
183	0x3e4addf0	0.19811225
184	0xbdeb4e70	-0.1148957
185	0x3d503e91	0.050840918
186	0x3e35f8c8	0.17770684
187	0xbe1e83a5	-0.15479906
188	0xbe0eed4b	-0.13957708
189	0x3dbf96fb	0.09354969
190	0x3db4aba9	0.08821804
191	0x3e263d46	0.16234311
192	0x3bbadc67	0.0057025435
193	0xbe2ea9eb	-0.17057006
194	0x3d0f0339	0.034915183
195	0x3d68a330	0.056796253
196	0xbd3ddc53	-0.046352696
197	0x3d4c39f2	0.04985995
198	0x3c7dc070	0.015487775
199	0x3d6f3261	0.058397654
200	0x3df96ec4	0.1217933
201	0x3e4d78dc	0.20065635
202	0xbe1eca85	-0.15506943
203	0xbe8ef254	-0.27919257
204	0x3c8aa4cc	0.016924284
205	0xbc3a8ccf	-0.01138611
206	0xbe009c09	-0.12559523
207	0xbe0834cc	-0.1330139
208	0xbdcd197b	-0.10014626
209	0xbdf7a660	-0.120922804
210	0xbe01079a	-0.12600556
211	0xbc411c24	-0.011786494
212	0xbe54c50f	-0.20778297
213	0x3e26ffe6	0.16308555
214	0x3c12376c	0.008924346
215	0xbe5d44fe	-0.2160835
216	0x3d4b6b74	0.049663022
217	0x3e3748a5	0.17898805
218	0x3e3daf9c	0.18524021
219	0x3cb8bfa0	0.022552311
220	0xbe5b3d2d	-0.21410055
221	0xbe4f2f56	-0.20232901
222	0xbe92709a	-0.28601533
223	0x3e2d6976	0.16934761
224	0x3dc25e78	0.09490675
225	0x3e37a9bf	0.17935847
226	0xbe1d3f3c	-0.15356153
227	0x3dc465ba	0.09589715
228	0xbd00632e	-0.031344585
229	0x3c732e4d	0.014842582
230	0x3d782229	0.060579453
231	0x3e09f6dd	0.13473077
232	0x3e018161	0.1264701
233	0xbdd5e6ab	-0.10444387
234	0xb8f7d02f	-0.00011816655
235	0xbd6fce3b	-0.058546286
236	0xbd99f217	-0.07516878
237	0x3d1db192	0.038499422
238	0xbd522c1e	-0.051311605
239	0xbb5b56a7	-0.0033468397
240	0x3d8be3ea	0.068305805
241	0xbd723059	-0.05912814
242	0xbc9aecab	-0.01891168
243	0xbc1ea2cb	-0.009682368
244	0xbe3dfaff	-0.18552779
245	0xbdc61109	-0.09671218
246	0x3d67882a	0.05652634
247	0x3e5140f1	0.2043493
248	0xbe187c87	-0.14891253
249	0x3d9fc9b5	0.078021444
250	0x3e2ba5c5	0.16762455
251	0xbca5a75d	-0.020221407
252	0xbe0e9622	-0.13924459
253	0x3b5211da	0.0032054097
254	0xbd417ddb	-0.047239166
255	0x3d4b17e6	0.04958334

atom_encoder.atom_embedding_list.2.weight f4 [12, 128]
0	0x3dfa80dc	0.12231609
1	0x3e3e5b14	0.18589431
2	0x3db2c094	0.087281376
3	0x3e885454	0.26626837
4	0x3e4589fa	0.19290915
5	0x3cfcb3d9	0.030847477
6	0x3d80e95e	0.06294511
7	0xbe36101e	-0.17779586
8	0x3e5a80f4	0.21338254
9	0xbe78f000	-0.24310303
10	0xbe9baff1	-0.3040767
11	0xbd06cfaa	-0.032912888
12	0x3e9a0484	0.3008157
13	0x3e922231	0.2854171
14	0xbe0ef8e0	-0.13962126
15	0xbea0e2ec	-0.31423128
16	0x3d787a2b	0.060663383
17	0xbc01aa91	-0.007914201
18	0xbe35062b	-0.17678134
19	0xbd1ff3c4	-0.039050832
20	0x3d73cd6f	0.05952209
21	0x3db34ed2	0.08755268
22	0xbe8a621d	-0.2702798
23	0x3c33249d	0.010934022
24	0xbdd811d2	-0.10550274
25	0xbcca7f67	-0.024718953
26	0xbe5cd087	-0.21563922
27	0x3daa83f1	0.08325947
28	0xbd69a965	-0.057046313
29	0xbea303d9	-0.31838873
30	0x3ddb7642	0.10715915
31	0x3da62dc1	0.081141956
32	0x3d6e5685	0.05818798
33	0x3ce791f5	0.02826784
34	0xbe0854f8	-0.13313663
35	0x3e7c138f	0.24616836
36	0x3e38134f	0.17976116
37	0x3dae45d7	0.08509415
38	0x3d61de88	0.055143863
39	0x3ddd6e09	0.10812003
40	0x3bf92fb2	0.0076045627
41	0x3cec2195	0.028824607
42	0x3cdf9413	0.027292287
43	0x3e2f2a1e	0.1710591
44	0xbdc6e6e5	-0.097120084
45	0xbe8edfce	-0.27905124
46	0xbded8ab4	-0.11598721
47	0xbda42810	-0.08015454
48	0xbdc8871f	-0.09791397
49	0x3e614545	0.2199908
50	0xbe781f2c	-0.24230641
51	0xbde34a18	-0.11098117
52	0xbde6b58a	-0.112650946
53	0x3c04655a	0.008080805
54	0xbd1264f3	-0.035740804
55	0x3e94d7a1	0.29070762
56	0xbdb28481	-0.08716679
57	0xbdca9a85	-0.098927535
58	0xbcb81fc6	-0.022476088
59	0xbe0f56db	-0.13997976
60	0x3e7b8f94	0.2456649
61	0xbe22bdf5	-0.15892775
62	0xbde962eb	-0.1139582
63	0x3d8c461c	0.0684931
64	0x3df8d32f	0.12149655
65	0xbe9f20d1	-0.31079724
66	0xbe3f14bc	-0.18660253
67	0xbbe780d7	-0.0070649195
68	0x3e4d6eb1	0.20061757
69	0x3df063ef	0.11737811
70	0xbdf59fda	-0.1199338
71	0xbe795b0e	-0.24351141
72	0x3e0c832c	0.13721913
73	0x3d8ed78b	0.06974705
74	0xbe0e8b0b	-0.13920228
75	0xbe4c94ee	-0.19978687
76	0xbe249eb2	-0.16076162
77	0xbd970989	-0.073748656
78	0xbdd60557	-0.10450237
79	0x3e56386e	0.20919964
80	0x3ea2844a	0.31741554
81	0x3dd50ae9	0.104024716
82	0xbe37c927	-0.17947827
83	0x3d36b9f0	0.044610918
84	0x3dc12cf5	0.09432403
85	0xbde50765	-0.11183051
86	0xbe3b9716	-0.18319353
87	0x3dd28c66	0.10280685
88	0xbb9af22b	-0.0047285757
89	0x3d367214	0.044542387
90	0x3d20974a	0.03920678
91	0x3e7b7753	0.24557237
92	0xbe5c2a4e	-0.21500513
93	0xbe077bbf	-0.13230799
94	0xbe23eb19	-0.16007651
95	0xbc6bac0c	-0.014384281
96	0xbbf8937a	-0.00758594
97	0xbe3188c2	-0.17337325
98	0xbdad5f44	-0.08465436
99	0xbe707afd	-0.23484416
100	0xbdf76460	-0.12079692
101	0xbd133cfc	-0.03594683
102	0x3d3bd73d	0.045859564
103	0x3e1ec515	0.15504868
104	0xbe895117	-0.2681968
105	0xbe46e71a	-0.19424096
106	0xbd0a09e3	-0.033700835
107	0x3e877ffc	0.26464832
108	0xbc824581	-0.015902283
109	0xbe66f6b0	-0.22555041
110	0xbd617206	-0.05504038
111	0xbd29d712	-0.041464873
112	0xbdc3579b	-0.09538194
113	0xbd4ba98d	-0.049722243
114	0x3d9aea25	0.07564191
115	0xbe8722b9	-0.2639368
116	0xbe8e1cbc	-0.27756298
117	0xbe34a451	-0.17640807
118	0x3e40b661	0.18819572
119	0x3d33ac9d	0.04386579
120	0x3e162ca4	0.14665467
121	0xbe5b4c4b	-0.21415822
122	0x3e1f63b4	0.15565377
123	0x3dcc8126	0.099855706
124	0x3e2225f2	0.15834787
125	0x3e8d3505	0.27579513
126	0x3ceca43f	0.028886912
127	0xbddf4782	-0.10902311
128	0xbe19fe90	-0.15038514
129	0xbe13b0c8	-0.14422905
130	0x3e367ad8	0.17820299
131	0xbd684b1e	-0.056712262
132	0xbe164ae2	-0.14677003
133	0xbd9be483	-0.076119445
134	0xbd2b7a1d	-0.041864503
135	0x3cf066c0	0.02934587
136	0x3df51e19	0.11968631
137	0x3e00e3f5	0.12586959
138	0xbdc0356e	-0.09385191
139	0xbdf3203d	-0.11871383
140	0xbe14df47	-0.14538299
141	0x3cae8705	0.021304617
142	0xbe4b1d6f	-0.19835447
143	0x3d386804	0.045021072
144	0x3d466d51	0.048444096
145	0x3e43ca90	0.1912024
146	0x3e33fad0	0.17576146
147	0x3b59b74d	0.0033220828
148	0x3d7868e3	0.060646903
149	0xbd979acc	-0.07402572
150	0xba555aa8	-0.0008138814
151	0xbe3b16ce	-0.18270418
152	0xbe22cd5d	-0.15898652
153	0x3d652dd9	0.055951927
154	0xbe109cee	-0.14122364
155	0xbd9914db	-0.07474681
156	0x3e2ff00b	0.17181413
157	0x3e3cb61f	0.18428849
158	0x3e375cfb	0.17906563
159	0xbe057b8d	-0.13035412
160	0xbca16b60	-0.01970452
161	0x3beb558e	0.00718183
162	0x3d9cfb59	0.07665128
163	0xbdcbe3f6	-0.099555895
164	0xbcef653e	-0.02922308
165	0xbe192be1	-0.14958145
166	0x3e34bd90	0.17650437
167	0x3d1baa0b	0.038003962
168	0x3e5724ed	0.2101018
169	0x3e2840a3	0.16430907
170	0x3cdfdd8c	0.027327321
171	0x3e227ae9	0.15867199
172	0x3de9f89c	0.114243716
173	0x3dcb1c48	0.099175036
174	0x3e132c01	0.14372255
175	0x3e399697	0.18123852
176	0x3d085b0f	0.033289965
177	0x3e328405	0.17433174
178	0xbd795594	-0.06087263
179	0xbdfba625	-0.12287549
180	0x3e0006b5	0.12502559
181	0xbe071655	-0.13192113
182	0xbe517732	-0.20455626
183	0xbe3dd2c9	-0.1853744
184	0x3e39ad82	0.18132594
185	0x3e0cfa1f	0.13767289
186	0x3de6cc94	0.11269489
187	0x3e1a0282	0.15040019
188	0xba359658	-0.0006927005
189	0xbda79c1f	-0.081840746
190	0xbdf0e6a8	-0.11762744
191	0x3cd6199b	0.026135257
192	0x3d716e2b	0.058942955
193	0x3e1bb1c9	0.15204538
194	0xbdc8218e	-0.09772025
195	0xbcbc35b4	-0.022974826
196	0xbe08e715	-0.13369401
197	0xbda0d55d	-0.07853196
198	0xbe500529	-0.20314468
199	0xbd267cbd	-0.040646303
200	0x3d95098c	0.072772115
201	0xbd4d7d0a	-0.050168075
202	0x3e18ffa9	0.14941277
203	0xbd8064eb	-0.062692486
204	0x3de3550d	0.111002065
205	0xbdb529ec	-0.088458866
206	0xbded5315	-0.11588112
207	0x3e3aa021	0.18225147
208	0xbd9d735c	-0.07688019
209	0xbde12408	-0.109932005
210	0x3d34958e	0.04408794
211	0x3c8b01c9	0.016968625
212	0x3dabb3fa	0.08383937
213	0xbcd6c406	-0.026216518
214	0xbdea3974	-0.114367396
215	0xbc857a8c	-0.016293786
216	0x3e4a93fb	0.19783013
217	0x3d1e706d	0.038681436
218	0xbe3118c7	-0.17294608
219	0x3e145294	0.14484626
220	0x3dc0b09e	0.09408687
221	0xbe3aa844	-0.1822825
222	0x3c5308c2	0.012880506
223	0x3d4fd2a4	0.050737992
224	0x3d2c66dd	0.042090286
225	0x3dd827f1	0.10554493
226	0x3d9f6a0f	0.07783901
227	0xbe0512d8	-0.1299547
228	0x3e3aa851	0.1822827
229	0x3dba79e0	0.09105277
230	0x3d2af850	0.041740716
231	0xbe1bf7a5	-0.15231188
232	0xbe07d086	-0.13263139
233	0xbb22f7dd	-0.0024866976
234	0xbe1daca2	-0.15397885
235	0xbe07e8fd	-0.13272472
236	0xbce2391e	-0.027615126
237	0x3ddf76de	0.10911344
238	0x3e4d9071	0.20074631
239	0xbdd30bd7	-0.10304993
240	0xbd0429dc	-0.032266483
241	0x3cc0344f	0.023462443
242	0x3e50b429	0.20381226
243	0xbe44ac7a	-0.1920642
244	0x3d33a39d	0.043857206
245	0x3dd2d77f	0.10295009
246	0xbdc34d40	-0.09536219
247	0x3dc13715	0.09434334
248	0x3e03d53a	0.12874308
249	0x3da49d56	0.08037822
250	0xbe021546	-0.12703428
251	0x3dbe81b3	0.09302082
252	0x3e2b9d29	0.1675917
253	0x3cd59644	0.026072629
254	0xbdd33ade	-0.103139624
255	0x3e5d6436	0.21620259

atom_encoder.atom_embedding_list.3.weight f4 [12, 128]
0	0x3dfc335b	0.12314483
1	0x3e30488e	0.17215177
2	0x3bffbdf9	0.007804629
3	0x3e160df1	0.14653756
4	0x3e0da916	0.13834032
5	0xbc8aeb7f	-0.016957996
6	0x3dd745d4	0.105113655
7	0x3e510f84	0.20416075
8	0xbe27223e	-0.16321656
9	0x3d282413	0.041050028
10	0xbe107305	-0.14106376
11	0xbc9a8c9e	-0.01886588
12	0x3dd574fd	0.10422704
13	0x3d5e7129	0.054307137
14	0xbe23542f	-0.15950082
15	0xbd1e4e40	-0.038648844
16	0x3e10fabf	0.14158152
17	0xbe27d10f	-0.16388343
18	0xbe303b4b	-0.17210118
19	0xbe3c8a27	-0.18412076
20	0xbd76d51b	-0.060261827
21	0x3e1d1b31	0.15342404
22	0x3bfb43b4	0.007667983
23	0x3d0634e2	0.032765277
24	0xbd9e2ba7	-0.0772317
25	0x3da80651	0.0820433
26	0xbe4b61ad	-0.19861479
27	0xbdc67b38	-0.09691471
28	0xbdb4afeb	-0.08822616
29	0x3de70423	0.11280086
30	0xbe489c1a	-0.19590798
31	0xbe1899d9	-0.14902438
32	0x3d6d9b1d	0.058009256
33	0x3e3f2db0	0.18669772
34	0x3d3b3a91	0.04571015
35	0x3d5bc8a9	0.05365816
36	0x3dc9ee53	0.0985991
37	0xbd0616a8	-0.03273645
38	0x3e094a30	0.13407207
39	0x3d128e0c	0.035779998
40	0x3e0565ed	0.13027163
41	0xbe1e427e	-0.15455052
42	0xbd4f95aa	-0.05067984
43	0xbc58c109	-0.013229617
44	0x3cf7e365	0.030259797
45	0xbe3166d0	-0.17324376
46	0xbe05d503	-0.13069539
47	0x3e22d48d	0.15901394
48	0xbd595c04	-0.05306627
49	0xbd9a45c4	-0.07532838
50	0x3da50f7f	0.08059596
51	0x3b9f43e7	0.0048603895
52	0x3dd006d0	0.101575494
53	0x3ded4562	0.11585499
54	0x3e07a642	0.13247016
55	0x3cbb1384	0.022836454
56	0x3e1f4144	0.1555224
57	0x3c69a3d0	0.014260247
58	0x3cb08557	0.021547956
59	0xbe3c7778	-0.18404949
60	0xbd848ccd	-0.06472168
61	0x3c86cdd1	0.016455563
62	0xbe264bfe	-0.16239926
63	0xbdc2f5c4	-0.09519532
64	0xbc74e502	-0.014947178
65	0xbe4e0e2f	-0.20122598
66	0xbdab782b	-0.083725296
67	0xbe29b096	-0.16571268
68	0x3caba09d	0.02095061
69	0x3e0c8e0f	0.13726066
70	0xbdfccc26	-0.12343626
71	0x3e1daaac	0.15397137
72	0x3e2ca5a9	0.1686007
73	0x3db99fd7	0.0906369
74	0x3e08b036	0.13348469
75	0x3cda1765	0.026622484
76	0x3de6ef6c	0.11276135
77	0x3e12870a	0.14309326
78	0xbdb82883	-0.08992102
79	0xbcd29ddc	-0.025710039
80	0xbe1b28e9	-0.15152325
81	0x3e3a96f1	0.18221642
82	0x3e488bb2	0.1958454
83	0xbe2be50d	-0.16786595
84	0xbdd78940	-0.10524225
85	0xbd3d2704	-0.046179786
86	0xbd52e18e	-0.051484637
87	0xbbb94573	-0.005654031
88	0xbbf1d960	-0.0073806494
89	0x3d621095	0.055191595
90	0x3d09534e	0.03352671
91	0xbe11d1e4	-0.14240223
92	0xba05ce4e	-0.0005104289
93	0xbe03f8e1	-0.12887909
94	0xbd1fe23f	-0.039034124
95	0x3d26703f	0.04063439
96	0x3d073b7c	0.033015713
97	0x3cb83be5	0.022489497
98	0x3cada57d	0.021197075
99	0xbe4d3785	-0.2004071
100	0x3e3eaa86	0.18619737
101	0x3d8e810f	0.0695821
102	0x3e038ef5	0.12847503
103	0x3e51591c	0.20444149
104	0x3b1c66d9	0.0023865013
105	0xbe334b6b	-0.17509238
106	0xbd4131a6	-0.04716649
107	0xbe487622	-0.19576314
108	0xbde1e9f9	-0.11030955
109	0x3e3d8443	0.18507485
110	0xbde8e5d5	-0.11371962
111	0x3a3a7e0c	0.00071141194
112	0xbe2f4e45	-0.17119701
113	0x3c0fb69b	0.008771564
114	0x3c3a6623	0.01137689
115	0x3e14d5ae	0.14534637
116	0x3e22fee8	0.15917552
117	0x3daa1bd5	0.0830609
118	0x3c1abccd	0.009444428
119	0xbe1ef930	-0.15524745
120	0x3d1553e4	0.036456957
121	0x3d13b0db	0.036057334
122	0x3e3f6519	0.1869091
123	0x3c44a514	0.012002248
124	0xbe2e0896	-0.16995463
125	0x3d7d8196	0.06189116
126	0x3e4fe48a	0.20302024
127	0xbdd8288d	-0.105546094
128	0x3c07be52	0.008285122
129	0x3d89a81e	0.06721519
130	0x3e416553	0.18886308
131	0xbddc890f	-0.10768329
132	0xbe257461	-0.16157676
133	0x3d80cadf	0.062886946
134	0xbe40f8d7	-0.18844925
135	0xbc958e38	-0.018256292
136	0xbe20ff2a	-0.15722337
137	0xbe160eb8	-0.14654052
138	0x3d3fad26	0.046795987
139	0x3e12cc9b	0.14335863
140	0x3d24ef58	0.04026732
141	0xbe456eb2	-0.19280508
142	0xbe53d57b	-0.20686905
143	0x3c9c5eb9	0.019088136
144	0xbdf7565a	-0.12077017
145	0xbce8ef4b	-0.028434416
146	0x3de61384	0.11234191
147	0xbdc5c67a	-0.09656997
148	0x3d7bcf9f	0.0614773
149	0xbd3f6285	-0.046724815
150	0xbd71d9af	-0.05904549
151	0x3e3f5f8b	0.1868879
152	0x3c66cdb1	0.014087127
153	0x3d75e63b	0.060034018
154	0xbcf7b6bb	-0.0302385
155	0xbdac87db	-0.0842435
156	0x3e37841b	0.17921488
157	0xbb470745	-0.0030369323
158	0xbcf0353a	-0.029322255
159	0xbc3d89af	-0.011568471
160	0xbdf6907e	-0.120392784
161	0x3deb3671	0.11484993
162	0x3d86b59f	0.0657761
163	0xbdae884b	-0.085220896
164	0xbe23ea1b	-0.16007273
165	0x3defb469	0.117043324
166	0xbd96af48	-0.07357651
167	0x3df2a6c3	0.118482135
168	0xbe1c94c1	-0.1529112
169	0x3deb94bd	0.11502979
170	0x3dc89b19	0.097952075
171	0xbd8f2bdd	-0.06990788
172	0xbe43c849	-0.19119371
173	0x3e068cc3	0.13139634
174	0x3e16b9bd	0.14719291
175	0x3ce0ba4d	0.027432585
176	0x3e47114d	0.19440193
177	0xbd1f0fa8	-0.03883329
178	0xbde0235c	-0.10944244
179	0xbda82d1e	-0.082117304
180	0xbde20f50	-0.11038077
181	0x3e15c34e	0.14625284
182	0x3d97ea01	0.074176796
183	0xbda4df92	-0.08050455
184	0x3de3798f	0.1110717
185	0xbdaffef9	-0.08593554
186	0x3e52f6dd	0.20601983
187	0x3e45eccf	0.19328617
188	0x3df35a82	0.11882497
189	0xbe10edf3	-0.1415327
190	0xbab3e8e9	-0.0013726029
191	0x3dc3117b	0.095248185
192	0xbcda0b7e	-0.026616808
193	0xbd73c0ee	-0.059510164
194	0x3e119af9	0.14219274
195	0xbe42c8a7	-0.19021855
196	0xbdcdebc6	-0.10054736
197	0xbe33a036	-0.17541584
198	0x3e20cbd3	0.15702753
199	0x3e369761	0.17831184
200	0xbdc0f15e	-0.09421037
201	0x3dd399e5	0.103320874
202	0x3e4f325e	0.20234057
203	0x3e02b39f	0.12763833
204	0xbd11687e	-0.035500042
205	0xbd77de25	-0.060514588
206	0x3dc504f4	0.09620085
207	0xbe3a212e	-0.1817672
208	0x3e049bd9	0.12950076
209	0x3df2c4c8	0.11853939
210	0xbe5300c0	-0.20605755
211	0xbe0ce95a	-0.13760892
212	0x3ba727cb	0.0051011792
213	0x3d1fd4b7	0.03902122
214	0x3d34f6a1	0.044180516
215	0xbe16c2a7	-0.14722691
216	0x3d189ad0	0.037257016
217	0x3df92bb4	0.12166539
218	0xbd5085c8	-0.050908834
219	0xbd8420db	-0.06451579
220	0x3e2bdd9b	0.16783755
221	0x3db805a8	0.08985454
222	0xbe2fb6a2	-0.17159513
223	0x3db4f2c6	0.08835368
224	0xbd0b5c66	-0.034023665
225	0xbe06d29c	-0.13166279
226	0x3d8b8d6c	0.068140835
227	0xbe487413	-0.19575529
228	0xbdec45ce	-0.11536752
229	0xbe1ed43b	-0.15510647
230	0xbc97a461	-0.018511
231	0xbbcc784e	-0.0062399274
232	0xbd1a02a3	-0.03760017
233	0xbdcf3768	-0.1011799
234	0xbe3296d3	-0.17440347
235	0x3d098101	0.033570293
236	0x3e0ec3b5	0.13941844
237	0x3e0d1219	0.13776435
238	0xbcca82cc	-0.024720572
239	0x3e176e2b	0.1478812
240	0xbe52b16c	-0.20575494
241	0x3dc9a0d9	0.098451324
242	0xbe2c0349	-0.16798128
243	0xbd02f3ae	-0.031970672
244	0x3d59d717	0.05318364
245	0xbcd35d0b	-0.025801202
246	0xbe436cb9	-0.19084443
247	0xbce73876	-0.028225165
248	0xbdf7202a	-0.12066682
249	0x3de44c16	0.11147325
250	0x3e111842	0.1416941
251	0xbdffd8a3	-0.12492492
252	0x3e2e4cd8	0.17021501
253	0xbe042fd8	-0.12908876
254	0xbdef8f5a	-0.11697264
255	0xbe33831b	-0.17530482

atom_encoder.atom_embedding_list.4.weight f4 [10, 128]
0	0x3dbab597	0.09116667
1	0x3e2fd052	0.17169312
2	0xba5a8958	-0.0008336506
3	0xbe37db41	-0.17954732
4	0x3be40d9c	0.00695963
5	0x3d585291	0.052813116
6	0xbd4dddc1	-0.05026031
7	0x3e27f83a	0.16403285
8	0x3d7f0f74	0.062270597
9	0x3dc0fe10	0.094234586
10	0x3d059904	0.03261663
11	0x3cee50c5	0.029091248
12	0xbe2597f7	-0.16171251
13	0x3e176665	0.14785154
14	0x3dedb8cf	0.11607515
15	0x3e40b8e9	0.18820538
16	0x3dece9c9	0.115680285
17	0xbd184a72	-0.03718037
18	0x3c998ec0	0.018744826
19	0x3e02e529	0.1278273
20	0x3d27b3b4	0.040942863
21	0xbd30892b	-0.043099564
22	0xbe37fe57	-0.17968117
23	0xbd2bc81d	-0.04193889
24	0xbd778be1	-0.060436133
25	0x3d824083	0.06359961
26	0x3dc50116	0.09619348
27	0xbe0f7677	-0.14010035
28	0xbd7a440b	-0.061100047
29	0x3ce71ef0	0.028212994
30	0x3cd7a4ab	0.026323637
31	0x3cd391dc	0.025826387
32	0xbe19acfa	-0.15007392
33	0xbdc10910	-0.09425557
34	0x3e16861d	0.14699598
35	0xbe1a73ab	-0.15083186
36	0xbe29cd71	-0.16582276
37	0x3e0bd3c0	0.13654995
38	0x3d922ceb	0.07137474
39	0x3e1b39dc	0.1515879
40	0xbdf82252	-0.12115921
41	0x3e196e59	0.149835
42	0xbd9d12ac	-0.07669577
43	0x3d73090f	0.05933481
44	0xbe1f8d6d	-0.15581293
45	0xbd1e5374	-0.038653806
46	0x3da1911f	0.07889008
47	0x3dfbc265	0.12292937
48	0xbe2341b0	-0.15943027
49	0xbe4d807e	-0.20068547
50	0x3e48e3c5	0.19618137
51	0x3e062deb	0.13103454
52	0x3d2f928f	0.04286438
53	0xbe2f18a7	-0.17099248
54	0x3cd15d1b	0.025557091
55	0xbd33af7b	-0.043868523
56	0xbd705614	-0.05867584
57	0x3d63df8e	0.05563312
58	0xbde3f597	-0.11130827
59	0xbd67d657	-0.056600895
60	0xbdf94614	-0.121715695
61	0xbe2f71ab	-0.17133205
62	0x3e10bfe8	0.14135706
63	0xbe4dc97d	-0.20096393
64	0x3e2f0a39	0.17093743
65	0x39b40b16	0.00034340535
66	0xbd78d664	-0.060751334
67	0x3de16439	0.11005444
68	0x3dc1c1e1	0.094608076
69	0x3e1bb273	0.15204792
70	0x3e16afa8	0.14715445
71	0xbe1cb9f0	-0.15305305
72	0x3e0b2372	0.1358774
73	0xbd22933c	-0.039691195
74	0xbd687eca	-0.05676154
75	0x3e1ee97d	0.15518756
76	0x3d79ded6	0.06100353
77	0xbe10b1ec	-0.14130372
78	0x3e2d817a	0.16943923
79	0x3d80533f	0.06265878
80	0x3dfc30d8	0.12314004
81	0x3d8cd170	0.068758845
82	0xbbfa6d12	-0.0076423967
83	0x3e13b6ee	0.14425251
84	0xbd10f484	-0.03538944
85	0xbe316b21	-0.17326023
86	0xbda5ed83	-0.081019424
87	0xbcc9935b	-0.024606397
88	0x3e3f0fc5	0.1865836
89	0x3e2cf966	0.16892013
90	0x3da90e27	0.082546525
91	0x3e3a0ff6	0.18170151
92	0x3dcd34fd	0.10019872
93	0xbe2ab57f	-0.16670798
94	0xbde2a327	-0.11066275
95	0x3d0d50c0	0.034500837
96	0x3e4b76e1	0.19869567
97	0x3d02501d	0.031814683
98	0x3e01f271	0.1269014
99	0x3ccc1f16	0.024917167
100	0xbd265e77	-0.040617432
101	0x3e0e0a60	0.13871145
102	0xbd91fe0a	-0.07128532
103	0x3cb1618f	0.021652965
104	0xbcde5797	-0.027141375
105	0x3c3c6acd	0.011500073
106	0xbe45ee6d	-0.19329233
107	0x3e06b767	0.131559
108	0xbe0b7306	-0.13618097
109	0x3db1afba	0.08676095
110	0xbcf1b770	-0.029506415
111	0x3c10d74f	0.008840396
112	0xbcef557e	-0.02921557
113	0x3e1e086e	0.15432903
114	0xbe3a9ed9	-0.18224658
115	0xbcb52bbd	-0.022115583
116	0xbe4304c3	-0.19044785
117	0xbdf22bcb	-0.11824759
118	0xbdd115b3	-0.10209217
119	0xbe3fc61b	-0.18727915
120	0x3e1c3c60	0.15257406
121	0x3d8746ec	0.06605324
122	0xbe1bb324	-0.15205055
123	0xbda2736c	-0.07932171
124	0x3dbcbedb	0.0921609
125	0xbe115b06	-0.14194879
126	0x3e48b7be	0.19601342
127	0x3dd9d2c3	0.10635903
128	0xbe0e16bd	-0.13875861
129	0x3dadde6a	0.08489688
130	0xbd11ec3d	-0.035625685
131	0x3d986135	0.07440416
132	0xbd2c9c53	-0.04214127
133	0xbd5617f5	-0.05226894
134	0xbe127e2b	-0.14305942
135	0x3d21891c	0.0394374
136	0x3e37499f	0.17899178
137	0xbdb71338	-0.089392126
138	0x3ded3d60	0.11583972
139	0xbc9c7ca2	-0.019102398
140	0xbd2c15d4	-0.042013004
141	0xbdf8a0a6	-0.12140016
142	0x3c197efd	0.009368655
143	0xbe28ac86	-0.16472062
144	0x3ce7a3d9	0.02827637
145	0x3e138039	0.14404382
146	0x3b908bad	0.004411182
147	0x3dc4641b	0.09589406
148	0xbdfcd0ff	-0.1234455
149	0xbd24d931	-0.040246192
150	0x3b49b3ce	0.0030777338
151	0x3e421db0	0.18956637
152	0x3db21420	0.08695245
153	0xbdf8a903	-0.121416114
154	0x3dd55d7b	0.104182206
155	0xbd7961c0	-0.060884237
156	0xbd975409	-0.07389075
157	0xbd696554	-0.0569814
158	0xbe0a59ff	-0.13510893
159	0x3d8da7c9	0.06916768
160	0xbd65b52c	-0.056080982
161	0xbc3853c2	-0.011250438
162	0xbe3a9d42	-0.18224052
163	0x3e5365d3	0.20644312
164	0x3e074aa3	0.13212065
165	0x3dfd7c55	0.1237723
166	0xbdc37c83	-0.09545233
167	0x3e6c4b9e	0.2307572
168	0xbdae99a3	-0.08525398
169	0x3e6e15ca	0.232505
170	0x3dec2335	0.11530153
171	0x3d6d826a	0.0579857
172	0x3e5d1e78	0.21593654
173	0xbdb191e5	-0.08670405
174	0xbe253f59	-0.16137446
175	0x3e2d9e29	0.16954865
176	0x3d3d9b2a	0.046290554
177	0x3cd2f0bb	0.025749555
178	0x3e0d2c35	0.13786395
179	0x3dd489e6	0.103778645
180	0x3c373b28	0.011183538
181	0xbda6673f	-0.081251614
182	0xbe1c3657	-0.15255104
183	0xbd655ee3	-0.055998694
184	0xbdc50b29	-0.09621269
185	0x3cfa8214	0.030579604
186	0xbd90ecf2	-0.07076444
187	0xbe1eae75	-0.15496238
188	0x3d4e37db	0.050346237
189	0xbd29f209	-0.04149059
190	0xbe76e03b	-0.24108975
191	0x3a49609c	0.00076819374
192	0xbdbfbbf4	-0.09362021
193	0xbd86517e	-0.06558512
194	0xbe7a5bee	-0.24449131
195	0x3c50a24f	0.01273401
196	0x3e2ef7aa	0.17086664
197	0x3db904e2	0.090341344
198	0x3dd119a0	0.10209966
199	0xbe692df8	-0.22771442
200	0x3e0ab5d9	0.13545932
201	0x3e12289c	0.14273304
202	0x3cca7b9d	0.024717147
203	0x3d8b3391	0.06796945
204	0xbdf45c05	-0.11931614
205	0xbe4a4d5f	-0.19756077
206	0x3dabdf93	0.08392253
207	0x3de68db8	0.112574995
208	0xbe0d2bf9	-0.13786305
209	0xbddf20ce	-0.10894929
210	0xbe48a95f	-0.1959586
211	0x3d1d4598	0.038396448
212	0xbe1f25ce	-0.15541765
213	0x3cf7ef9c	0.030265622
214	0xbd800224	-0.06250408
215	0xbe7dd16c	-0.2478692
216	0xbd965491	-0.073403485
217	0x3d831347	0.06400161
218	0x3e4b845f	0.19874714
219	0x3ddb9070	0.10720909
220	0x3d860e12	0.065456524
221	0xbcc14de5	-0.023596713
222	0x3e040083	0.1289082
223	0xbe50961d	-0.20369764
224	0xbdffb499	-0.12485618
225	0x3daeb431	0.085304625
226	0xbd5bb50a	-0.05363945
227	0xbe003a9d	-0.12522359
228	0xbda3c2cf	-0.07996141
229	0xbe144af2	-0.14481714
230	0xbd8483cc	-0.06470451
231	0x3de120a4	0.10992554
232	0xbd35e634	-0.044408992
233	0x3dc18e4e	0.094509706
234	0x3e24da41	0.16098882
235	0x3d69bdd6	0.057065807
236	0xbe2647b9	-0.16238298
237	0xbc38fe2c	-0.011291068
238	0xbe5176aa	-0.20455423
239	0xbe17ff19	-0.14843406
240	0x3e0ed94e	0.13950083
241	0x3b06c09e	0.0020561586
242	0xbd987c62	-0.07445599
243	0x3e29220f	0.16516899
244	0xbd61df9f	-0.055144902
245	0x3e1cbc9a	0.15306321
246	0x3e746d64	0.23869854
247	0xbd1321d5	-0.035920937
248	0xbe77ebc6	-0.24211034
249	0x3d9fe381	0.07807065
250	0x3e4c9628	0.19979155
251	0x3d76cc46	0.060253404
252	0x3e41d730	0.18929744
253	0x3e7902a2	0.2431741
254	0xbdea9c08	-0.11455542
255	0xbdee0f88	-0.11624056

atom_encoder.atom_embedding_list.5.weight f4 [6, 128]
0	0x3c107695	0.008817335
1	0x3d6d0149	0.057862554
2	0x3c0e38f2	0.008680569
3	0xbe59b875	-0.21261771
4	0xbe4747ab	-0.19460933
5	0x3ddb7f4b	0.107176386
6	0xbe436dd7	-0.1908487
7	0x3e33327c	0.17499727
8	0x3e1b0bc8	0.15141213
9	0x3e108aa0	0.14115381
10	0x3e3968f1	0.18106438
11	0xbd85fae5	-0.06541995
12	0xbd96f07b	-0.07370087
13	0xbca3f241	-0.020012977
14	0x3dcc8f24	0.099882394
15	0x3dca7cde	0.09887098
16	0xbe4af338	-0.19819343
17	0xbdc499e9	-0.095996685
18	0xbd1c9d29	-0.038235817
19	0x3dafa659	0.0857665
20	0x3e0ff9e5	0.14060171
21	0x3c753cdf	0.014968126
22	0xbe32630e	-0.17420599
23	0xbdb7b536	-0.0897011
24	0xbe0f6714	-0.14004165
25	0x3e08cbce	0.13358995
26	0xbdebcad5	-0.115132965
27	0xbd860c3e	-0.06545304
28	0xbdb22cb1	-0.086999305
29	0xbe221ae2	-0.15830567
30	0x3d0a196e	0.033715658
31	0xbdb08526	-0.08619146
32	0xbde5eef0	-0.11227214
33	0xbd6558a0	-0.055992723
34	0x3e15287c	0.14566225
35	0x3e2593cd	0.16169663
36	0x3e2b7585	0.16744049
37	0xbd801435	-0.06253854
38	0xbe217278	-0.15766323
39	0xbe001e97	-0.12511669
40	0x3e098339	0.13428964
41	0xbc59d422	-0.013295205
42	0x3cc935cc	0.024561785
43	0xbd75605c	-0.05990635
44	0x3e4dccc0	0.20097637
45	0xbe4c6bf0	-0.1996305
46	0x3e43b113	0.19110517
47	0xbd10c25b	-0.0353416
48	0x3de45084	0.1114817
49	0x3dc671eb	0.09689697
50	0x3c9a9c24	0.018873282
51	0x3dcd0d26	0.100122735
52	0xbdfb74e3	-0.12278154
53	0x3dfd0c27	0.123558335
54	0xbe2d7048	-0.16937363
55	0xbd1d7ec1	-0.03845096
56	0xbe1324d4	-0.14369518
57	0xbdba307e	-0.090912804
58	0xbe547c6f	-0.20750593
59	0xbe22d058	-0.1589979
60	0x3db3b1a8	0.087741196
61	0x3e43b368	0.19111407
62	0x3e4a6531	0.19765164
63	0x3db28c41	0.087181576
64	0x3d0860ba	0.03329537
65	0xbe0d4fea	-0.13800016
66	0x3e50edca	0.2040321
67	0xbce3d56a	-0.027811725
68	0x3e0c6166	0.1370903
69	0x3d4cc676	0.049993955
70	0x3e486da2	0.19573072
71	0x3d3c52f1	0.045977537
72	0xbe2ba4d6	-0.16762099
73	0xbe579260	-0.21051931
74	0xbe2aa09e	-0.16662833
75	0x3dec1a6f	0.11528479
76	0x3db5d88d	0.088791944
77	0xbc17b5fa	-0.009259695
78	0x3e2435ed	0.16036196
79	0xbde5d959	-0.112230964
80	0xbe054b25	-0.13016947
81	0x3df007e0	0.11720252
82	0xbe10a857	-0.14126717
83	0x3df3a225	0.11896161
84	0x3e19edf4	0.15032178
85	0x3e31767a	0.17330351
86	0xbbddc537	-0.0067678946
87	0xbd794341	-0.060855154
88	0xbe538ac8	-0.2065841
89	0x3e0a70a0	0.13519526
90	0x3e01abd1	0.12663199
91	0x3e095d84	0.1341458
92	0x3e419c9b	0.18907396
93	0x3de68ff3	0.11257925
94	0x3dc55ddf	0.09637045
95	0xbd5472e5	-0.051867384
96	0xbd85990d	-0.06523333
97	0xba827cb0	-0.0009955373
98	0xbd8ffa46	-0.07030158
99	0x3d3ff592	0.046865053
100	0xbe0a8c87	-0.1353017
101	0x3e26dc6e	0.16295025
102	0x3d16e885	0.03684284
103	0x3e05fa79	0.13083829
104	0xbe43f59e	-0.19136664
105	0xbdb7b8c1	-0.08970786
106	0x3e0c4837	0.13699423
107	0x3cc275f5	0.023737887
108	0x3c2f9857	0.010717473
109	0xbcda6bf9	-0.026662813
110	0xbe1ac26f	-0.15113233
111	0x3e0a8c51	0.13530089
112	0x3e09317d	0.13397785
113	0xbcf4610e	-0.029831436
114	0x3d603675	0.054739434
115	0xbc0cdc13	-0.008597392
116	0xbd9b0cfa	-0.075708345
117	0xbd15737b	-0.036487084
118	0xbd722bbd	-0.059123743
119	0xbe2fec50	-0.1717999
120	0xbccee780	-0.025256872
121	0xbe5760d7	-0.21033035
122	0x3c8d3936	0.017239194
123	0xbb6ccb61	-0.0036131965
124	0xbd8e91ed	-0.06961427
125	0xbe37698d	-0.17911358
126	0x3e1712dd	0.1475329
127	0x3cb01592	0.02149466
128	0xbda85ad2	-0.082204476
129	0xbe7b4389	-0.24537481
130	0xbe92f625	-0.28703418
131	0x3e9d3714	0.30706084
132	0x3ce8ce7e	0.028418776
133	0x3e306725	0.17226847
134	0xbe0b8201	-0.13623811
135	0x3dfc1a79	0.12309737
136	0x3e929eb7	0.28636715
137	0x3e5f6a1d	0.21817823
138	0x3e72f02d	0.23724432
139	0xbec20c0b	-0.37899813
140	0xbe07cd43	-0.13261895
141	0xbec40c64	-0.38290703
142	0xbebf254b	-0.3733314
143	0xbda7f887	-0.082017
144	0x3e6cb319	0.23115195
145	0xbe01ce13	-0.12676267
146	0xbe3490c5	-0.1763335
147	0xbe6c25fc	-0.23061365
148	0x3e782ba7	0.24235402
149	0xbedbfcad	-0.42966214
150	0xbd3d92c5	-0.04628255
151	0x3db6cfe3	0.0892637
152	0xbd969c87	-0.07354074
153	0xbe115577	-0.14192759
154	0x3dfac7f5	0.1224517
155	0x3cd67a25	0.02618129
156	0x3d80bd8a	0.06286152
157	0x3ea2cdcd	0.3179764
158	0x3d0eb4c7	0.03484037
159	0x3e87f0a3	0.2655078
160	0x3ea14fd5	0.3150622
161	0x3e85b9c4	0.2611829
162	0x3dcac238	0.099003255
163	0xbde1444a	-0.10999353
164	0xbe6283cf	-0.22120593
165	0x3e0f1144	0.1397143
166	0xbe13915e	-0.14410922
167	0xbdcf7a8c	-0.10130796
168	0xbeb68a64	-0.3565246
169	0xbda08acb	-0.07838973
170	0x3c2350b3	0.009967971
171	0x3de6db67	0.112723164
172	0x3e9607d3	0.29302844
173	0xbe8bdd58	-0.2731731
174	0x3e58c223	0.21167807
175	0x3e887b5a	0.2665661
176	0x3e09c295	0.13453133
177	0xbd994f51	-0.074858315
178	0xbdb76dba	-0.089564756
179	0x3e35c678	0.17751491
180	0x3da98da9	0.08278973
181	0x3da54e72	0.08071603
182	0xbe477860	-0.19479513
183	0x3e0aad40	0.13542652
184	0xbd20f618	-0.039297193
185	0xbe82ff75	-0.25585523
186	0xbdedbda5	-0.116084374
187	0x3dbee487	0.09320932
188	0xbd98c40b	-0.07459267
189	0x3e43492f	0.19070886
190	0x3e826ceb	0.25473723
191	0xbd2c57cd	-0.04207592
192	0x3c83386f	0.01601812
193	0xbcd711cc	-0.026253603
194	0x3ccba16c	0.024857245
195	0x3e07d363	0.13264231
196	0x3dd68f99	0.10476608
197	0x3c437529	0.011929789
198	0xbd149d9b	-0.036283117
199	0x3e7b2767	0.2452675
200	0xbb1e4b57	-0.0024153793
201	0xbe3b0777	-0.18264566
202	0x3e9ab9fb	0.30220017
203	0x3ec12abe	0.37727922
204	0xbdba04e6	-0.090829656
205	0xbe2acfc0	-0.16680813
206	0xbd8cca07	-0.06874471
207	0xbe5f011d	-0.21777768
208	0xbd11bd00	-0.035580635
209	0xbe2fe3eb	-0.17176788
210	0x3e8beddd	0.27329913
211	0xbe2391f0	-0.1597364
212	0xbd90956e	-0.070597515
213	0xbe70291f	-0.23453186
214	0x3e192111	0.1495402
215	0x3e916a9e	0.28401655
216	0xbe87f55a	-0.26554376
217	0xbe0c6f3f	-0.13714312
218	0x3e50fc4b	0.20408742
219	0x3dc70039	0.09716839
220	0xbe248976	-0.16068062
221	0xbdff7135	-0.124727644
222	0xbd819fe1	-0.063293226
223	0xbe3456f5	-0.17611296
224	0xbc61fe93	-0.013793605
225	0x3dab90ef	0.08377253
226	0xbcbd33c2	-0.02309597
227	0x3e36083c	0.17776579
228	0xbe377a15	-0.17917664
229	0xbd8e4c18	-0.069481075
230	0x3da0e85f	0.07856821
231	0x3da9c777	0.08289998
232	0x3decc4d9	0.11560983
233	0xbe1507d5	-0.14553769
234	0xbe4abe17	-0.19799076
235	0x3dc78cc7	0.09743648
236	0xbe99a3cf	-0.3000779
237	0xbeb4c9e6	-0.35310286
238	0xbcf26ca6	-0.029592823
239	0x3e56e608	0.20986187
240	0xbe2b4f8c	-0.16729563
241	0x3dadb53c	0.08481833
242	0xbe809205	-0.25111404
243	0x3dab11ed	0.083530284
244	0x3ddd5000	0.108062744
245	0x3e80a64e	0.2512688
246	0xbd5815ba	-0.052755095
247	0x3ca2194b	0.019787451
248	0x3e346a59	0.17618693
249	0x3e870bce	0.26376194
250	0xbe03593c	-0.12827009
251	0xbd35a649	-0.044348035
252	0xbe2739a0	-0.16330576
253	0xbdb2f389	-0.08737857
254	0x3e12f523	0.14351325
255	0x3ed4e378	0.41579795

atom_encoder.atom_embedding_list.6.weight f4 [6, 128]
0	0xbe256405	-0.16151436
1	0xbd5f7f5e	-0.054564826
2	0xbe36a3c6	-0.17835912
3	0xbe96939f	-0.294095
4	0xbe4c4108	-0.19946682
5	0x3e1b6ca1	0.15178157
6	0xbe063d39	-0.13109292
7	0x3e8dd9ac	0.27705133
8	0xbea70014	-0.32617247
9	0xbd3bacc7	-0.04581907
10	0x3ca62105	0.020279417
11	0x3e174748	0.14773285
12	0xbc6b7abb	-0.014372523
13	0xbe1dee1f	-0.15422867
14	0xbc7f6932	-0.015589045
15	0x3e8f4e06	0.27989215
16	0xbdb6036b	-0.08887371
17	0xbd058016	-0.032592855
18	0xbe212622	-0.15737203
19	0xbe352691	-0.17690493
20	0x3d68ae1a	0.05680666
21	0xbe0317e3	-0.12802081
22	0x3e8fa713	0.28057155
23	0xbe886f3a	-0.2664736
24	0x3e65d8d6	0.22445998
25	0xbd26368d	-0.040579367
26	0x3e0af3ab	0.13569514
27	0xbde43972	-0.11143769
28	0xbe474407	-0.19459544
29	0xbe849931	-0.25898126
30	0x3e0dc66a	0.1384522
31	0x3ddc759f	0.10764622
32	0x3c8b03d5	0.0169696
33	0x3e6bf906	0.23044214
34	0x3d9f8472	0.07788934
35	0xbcf450ae	-0.029823627
36	0xbe56df55	-0.20983632
37	0xbe3b9d97	-0.18321835
38	0x3dd1c816	0.102432415
39	0xbe554b25	-0.20829447
40	0xbd40045c	-0.046879157
41	0xbe0df491	-0.13862826
42	0xbd8748fa	-0.06605716
43	0xbd5c8a2c	-0.05384271
44	0x3dec7637	0.11545985
45	0x3ccdf3a1	0.025140585
46	0xbe3de4e6	-0.18544349
47	0xbd08632b	-0.0332977
48	0x3d49fa21	0.049310807
49	0xbe0a9e32	-0.13536909
50	0xbd74059e	-0.05957567
51	0xbe2c1a07	-0.16806804
52	0xbe037696	-0.12838206
53	0x3e6f4e7f	0.23369788
54	0x3da82a90	0.08211243
55	0x3d9d59c9	0.07683141
56	0xbde845d1	-0.113414414
57	0x3d98094f	0.074236505
58	0x3e5f8e63	0.2183166
59	0x3e1785ff	0.14797209
60	0xbe056f5c	-0.13030761
61	0x3dd3d303	0.10342982
62	0x3d8eb426	0.06967954
63	0x3e04c2dc	0.12964958
64	0xbcd0cbb3	-0.025487756
65	0xbcee04a6	-0.02905495
66	0x3cae2c99	0.0212615
67	0x3d95167b	0.072796784
68	0x3d0ef6bd	0.034903277
69	0xbe0c29f9	-0.13687886
70	0x3e65400e	0.22387716
71	0x3a9e8615	0.0012094403
72	0x3d77f53a	0.0605366
73	0x3d61dbb1	0.055141155
74	0xbd56b3da	-0.052417614
75	0xbe23794e	-0.15964243
76	0xbdd0ded8	-0.10198754
77	0x3e02b4c7	0.12764274
78	0xbdacb22f	-0.08432423
79	0x3d8bc3e2	0.06824471
80	0xbd81baeb	-0.0633448
81	0x3de00b48	0.10939652
82	0x3e219be5	0.15782125
83	0x3e8b87d7	0.27252075
84	0xbc978554	-0.018496193
85	0xbe70fb98	-0.23533475
86	0xbd815075	-0.06314174
87	0x3e14cafe	0.1453056
88	0x3e0128ed	0.12613268
89	0xbc765b1e	-0.0150363725
90	0xbe04e5a6	-0.12978229
91	0xbeacc971	-0.33747438
92	0x3e2d9003	0.16949467
93	0x3e62af94	0.2213729
94	0x3c8c835d	0.017152483
95	0x3e0cbfe4	0.13745075
96	0x3e0cebed	0.13761874
97	0x3de4bf01	0.111692436
98	0x3e5e51a1	0.21710826
99	0xbd3ac073	-0.04559369
100	0xbd2820aa	-0.041046776
101	0x3de9f1fa	0.114231065
102	0xbdb09a4a	-0.08623178
103	0xbe22fdf3	-0.15917186
104	0x3df9a3c4	0.12189439
105	0x3e737e46	0.23778638
106	0xbd60418f	-0.05475002
107	0xbe636466	-0.22206268
108	0x3e423f75	0.1896952
109	0x3da503b1	0.08057345
110	0x3de593f0	0.112098575
111	0xbe414cc0	-0.18876934
112	0xbc8d2797	-0.017230792
113	0xbdab816e	-0.08374296
114	0xbe431599	-0.19051208
115	0xbc2c63ce	-0.010521842
116	0x3bdf7fef	0.006820671
117	0xbd88a56f	-0.06672179
118	0x3d029183	0.031877052
119	0x3e967dc9	0.2939284
120	0xbc935c85	-0.017988453
121	0xbe4b3889	-0.19845785
122	0xbddffa17	-0.10936373
123	0xbd310c47	-0.0432246
124	0xbe3d4a23	-0.18485312
125	0xbe431cca	-0.19053951
126	0xbe3c91af	-0.18414949
127	0x3c23d403	0.009999278
128	0x3e10480f	0.14089988
129	0xbd6ed745	-0.058310766
130	0xbe37d1af	-0.17951082
131	0xbd1ada3f	-0.037805792
132	0xbe19b8b4	-0.15011865
133	0x3e0fafb4	0.14031869
134	0x3d18e350	0.037326157
135	0xbde3be80	-0.11120319
136	0xbe250b6d	-0.1611764
137	0xbe0522da	-0.13001576
138	0x3e5948ae	0.21219131
139	0x3d0d9986	0.03457024
140	0x3d3d2c13	0.04618461
141	0x3d4ec54f	0.050481137
142	0xbe06cca9	-0.13164009
143	0xbe25a010	-0.1617434
144	0x3e167ba2	0.146956
145	0xbe445f5f	-0.19177006
146	0xbddf5893	-0.10905566
147	0x3e0984f7	0.13429628
148	0xbe04935f	-0.12946843
149	0x3e41c45b	0.1892256
150	0xbe03fe03	-0.12889867
151	0x3e2ca122	0.16858342
152	0x3e580c75	0.21098502
153	0xbd0e7162	-0.0347761
154	0x3e456866	0.19278106
155	0x3e0c1b02	0.13682178
156	0xbd18fd50	-0.037350953
157	0xbe3f6505	-0.1869088
158	0xbd0804aa	-0.033207573
159	0x3e52f2a5	0.20600374
160	0xbd96d7f2	-0.07365407
161	0x3cda87d5	0.026676098
162	0x3e1c684e	0.15274164
163	0x3e36f100	0.17865372
164	0x3e3ee572	0.18642214
165	0x3db5c891	0.08876146
166	0x3994f4a7	0.0002841104
167	0xbe1f1aae	-0.15537521
168	0x3d5cfc81	0.053951744
169	0x3e20e715	0.15713151
170	0xbe53a39c	-0.20667881
171	0x3c3f1cb5	0.011664559
172	0x3dc574f1	0.096414454
173	0xbcbbb9c3	-0.022915727
174	0xbe3d9af8	-0.18516147
175	0xbdf80240	-0.12109804
176	0xbd82bb92	-0.063834324
177	0xbe23e0c5	-0.16003712
178	0xbe097d97	-0.13426815
179	0xbe091f98	-0.13390958
180	0xbe378bf9	-0.17924489
181	0xbe318319	-0.17335166
182	0x3d85ab82	0.06526853
183	0x3e0a2b71	0.13493134
184	0x3e0e24eb	0.1388127
185	0xbdc92765	-0.09821967
186	0xbe08c28b	-0.13355462
187	0xbe055865	-0.13022001
188	0x3de1cb42	0.110250965
189	0xbda29de6	-0.07940273
190	0x3dfbba3a	0.12291379
191	0xbc10c861	-0.008836837
192	0x3d6a1696	0.057150446
193	0xbce58ebd	-0.028022164
194	0x3df6f4fa	0.12058444
195	0xbdbde61a	-0.09272404
196	0xbda1b031	-0.07894934
197	0x3e38dddf	0.18053387
198	0xbdbddc04	-0.0927048
199	0xbdd7e543	-0.10541775
200	0x3de1c04c	0.11023006
201	0x3e0c02de	0.13672969
202	0xbde13e19	-0.10998172
203	0x3d8f635b	0.070013724
204	0xbe12ef99	-0.14349212
205	0xbe46fad4	-0.19431621
206	0x3e39c793	0.18142538
207	0x3e02839f	0.12745522
208	0xbe08fca2	-0.13377622
209	0xbe338f49	-0.17535128
210	0x3e49b7fb	0.19699089
211	0x3d062ed7	0.032759514
212	0x3ae728ac	0.0017636023
213	0x3e09b95b	0.13449614
214	0xbe20c278	-0.15699184
215	0xbd961607	-0.0732842
216	0xbe347b29	-0.17625107
217	0xbe06e549	-0.13173403
218	0x3e3c8cb9	0.18413056
219	0xbde3b62c	-0.11118731
220	0xbe01fe3c	-0.12694639
221	0x3d547fdc	0.05187975
222	0xbde9b8a1	-0.11412168
223	0xbbab36da	-0.0052250447
224	0x3d7ab71a	0.061209776
225	0x3db9fa67	0.090809636
226	0x3da4f5c6	0.0805469
227	0x3bac4ef8	0.0052584372
228	0xbda0f2fa	-0.07858844
229	0x3e336700	0.1751976
230	0x3e2ed171	0.17072083
231	0x3e02c74c	0.12771338
232	0x3e324055	0.17407353
233	0x3cb04e39	0.021521674
234	0xbdd8b2f2	-0.10581006
235	0xbe55318e	-0.20819685
236	0xbcfdf61c	-0.031001143
237	0xbcaa91d8	-0.020821497
238	0x3d843ea5	0.06457261
239	0x3e2c84ae	0.16847488
240	0xbc27703e	-0.010219632
241	0xbe1a93bd	-0.1509542
242	0x3ca9f89b	0.020748427
243	0xbde5b324	-0.11215809
244	0xbe1f9359	-0.15583552
245	0xbe127ac6	-0.14304647
246	0xbc7c4dbe	-0.015399395
247	0xba38373a	-0.00070272724
248	0xbe36bf7d	-0.17846484
249	0x3e320cb7	0.17387663
250	0xbc387041	-0.011257232
251	0x3d69eb5c	0.05710922
252	0xbe16c51f	-0.14723633
253	0x3e19beac	0.15014142
254	0xbe28ecf1	-0.16496636
255	0x3d235799	0.03987846
