logs/dict/ogbg-molbbbp-GCN-64-5-128-0.0001-0.5-0.0-cls-42.pth (torch, 402148 bytes, 43 tensors)

atom_encoder.atom_embedding_list.0.weight f4 [119, 128]
00000000: 2302 c7bd 2f2b f33c ff4e 063e b396 80bd
00000010: bdcc d23d 98a2 8ebe bd33 4abd abe6 683e
00000020: c2ab c13b 45db b4bd b820 873d 931d 323e
00000030: dcb9 1ebe 69e6 f03c 9615 cc3d 54d6 013e
00000040: 7ce2 473d e78f e9bd 8e6e 22bd c4a8 2ebe
00000050: a62f 623d 977d 363c 85ad 1c3d aed0 803d
00000060: ee88 1f3d 5eb8 0e3e b286 843d 49d1 523e
00000070: e6dc c4be 5141 d73a 2d4e 2dbd 50da 913e
00000080: e1b5 a73d 18a0 8f3e 7f8a 203e e42a c0bc
00000090: 187c 8e3e 71de 003e 730a 2f3c 8de3 1dbe
000000a0: 7fb5 eb3d f550 a13e dcfe 583e c24b 313e
000000b0: 76f9 ca3d f1c8 e43d 805c 833c 1667 2a3e
000000c0: 9219 943d ff31 29be 38b3 9cbe 6ffe 163c
000000d0: 267d a33c 6ff5 aabe ede9 3ebd fff6 353b
000000e0: 44f4 2f3d fe28 893d 8db9 68bc 2dfd 063e
000000f0: f323 1e3e bd31 2c3d 104a 17be e8f9 403d
00000100: ce88 c43d afe8 e03b 1828 5f3e c10a 44bd
00000110: c29b 4a3c 6f41 00be 33ee a13e bcbc 253e
00000120: fa04 633e 9467 9d3d e076 0c3e ef6e 953d
00000130: 7393 d5bc 2445 f33c ae6e 513e 8076 0a3d
00000140: e70e 0fbe 7874 e1bd 1e91 a13c a7fd adbc
00000150: ba04 94bd d466 0fbe 38fa 04bd dd2f 233e
00000160: b080 483e b2be 803e 00bb 4ebe e054 29be
00000170: 98cf 2abe 54c6 7cbd 9bea 90bd 1544 b23c
00000180: 7c8e 313d ad05 78bd d0f4 b83d 8874 4abe
00000190: 4b38 413e 5779 983e d3dd 87bc ed56 a63e
000001a0: f5b0 763c a4fe 5ebd c192 833d f426 613e
000001b0: a155 3abd 81e7 a8bd a6ec d9bd fcf0 02be
000001c0: 7789 39be d149 a6bd 4585 33bd b221 453d
000001d0: bce9 acbd edd3 9bbe cd78 823e 3085 4fbe
000001e0: 6a41 abbd c1eb 4a3e cb15 2c3e 8ec9 c2bc
000001f0: e0c3 49bc e1a4 f5bd 0012 c83c 6938 bb3e
00000200: 137c 1bbe b3d0 e1bd d92a 3d3d 9bab 11bd
00000210: f39d d8bc 4450 b6bd 0526 1039 0943 48bd
00000220: 2209 183e 3477 c33d 341b 273d d3f3 823d
00000230: 1a60 86bd eab8 2bbd f0fe bc3d 9621 093e
00000240: e731 03bd ceec 0bbe efc6 80bb 8ae3 bd3d
00000250: dc98 ef3b 2de0 19be 0dab a03c ebba acbd
00000260: d91e 833d 5ba0 033e 9f21 c23d 4cd5 01be
00000270: 7834 123d 68c6 0ebc e7b8 fd3c f2c6 9dbd
00000280: 5c95 01be 5ff2 94bd 2605 d43b 6725 b03d
00000290: 5dd5 0cbe a1c5 9f3d f59f 183e fdc4 04be
000002a0: b1d9 debd abb5 f53c b00c bebd 7c0e e03c
000002b0: 102d 10be 8a64 41bc 4ff6 103e 3cf2 ef3d
000002c0: 547d d93c 9457 8d3d 2cd1 0f3e 0a29 01be
000002d0: 2d76 ec3d 9db2 593d 37f1 05be dc04 a43d
000002e0: 6e62 b03c 24ec 0cbe 2c5b a5bd 6352 753c
000002f0: d40b 923c 7408 293d 0309 f83d cbcc 043e
00000300: a89d 723d fc9d 613c 299f 193a e908 123e
00000310: 41d3 103c 82f5 d2bd a0ae 9abd 40a3 1bbe
00000320: 0447 ddbd 3e2d 1b3e 9d77 f8bd 0aed 0ebd
00000330: 2d74 16be 8750 b43d 0165 83bd d35c 1f3e
00000340: 6861 d83d 4526 86bd ac02 84bd 0065 d4bc
00000350: a2d2 26bd 4d3f 0abe c7ef 7a3c 92cd d8bd
00000360: fbaa cbbd fa91 443d d562 ab3d 9f76 17be
00000370: cb2b 0a3d 5963 053e 7c56 733d 3acc ecbd
00000380: a8a3 18be 8991 84bc 840c e03d 6127 3dbc
00000390: 3663 16be b126 1c3e c84c edbd e053 473d
000003a0: e52a bebd f5c2 013d 80f5 04bd 248d 94bc
000003b0: a49d cebc 95c5 fe3d 49ab 95bd ab91 3fbd
000003c0: efa9 e4bd 9d4a b9bd 8c55 d9bc fa4d fbbd
000003d0: dfc8 72bd 646e 9fbc f274 e1bd cbca 043d
000003e0: 5793 9c3c e08b f13c 50e9 143e c4ec d3bd
000003f0: 95db f4bc 9ae6 7fbd 64a5 f5bd 94b3 22bd
-0.097172044 0.029683677 0.13116072 -0.062787436 0.10292957 -0.27858424 -0.049365748 0.22744243
0.0059103677 -0.08830885 0.065980375 0.17394094 -0.15500587 0.029406743 0.09965055 0.12679416
0.048799977 -0.114044 -0.039656214 -0.17056566 0.055221222 0.011138341 0.03825142 0.062898025
0.038948946 0.13937518 0.064710036 0.20587648 -0.38449782 0.0016422664 -0.042310882 0.28486872
0.081889875 0.2805183 0.15677832 -0.023457952 0.2782905 0.12584855 0.010683644 -0.15418835
0.11509227 0.31507078 0.21190971 0.17314056 0.09910862 0.11171139 0.016035318 0.16640887
0.0723144 -0.16522978 -0.30605483 0.009215935 0.019957136 -0.33390376 -0.046609808 0.002776563
0.04295756 0.06697272 -0.014204395 0.13182516 0.15443401 0.04203962 -0.14774346 0.04711333
0.09596406 0.0068636755 0.21792638 -0.04786182 0.012366237 -0.12524961 0.31627044 0.16185278
0.22169867 0.076857716 0.13717222 0.072965495 -0.026071286 0.029696055 0.20452377 0.033804417
-0.13970529 -0.11008543 0.019722518 -0.021239115 -0.07227464 -0.1400407 -0.03246519 0.15936227
0.1958034 0.2514549 -0.20188522 -0.16536283 -0.16680753 -0.061712578 -0.070759974 0.02176098
0.043348774 -0.060552288 0.09031069 -0.19771016 0.1886913 0.29780075 -0.016585266 0.32488194
0.015056838 -0.054442063 0.064244755 0.21987516 -0.04549182 -0.08247281 -0.1064084 -0.1278724
-0.18118845 -0.08119548 -0.043828268 0.048127837 -0.08443019 -0.30435124 0.2548279 -0.20265651
-0.08362086 0.19816495 0.16805188 -0.02377775 -0.012314767 -0.11994339 0.024422646 0.36566475
-0.1518405 -0.11026134 0.04618344 -0.035564046 -0.026442504 -0.08902028 0.00013747074 -0.048892055
0.14847234 0.095442206 0.040797427 0.06394162 -0.06561299 -0.041924395 0.09228313 0.13391718
-0.032030012 -0.13664553 -0.0039299647 0.09271915 0.0073119234 -0.15026923 0.019612813 -0.08434089
0.06402368 0.1285414 0.09479069 -0.12679023 0.03569457 -0.008714296 0.030971957 -0.077039614
-0.12654632 -0.07272791 0.0064703403 0.08600884 -0.13753267 0.078013666 0.14904769 -0.1296577
-0.10881365 0.029993853 -0.09279764 0.027350657 -0.1407969 -0.011803756 0.1415646 0.117161244
0.026549019 0.0690147 0.14044636 -0.12613311 0.11545978 0.053148855 -0.13080297 0.08008739
0.02153131 -0.13761955 -0.0807403 0.014973256 0.017827906 0.041267827 0.12111094 0.12968747
0.059232384 0.013770577 0.00058602035 0.14261211 0.008839429 -0.10300733 -0.07552838 -0.15198994
-0.10804561 0.15153977 -0.121321894 -0.034894027 -0.14692755 0.08804422 -0.06415749 0.15562753
0.10565454 -0.06550268 -0.06445822 -0.025927067 -0.04072822 -0.1350071 0.015315956 -0.105860844
-0.09944721 0.047990777 0.0836846 -0.14791344 0.03373317 0.1302618 0.05940865 -0.115623906
-0.1490618 -0.016182678 0.10939887 -0.011545033 -0.14686283 0.15249135 -0.115869105 0.048663974
-0.09285525 0.031680066 -0.03246069 -0.018133707 -0.025221653 0.124400295 -0.07308061 -0.04676978
-0.11165225 -0.090474345 -0.02653005 -0.12270732 -0.059273597 -0.019461818 -0.11008634 0.03241996
0.019113226 0.029485643 0.14542127 -0.10347894 -0.029889861 -0.06247578 -0.119944364 -0.03972204

atom_encoder.atom_embedding_list.1.weight f4 [4, 128]
00000000: e2d9 493e 0708 cdbc 7b92 4e3e f730 40bd
00000010: 888a 053d 86cb ea3c 67fc 313e a757 203b
00000020: 7153 103d f0cf 8abc ae0b 76bd 33df 013e
00000030: 2d69 d63d 686c be3d e29a 13bd 6639 103d
00000040: 04e2 26bd 1edb e93d 747e b13d 19c2 573e
00000050: dd5c 103e c55a 27be e17b 31be 637b 5c3d
00000060: 398d 573e f140 f2bd 1700 c6bd ea1a e63d
00000070: 035f 63bd 74a4 0c3e c8aa 6fbd 3330 373e
00000080: 302f 623d d25a b4bc f3b9 1dbe 6a76 d83d
00000090: 0398 78be fe2d 1cbe 4345 70be c0df 3d3e
000000a0: 5a08 943c 9795 f7bc 1dc1 a13d 60bb 453e
000000b0: f520 f83d d534 313e a80b b1bd 7d28 cebd
000000c0: 117e 093e ea1b 943d 2546 5cbd 1b77 503e
000000d0: 5d78 2ebe 447a 1f3e a884 ecbd d456 0fbe
000000e0: 8171 b2bb 3f48 513e e221 053e 6938 b43c
000000f0: 0cca f83d 8476 14be dc31 143e dcd4 9e3d
00000100: 5766 e63d f6f1 643e b8d2 cebd b50b b4bd
00000110: 169f 1fbe 2414 583d fdfa 53be 6bbd 0f3d
00000120: b60d 573e 2920 0ebe 3d1f 51bd 57ed eb3c
00000130: 20a4 29be c1d5 75bd 3294 ec3d 934a 213e
00000140: e76c 5fbe 574a 29be 058d 093e 2586 133d
00000150: 93bb 43bb 89d7 3cbe 7f0d 153e 17fb fa3d
00000160: d6ed 9fbd 5caa ff3d 6035 ec3d e421 9b3c
00000170: b41c 1ebd aada b7bd 431f 663e c9fe 163e
00000180: 4e9c 1f3e b21f 513e 5cee 88bd dc0f 1f3d
00000190: 7082 543e 1e80 1e3e d868 c43d 0a9d a83c
000001a0: dd83 e9bc 0585 303d c0df 063e 32cc 363e
000001b0: 858b 22bc c5e1 d8bd a922 13bc 851f 8fbc
000001c0: b3e4 583e 5608 07be 12c5 063e 47c4 0c3e
000001d0: 82d5 163e 48d5 813c 41de 41bc c5f7 3dbe
000001e0: 6d3b 0e3e 55fa 1dbe 0462 2fbe 5191 ebbd
000001f0: 8ad5 953d c734 1f3e 011f bebc e42a 00be
00000200: 56d4 53be 4859 dbbd 5730 68be 88db 21bd
00000210: 4ce1 59bd b1d4 c2bd e056 8bbe 655c da3c
00000220: ccb9 63be ed0d e43c 46a9 cbbc c6bb 06be
00000230: 45d9 9d3d a294 0fbd f1ea b2bd aea3 563e
00000240: b8cb 1d3e 40d8 39be 7789 d6bd 97d6 683d
00000250: a44a 23bd d97c aa3d 0b7c 0d3e efc2 193e
00000260: e959 2dbd f206 f7bd ad96 8a3d 73b8 4dbe
00000270: f87d 973d 97ae 2fbe 148c c2bd c294 fabd
00000280: 98bc bd3c 4a08 003e 0d77 62be 23de 02be
00000290: fee7 ba3d cb1c 983d 82ae ffbd acaf fcbd
000002a0: dca5 183e 3a61 73bc 53f1 3abe c47b 243e
000002b0: fbd7 8c3d 8f20 df3d 6438 10be 33ef 773d
000002c0: 9245 ac3d a29f 033d d423 10be d312 1c3d
000002d0: 36b7 b4bd 6c5e f53d a1f7 dabd 4077 123d
000002e0: e9ca 29bd 59cf 0dbe 6273 5d3e 7620 8abe
000002f0: 473d 023e 00d1 32bd 3d40 edbd 6e6f fcbc
00000300: fe6f 11be 68ac 153e 5c4a 803e cf6d 393e
00000310: 52ef 0cbe 9713 c63d 84fd 183d f901 acbd
00000320: a14e 41bd bf08 27bc cd42 12be 25fe 4c3e
00000330: 1a5d fdbd 9fc7 ff3d 60cf 26be 07d5 01be
00000340: 0547 ccbd baa0 2d3e 4813 89be 66be 823d
00000350: 61e3 dfbd ea56 343e e07f c8bb 13e7 9e3d
00000360: 56d8 11be 708d 123e c3fa 5a3e 0caa 533e
00000370: 0b1c 94bd 7615 2bbe af6e e83c 9baa 0bbd
00000380: 274b 9dbd 2ef8 403e f52d c83c 42ab 5e3d
00000390: 337e 2fbe 1374 6e3d d2f1 53be a8ee 7bbd
000003a0: c2ff d23d 9543 29be 104b d23d 9281 983d
000003b0: 7643 e23c bdac 59bd 00fc e33d 1206 d0bc
000003c0: 8d75 dabd 42c5 28be 81d8 c2bd 7a3e 003e
000003d0: 28f7 aebd 76fd b53d 115a 4dbe 137f aebd
000003e0: de91 4cbe f8d0 8abe 9f70 c9bd 2bc7 acbd
000003f0: 26fa edbd d054 683e 3a75 e2bd 9af7 1a3e
0.19712022 -0.025028242 0.20173065 -0.046921697 0.032602817 0.0286615 0.1738144 0.0024466307
0.035235826 -0.016944855 -0.060069732 0.126828 0.104692794 0.092980206 -0.03603638 0.03521099
-0.04074289 0.114187464 0.08666697 0.21070136 0.14097925 -0.1634322 -0.17332412 0.05382861
0.21049966 -0.11828793 -0.09667986 0.11235602 -0.055510532 0.13734609 -0.05851248 0.1788948
0.055220783 -0.022015963 -0.15402965 0.10569461 -0.24276738 -0.1525192 -0.23463921 0.18542385
0.018070389 -0.030222697 0.078981616 0.19309759 0.12115661 0.1730531 -0.086448014 -0.10066316
0.13426997 0.07231887 -0.053777833 0.20357935 -0.17038102 0.15573984 -0.1154874 -0.13997966
-0.0054456596 0.20437716 0.13001207 0.021999555 0.121479124 -0.14498335 0.14472145 0.077554435
0.112499885 0.22357926 -0.10098785 -0.087912954 -0.1558803 0.052753583 -0.20701213 0.035092752
0.21001324 -0.13879456 -0.05105518 0.028799696 -0.16566515 -0.060018305 0.115517035 0.15751104
-0.21818887 -0.16532265 0.13432701 0.036016602 -0.0029866442 -0.18441595 0.1455593 0.12254923
-0.078090355 0.12483665 0.11533618 0.018937059 -0.038601592 -0.08977254 0.22472863 0.1474563
0.1558697 0.20422247 -0.066860884 0.038833484 0.20752883 0.1547856 0.0959031 0.020582695
-0.02850526 0.043095607 0.13171291 0.17851332 -0.009920959 -0.10589937 -0.008980432 -0.017471084
0.21180992 -0.13186774 0.13161114 0.13746749 0.14729884 0.01584877 -0.011832775 -0.18551548
0.13889857 -0.15427525 -0.17127234 -0.11502326 0.0731612 0.15547477 -0.023208143 -0.12516361
-0.20686468 -0.107103884 -0.2267469 -0.039516002 -0.053193375 -0.09513224 -0.27214718 0.026655385
-0.22238845 0.027838672 -0.02486099 -0.13157567 0.077074565 -0.035053857 -0.08736218 0.20960876
0.15409744 -0.18148899 -0.10475438 0.056845274 -0.039866105 0.08324594 0.1381685 0.15015768
-0.042322073 -0.120618716 0.067670204 -0.20089893 0.073970735 -0.17156444 -0.09499374 -0.122354046
0.023161218 0.12503162 -0.22115727 -0.12780051 0.0912628 0.07427367 -0.124844566 -0.12338194
0.1490702 -0.014854724 -0.1825612 0.16062838 0.068771325 0.10894882 -0.14084011 0.060530853
0.08411707 0.03213466 -0.14076167 0.03810389 -0.08824007 0.119809 -0.10691763 0.035758257
-0.041453276 -0.13848628 0.21626046 -0.2697789 0.12718688 -0.04365635 -0.11584518 -0.030814853
-0.14202878 0.14616549 0.25056732 0.18108295 -0.13763168 0.09671705 0.037351146 -0.08398814
-0.047194127 -0.010194956 -0.14283295 0.20018823 -0.12371273 0.124892466 -0.16290045 -0.1267892
-0.099744834 0.16955844 -0.26772523 0.06383972 -0.10932041 0.1761128 -0.0061187595 0.07758918
-0.14242682 0.14311767 0.2138472 0.20670336 -0.07231911 -0.16707405 0.02837309 -0.03409825
-0.0768035 0.18844673 0.024435977 0.054362543 -0.17137985 0.058216166 -0.20697716 -0.061506897
0.10302688 -0.16529687 0.10268223 0.074465886 0.027620059 -0.05314325 0.111320496 -0.02539352
-0.10666952 -0.16481498 -0.09513951 0.12523833 -0.08543235 0.088862345 -0.20053889 -0.08520331
-0.19977519 -0.27112556 -0.09835934 -0.08436426 -0.11619978 0.22688603 -0.110575154 0.15133515

atom_encoder.atom_embedding_list.2.weight f4 [12, 128]
00000000: b477 71be 879b 71bd 294d 793c c31f 5e3b
00000010: 6def 323c 6ca4 093e 371e 84be 3559 4b3c
00000020: 8c21 a3be 89fd ee3d d23f bc3c d7a9 c23d
00000030: 7dec d6bc 5045 dabd 10db ecbd 1e6e 003d
00000040: 691a d7bd 3750 90bd 6584 873d f7da 45be
00000050: 810b 5e3e 5c1a 6dbd 138f 1b3e 7f12 1abd
00000060: 9ecc a13d dbc2 59be ebce d53d 5405 253d
00000070: 1ff3 5c3c 0602 2c3e 96f2 59be 1519 88be
00000080: c69b 563e 5ab4 18bc f993 fabd dbdd 043d
00000090: 120e f4bd b1d0 c9bd e862 b73d 126b 08be
000000a0: d87f 243e 4876 703e b155 39be 88a6 023e
000000b0: 522a 063e 8c01 3b3e 6d2c 2bbe 4f6f 633a
000000c0: 5008 6ebd c913 0ebd c350 733e 467a 5a3d
000000d0: 201a 73be 99e5 0e3d f1e7 b4bd 2d1a 0dbd
000000e0: c13f 623e d8cb 7dbd 6dde c3bd db18 293e
000000f0: f141 2fbe c04a 723e 9453 623e efa0 93bd
00000100: b288 f8bb b9da 17be d190 783d 376b b63d
00000110: 33b9 713e 1293 c33b 2d51 a33e ff16 98be
00000120: 859d bb3b 5408 c7bd d92c ea3d a1fb 67be
00000130: a0c7 9b3e 7dc1 043d 2213 8abe ec64 36be
00000140: e7b6 fd3d 7374 a93c 9409 2e3c 8b9c 023e
00000150: 0ab2 bebd dc37 243e 2b04 41be 86ce 11be
00000160: b576 473d a135 cfbd f87c af3c a6a8 9f3d
00000170: e567 403e 191b af3d 3338 adbd b41a aabb
00000180: cad3 67be d5c6 7bbd 3a47 a4b9 910a e33c
00000190: f350 8cbe 4705 37be e1c8 acbd 3ea9 ab3d
000001a0: ebc3 30be 4fe1 fa3c 44b1 203b 506a 513e
000001b0: e73c 89be b16f 04be 1d13 953d ec47 7a3d
000001c0: 2e5f 22be c0c9 21be 48b7 043c 46a6 44bd
000001d0: a186 7dbe ed6c a33c 3bd7 423d ddaf a3be
000001e0: fac7 90bc 6aaf acbe 30f1 a4bd 86b0 1f3d
000001f0: a710 b6bd 7ee3 5b3e de79 a13d e77d af3c
00000200: 6a99 17be 097d 76bb 7535 e93d 328f cebd
00000210: 85f6 b2bd c9f8 05be 0767 bbbd 486d 273e
00000220: faa7 233e 2198 aabd adfe 5b3e feee 8d3d
00000230: a8b5 7e3d 46fc 22be 253c 28bd d7e2 253e
00000240: e655 0c3e 65b6 e23d 7dd1 edbd df27 47bd
00000250: 91e9 a63d f38b 973d 16a1 acbd 1296 febd
00000260: 7f9b 20be c7b8 20be c3b4 a6bd 9282 f13d
00000270: dc71 cabd 5f16 663d f293 07be 133b 353c
00000280: b9a6 01be f090 9fbd ca51 f93d 2b9e 3d3d
00000290: 61f0 353e 8bd5 283d 9787 89bc 4a52 2f3e
000002a0: cb09 0dbe 4862 e93d 3c5f ae3b 81b7 1cbc
000002b0: 2ec2 fcbd 4528 f3bb 30cf eabd 36a3 fe3d
000002c0: b753 10be c12c 0ebd ebb1 4d3e c388 0fbc
000002d0: b09a 26be a62b 703d 0b27 393d b860 f0bd
000002e0: 37ca 3cbe 2d58 45be 9790 eebd 2cf1 093c
000002f0: 5c56 33be 3a2c 38be 9672 4d3d 94c9 3cbe
00000300: 6999 0f3c 8aa1 6a3d 7fcf 353e 2937 4c3b
00000310: a75d 3f3d 76ab 253e 9d2d 0c3d 7a69 3e3e
00000320: 4fa5 cdbc 4ff9 403e f6ba 0bbe 782f 0f3e
00000330: a2e9 a63c 4ab7 84bc e8d1 4c3e 46af eb3d
00000340: 3aa5 213d 69bf 19bd 9b41 443e de47 483c
00000350: 34f8 5a3d 6141 9abc 1a77 a8bd 7032 efbd
00000360: b467 dc3d 8a0a 253d 0028 073d 83cb b63b
00000370: 9192 acbd 9f65 51bc 96ca b4bd 9b18 fd3c
00000380: 6a79 e33d 33d1 42be fe39 293e c4db 43bd
00000390: 1dad 2e3e fe52 253e cd3b d73d 34c4 3c3e
000003a0: 8f9b 33be f099 39be ad5a 143c 811c c8bd
000003b0: 9260 bfbd f3f5 57bc a43a 1abe 0b9e 25ba
000003c0: ecdc dcbd a6cd 763d 157b 1a3d 4e92 1dbe
000003d0: d8b7 a6bd f1af 38bc 150c 063e 064c 3a3e
000003e0: b268 9f3d db65 283c 9cc4 433b 3236 483e
000003f0: bfb6 01be d89b 11be 6323 c73c 5dd1 1bbe
-0.2358082 -0.058986213 0.01521615 0.0033893443 0.010921341 0.13441628 -0.25804302 0.012411405
-0.31861532 0.11669452 0.02297965 0.09505051 -0.026235813 -0.106577516 -0.1156522 0.031355016
-0.10503084 -0.0704655 0.06617049 -0.1932181 0.21684076 -0.057886466 0.15191297 -0.037615295
0.07900356 -0.21265738 0.10439857 0.040288284 0.013485699 0.16797647 -0.21283945 -0.26581636
0.2095786 -0.009320343 -0.12235255 0.03243814 -0.11916746 -0.09854258 0.08954412 -0.13322094
0.16064394 0.2348262 -0.18099095 0.12758839 0.13102081 0.18262309 -0.16716166 0.0008675949
-0.058113396 -0.034686837 0.23761277 0.053339265 -0.23740435 0.03488693 -0.08833302 -0.03444879
0.22094633 -0.06196198 -0.09563909 0.16513388 -0.17114998 0.23661327 0.22102195 -0.0720843
-0.0075846547 -0.1482953 0.060684983 0.08907168 0.23605804 0.00596846 0.3189787 -0.29705045
0.005725565 -0.09718385 0.11434335 -0.22654583 0.3042574 0.032411087 -0.26967722 -0.17811936
0.123884015 0.02068541 0.010622401 0.12755029 -0.09311302 0.16036934 -0.18849246 -0.14238939
0.048697192 -0.10117651 0.021421894 0.07795839 0.18789633 0.0855009 -0.08457985 -0.0051911715
-0.22639385 -0.061468918 -0.00031333586 0.027715 -0.2740551 -0.17873107 -0.08436752 0.0838189
-0.17262237 0.030625014 0.002451972 0.20450711 -0.26804277 -0.12933232 0.07279036 0.061103746
-0.1585662 -0.15799618 0.008100338 -0.048010133 -0.24758388 0.0199494 0.04756854 -0.3197011
-0.017673481 -0.3372758 -0.08053815 0.038986705 -0.08889895 0.214735 0.078845724 0.02142234
-0.14804617 -0.0037611148 0.11387149 -0.10085906 -0.08738426 -0.13083185 -0.0915051 0.16350281
0.15982047 -0.083297975 0.2148387 0.0693035 0.06218496 -0.15916547 -0.041072983 0.16199814
0.13704643 0.11069945 -0.11612222 -0.04862201 0.08150018 0.0739974 -0.08429162 -0.124309674
-0.15684317 -0.15695487 -0.08139946 0.117924824 -0.09884998 0.05617368 -0.1324003 0.011061448
-0.12661256 -0.077913165 0.12173803 0.04629342 0.17767479 0.041219275 -0.016788287 0.17121235
-0.13773267 0.11395699 0.0053214114 -0.009565235 -0.12341724 -0.007420572 -0.11465299 0.12433474
-0.14094435 -0.03471065 0.20087402 -0.008760634 -0.16269946 0.058635376 0.04520325 -0.11737198
-0.18436514 -0.19271918 -0.11648672 0.008419316 -0.17513412 -0.17985621 0.050158106 -0.18436271
0.008764603 0.057282962 0.17754935 0.0031160808 0.046720173 0.16178688 0.034223188 0.18594924
-0.02510324 0.18845104 -0.13645539 0.13982952 0.020375077 -0.01620068 0.20001948 0.1150804
0.039464213 -0.03753606 0.19165652 0.012224166 0.05345936 -0.018830003 -0.08225842 -0.11679542
0.10761967 0.040293254 0.03299713 0.0055784597 -0.08426393 -0.012780576 -0.08827703 0.030895522
0.11107142 -0.19025116 0.16526029 -0.047817007 0.17058225 0.1614494 0.10509453 0.1843422
-0.1753981 -0.18125129 0.009054822 -0.09771062 -0.09344591 -0.013181197 -0.15061432 -0.0006317801
-0.10784325 0.060254715 0.037715036 -0.15387842 -0.08140534 -0.011272416 0.13090546 0.18193063
0.07783641 0.0102781905 0.0029871827 0.19551924 -0.12667368 -0.14219606 0.024308866 -0.15216585

atom_encoder.atom_embedding_list.3.weight f4 [12, 128]
00000000: b809 1e3e 3240 433e 687c febd 01f7 c8bd
00000010: 9103 073e 16b2 f93c 1a2f c2bd b343 4c3e
00000020: 4dfd cc3d acea c8bd bc68 f2bc ee96 2b3e
00000030: 82e4 2e3d b546 d93d a81b 163e b249 35be
00000040: d10b 343d f9c6 3a3d 93e5 383e 7c43 8a3d
00000050: dac3 183e e36f f8bd b789 59bd ea6c d9bd
00000060: 94de 39be 4685 943d 63e4 6fbd 9459 d8bc
00000070: 70b3 923b 1440 99bd 8be2 6ebc f1c2 ab3d
00000080: 941c 023e 3a26 d4bd 0c4d a5bd 3612 a93d
00000090: 5bcf 223e 8122 c9bd 2c3d 243e b342 b8bd
000000a0: 8bc9 8ebd 8ed8 2abd 2d97 b13d 958b 31bc
000000b0: 4a1f 9b3d f4fe f43d 392e d6bd 1a17 a03d
000000c0: e159 05bd 03c4 3dbd 43f3 41bd 3a6e 2f3d
000000d0: c06b 9ebd 1148 443e 4ebd e03c 8f22 303e
000000e0: d147 c43b d3d0 87bd 6d24 34bd fb2d e0bd
000000f0: 2dcf 5abc 0263 3a3e 6d79 d2bb 3340 233e
00000100: 58a8 4bbe 81ea 36bd 3c9a d43d 67f7 983d
00000110: bc7e 183c 777d dcbd ba5d 11bd b53d 7cbd
00000120: aa8a 9fbd 806f 1ebc 9887 79bd 48bc 59bd
00000130: 6aeb c0bd d8c7 54bd b361 45bd 8f80 5a3d
00000140: 2b9d 86bd 8d3e 7f3d fda1 f4bc 6707 3abe
00000150: 9bb1 2e3d 8012 1abe 0849 333e 087c b8bd
00000160: b01a b93d 4937 83bd 9c0a 9abd 0446 45be
00000170: 212c 42be abd9 183e 87d6 09bd b1bd 40be
00000180: 1950 2ebe c12a 76bd bba2 0fbd b1d4 903d
00000190: 2790 cfba b293 3cbd 373e 17be 0942 35be
000001a0: 7e4c ec3c 1fd0 8dbd c6cb 4a3c 68d2 3fbe
000001b0: 0268 c0bd cfd7 adbd 46f1 993d 2dde 2b3e
000001c0: 3cd1 05be 8100 773b b70e f8bc 076d b23c
000001d0: 9225 5e3d d026 bebb 5746 f4bd 6c19 1cbe
000001e0: 7067 3d3e 9245 8abc 096e 083e 0c3f 2ebe
000001f0: 8845 ba3c 1673 03be 9578 053e e279 f3bd
00000200: 314b 2d3e 568a a03d f2fa 32be 29a9 223e
00000210: 0229 82bc 0542 3a3e 35f9 0ebd af04 753c
00000220: ebac 123c 0038 4a3e ebea bdbd 9aec b63d
00000230: 2703 35bd 6eb8 21be fb69 fc3d 7d4a 29be
00000240: f7eb f5bd 8711 16be d6e4 503e 6708 103e
00000250: 02a5 38bd 2ee1 edbd d80b d63d e83e 183e
00000260: 7948 a63c d184 31be 5c43 9139 25fc cbbc
00000270: 2a9b f13d fbcd 1c3e 50b1 af3d efcd 31bd
00000280: f0e8 733d b37f fd3b d4e1 c9bd 4716 4f3e
00000290: 089e ce3d a9f0 c83d 663c fe3c 1d9c 0ebe
000002a0: c0c6 43be 4452 103e e302 06be 67f1 e63c
000002b0: 2250 343e e56e 3fbe beb1 9d3d 58c3 c73d
000002c0: cef9 043e 1f3c 16be 1b16 4cbe 9790 babd
000002d0: 4155 b1bd ec5a 42be 58bd 79bd ae83 9dbd
000002e0: 754b d5bc 9e3a 033e 4b80 06be 6aa2 b0bd
000002f0: fdfa 3ebe 1341 d43c 4f07 53be e8ea 3dbe
00000300: 7878 c93c cdc0 41be 6ddb 773d 3cd1 efbd
00000310: d883 a53d f3c1 093e 80bd aa3d 46c5 a73d
00000320: 4f22 0dbe f4d3 ffbd 67fe 4f3e 6c74 913b
00000330: 3aa2 0e3e a2b3 2abe fe3f 8c3d 3312 20bd
00000340: 2a8d c83d d423 15be 0ece 343d 140e 0ebe
00000350: b2e0 753d 119b 37be aea3 643d 1ece 513e
00000360: b842 d93d ea9a cabd 07ad 6ebd bff7 1cbe
00000370: c399 103e 1eed e3bc 40eb 6c3d b3f8 3ebe
00000380: 4525 cb3d dfaf 293d 2d06 94bd b9d9 023e
00000390: 482e 093e 6252 cfbd ea61 623b 0d75 21be
000003a0: 798b 6b3d 7a23 39be 61f4 b43c 83df c03d
000003b0: 0f61 ff3d e650 97bc e8f3 9a3d acb0 b73d
000003c0: f85e 2d3e d8c9 533e 5511 433e 6e7f 04be
000003d0: 3e56 b03c 0c88 4ebe 0eda c53d b24d f73d
000003e0: 84fb d53d a733 3a3d 9bc5 31be bedd 81bd
000003f0: ebcd 913d 53ab 503e 5120 a0bd 5f52 d6bc
0.15433395 0.19067457 -0.12426072 -0.09812737 0.13184954 0.030480426 -0.0948164 0.199477
0.10009251 -0.09810385 -0.029590957 0.16756794 0.04269839 0.106091894 0.14658988 -0.17703894
0.04395658 0.04559991 0.18056326 0.06751153 0.14918461 -0.12130716 -0.05310985 -0.10616477
-0.18151313 0.072519824 -0.058567416 -0.026409902 0.004476957 -0.07482925 -0.014580379 0.083867915
0.12706214 -0.10358854 -0.08071336 0.082554266 0.15899412 -0.09821034 0.1603896 -0.08997097
-0.06972035 -0.04171043 0.086714126 -0.010836502 0.07574327 0.11962691 -0.10458035 0.07816906
-0.03255642 -0.04632951 -0.047351133 0.04282973 -0.077353954 0.19168116 0.027434018 0.17200683
0.0059900065 -0.06631627 -0.04398005 -0.1094627 -0.013355059 0.18201831 -0.0064231665 0.15942459
-0.19888437 -0.044657234 0.1038098 0.07469063 0.00930756 -0.10766118 -0.035489775 -0.061582286
-0.0779012 -0.009670138 -0.060920328 -0.053158075 -0.09419902 -0.0519484 -0.048188876 0.05334526
-0.06572946 0.062315512 -0.029862398 -0.18166886 0.042649847 -0.1504612 0.17508328 -0.09008032
0.09038293 -0.06407029 -0.07521555 -0.1926499 -0.18962146 0.14926784 -0.033651855 -0.18822362
-0.17022742 -0.060099367 -0.0350673 0.07071818 -0.0015835807 -0.04603929 -0.14769827 -0.17700972
0.028845068 -0.069244616 0.012377685 -0.18732607 -0.09394838 -0.08488428 0.075167224 0.16783972
-0.13068098 0.003768951 -0.030280454 0.021780504 0.05423505 -0.0058029667 -0.11927479 -0.15244073
0.1849649 -0.016878877 0.13323225 -0.17016238 0.022738233 -0.1283687 0.1303428 -0.11888482
0.16923214 0.078388855 -0.1747854 0.15884842 -0.015888695 0.18189247 -0.03490563 0.01495473
0.00895236 0.19747925 -0.09273323 0.08931847 -0.04419246 -0.1579301 0.12324902 -0.16532321
-0.12007897 -0.14655124 0.20399794 0.14065705 -0.04507924 -0.11615215 0.10451478 0.14867747
0.02029823 -0.17335822 0.00027706742 -0.024900505 0.11797173 0.1531295 0.085787416 -0.043409284
0.05954832 0.00773617 -0.098575264 0.20223342 0.10088736 0.09811527 0.03103466 -0.1392674
-0.19118786 0.14093882 -0.13087039 0.028191281 0.17608693 -0.18694647 0.07699917 0.09754056
0.12985918 -0.14671372 -0.19930308 -0.091096096 -0.08658839 -0.18979996 -0.060971588 -0.076911315
-0.026036957 0.1281533 -0.13134877 -0.08624728 -0.18650432 0.025909936 -0.20608257 -0.18546641
0.024593577 -0.18921204 0.060511995 -0.1170983 0.08081788 0.13452892 0.083369255 0.08191924
-0.13782619 -0.12491599 0.2031189 0.0044389274 0.13929072 -0.16670087 0.06848143 -0.039079856
0.0979255 -0.14564449 0.04414182 -0.13872558 0.06002874 -0.17930247 0.05582016 0.20488784
0.10608429 -0.09892829 -0.05827048 -0.15328883 0.14121155 -0.027823027 0.05784154 -0.18649559
0.09919218 0.04142749 -0.072277404 0.12778367 0.13396561 -0.10123135 0.0034543225 -0.15767308
0.05750606 -0.1807994 0.022089185 0.094176315 0.12469684 -0.018471193 0.07566053 0.08969244
0.16930759 0.20682466 0.1904958 -0.12939236 0.021525498 -0.20169085 0.09660731 0.12075366
0.104483634 0.045459416 -0.17360537 -0.06341122 0.07119354 0.20377855 -0.07818664 -0.026162324

atom_encoder.atom_embedding_list.4.weight f4 [10, 128]
00000000: c292 fbbd 3244 4cbd 683b bfbd 6568 c33d
00000010: 08d5 95bd d65b b1bd ed63 76bc 5792 fd3d
00000020: 7f6a 24be fa5c 27be 63cd 113e 44d4 5a3d
00000030: e209 3cbd b43f 4dbe c4b9 10bd d953 f43d
00000040: d69d cbbd 8b59 8dbd c887 0abe f6e0 13bd
00000050: 041e c93c 170e c23d 61fa 01be 4079 2abe
00000060: 452f 4a3d e2ed 26be 209f fc3d 7ab6 e0bd
00000070: 6f8e 22be 5de0 19bd 22f5 d33d 4978 1bbe
00000080: ce4d 64bc feef babd a022 b6bd 9bc7 0ebe
00000090: 9782 cd3d bec4 cdbd 29a8 2ebe 05ec 3dbe
000000a0: 5091 483e 30b5 7a3c 0886 05bc 4510 4c3e
000000b0: 8bc1 0e3e 52ec 79bd 6ec1 1a3e 8b48 b9bc
000000c0: 8952 2e3e daa5 04be dc18 8f3d 2a01 30be
000000d0: 7958 a9bd 0ca7 beba 6a30 1fbe 6088 0f3b
000000e0: 0ef2 54bc 547e 533e 14d5 be3c 2234 073e
000000f0: c258 043e 6ced 013e 363d ea3d c9a6 583d
00000100: 8581 243e f80a 3b3e c7c9 8fbd 8aa6 dc3d
00000110: 54d8 953d f8b0 f33d ec32 cebd 4fdd b93c
00000120: 163a b93c 56df 5b3d 0aeb 013d 9b10 0a3e
00000130: d0f2 b1bd 2690 16bd 204b 46be e558 1b3e
00000140: b360 3cbe 95e0 883d 171c 1dbe ef4e 8a3d
00000150: 363a dabd 1f44 043e a8c5 3cbe 115a 083e
00000160: a248 57bd 4979 40be e01c 89bd 08d8 95bd
00000170: 782d 6e3d c08f 3a3e 5605 6b3d bacc dcba
00000180: 84d2 b53c 29c8 1bbe cc9a d6bd a2d4 423e
00000190: 5598 293e 43ad 30bc 0242 ad3d 00d1 253e
000001a0: db9d 0abe 1778 913b d3ba 1cbe bdc1 d73c
000001b0: ad8f cebb 81a8 00bd 5d33 393e 018f 01be
000001c0: 8d70 0d3e 7f84 59bd e39d 453e 7709 b8bb
000001d0: 0bcd 1cbd f399 013d 3330 b63d 8060 82ba
000001e0: 1bbd 6abd 62c7 c1bd f4ea 97bc 9cf1 13be
000001f0: 0bbf 52bd e107 163d 212a 7dbd 972d 0b3e
00000200: dc3f 59be fd77 37bd 4668 7ebd e519 02be
00000210: e329 4b3e 5caa 9cbd e8b8 fabc 40c7 a63d
00000220: 3da1 d23d ba1d a63d 1734 8f3d 9662 bebd
00000230: 2e0f 69bc e28f 773d dc7a 8c3c f1e3 223e
00000240: e7b3 ad3d 7ef8 ba3d 784f 69bd 10a7 a13d
00000250: 3230 2cbd f347 7a3c 111f 783e 62b2 853e
00000260: 0c01 5bbe d094 143d a2a8 1c3e 1a42 5fbe
00000270: 1efb d63d a811 0fbe eb8b 34be 7587 4f3d
00000280: 72f5 bebb b6da be3d d2fc bdbc 479f 1fbe
00000290: 8697 e1bd 919b 8abb ad35 d5bd 18b2 26be
000002a0: fa42 21be 495c a4bd b8a4 debd 815b cd3d
000002b0: ead2 943d 3eb0 3dbe 2dd8 e5bd daa0 0dbe
000002c0: 8da3 f93d 1018 00be be51 dbbd fe2e ed3c
000002d0: 3c8c babd 2155 16be 409d abbb 72c1 59bd
000002e0: 9394 493e 4798 0a3e 9e3f 7abd f4f3 543e
000002f0: 3117 ca3d 8c7b 953e c675 443e e633 4d3e
00000300: 71fc 3ebe 6a83 103e 63d2 453e 73a2 793d
00000310: 2760 0e3c d192 a8bd 3964 533e 4fee 893d
00000320: 6f64 953d e8dd 8b3e 05ca ba3d adfb 283d
00000330: 78c9 3b3e e2aa d93d 7791 70bc 1693 0ebe
00000340: 2caf 3f3e 5a5f bb3c 1829 10be 8a17 36be
00000350: 8232 89bb 59c9 153e 0cbb 893d 8c47 033e
00000360: cbec 62be 32f5 183e 3c11 95bc 6dcc 19be
00000370: d877 37bd e45c 193e 6a1b 8bbd 6191 61be
00000380: 5c56 47be 8c23 dabd 3759 7cbc 0991 be3c
00000390: b769 afbd a634 52bd ff18 febd ffc6 98bd
000003a0: cd29 683d 61ea 75be cefa 5abd f092 2e3e
000003b0: f6dd a4bd 806b 8abd 526b 9e3c 21f6 e13d
000003c0: 1ea5 6b3e 8df5 4bbe fc69 5fbe 21db 483d
000003d0: 9683 5bbe 4000 423e b59c 6c3d 42b6 083e
000003e0: 9db6 72be 095f 583d 606b 9cbd 7a93 7e3d
000003f0: d463 00bd 2b6a 86bd c38a 553e f898 9bbd
-0.12283851 -0.049869724 -0.09337503 0.09541396 -0.07316023 -0.086600944 -0.015038473 0.12381428
-0.1605625 -0.16344061 0.14238505 0.05342509 -0.045907862 -0.20043832 -0.03533341 0.11930055
-0.09942214 -0.069018446 -0.13528359 -0.03610321 0.024550445 0.09475344 -0.12693168 -0.16647816
0.049361486 -0.16301683 0.12335038 -0.10972305 -0.15874647 -0.037567485 0.1034949 -0.15182604
-0.013934566 -0.09127806 -0.08893323 -0.13943331 0.10034674 -0.10047291 -0.17056336 -0.18547066
0.19586682 0.0153019875 -0.008149631 0.19928081 0.13941018 -0.06101639 0.1511285 -0.022617599
0.17023672 -0.12953892 0.069871634 -0.17187944 -0.08268828 -0.0014545633 -0.15545812 0.0021901354
-0.012997163 0.20653659 0.023294963 0.13203481 0.12924483 0.12688226 0.11437456 0.052893434
0.16065033 0.18265903 -0.07020908 0.10773952 0.07316652 0.118989885 -0.10068306 0.022688536
0.022610705 0.053679787 0.03171829 0.13482897 -0.08688891 -0.036758564 -0.19364595 0.1517063
-0.18396263 0.066834606 -0.15342747 0.06753337 -0.10655634 0.12916611 -0.18434775 0.13315608
-0.052559502 -0.18796267 -0.066949606 -0.07316595 0.05814883 0.18218899 0.057378136 -0.0016845681
0.022195108 -0.15213074 -0.10478744 0.19026425 0.16562016 -0.010783496 0.084598556 0.16193008
-0.1353678 0.0044393647 -0.15305643 0.026337499 -0.0063037486 -0.031410698 0.18086 -0.12652208
0.13812466 -0.053104874 0.1929851 -0.0056163627 -0.03828148 0.031640958 0.08895912 -0.0009946972
-0.05730925 -0.094618574 -0.018544652 -0.14447635 -0.051451724 0.036628608 -0.061807755 0.1359161
-0.21215767 -0.044792164 -0.06211116 -0.1270519 0.19840197 -0.07649681 -0.030605748 0.08143473
0.1028466 0.08111139 0.06992357 -0.092961475 -0.0142248105 0.06043995 0.017148428 0.15907265
0.08481579 0.091294274 -0.056960553 0.07893193 -0.04203815 0.015275943 0.24230601 0.26112658
-0.21387118 0.03627473 0.15298703 -0.2180256 0.104971156 -0.13971579 -0.176315 0.05066629
-0.005827599 0.093190596 -0.023191843 -0.15588103 -0.11015229 -0.0042299707 -0.104106285 -0.16278875
-0.15748206 -0.080254145 -0.10871261 0.100272186 0.07266791 -0.18524262 -0.11222873 -0.13830891
0.12189398 -0.12509179 -0.107089505 0.028953072 -0.09108779 -0.14680912 -0.0052372515 -0.053163
0.19685583 0.13534652 -0.061095826 0.20796186 0.09867705 0.2919582 0.19185552 0.20039329
-0.18650986 0.1411263 0.19318537 0.06094594 0.008689917 -0.08231128 0.206437 0.06734907
0.07294547 0.2731774 0.091205634 0.04125564 0.18338573 0.106282964 -0.014683119 -0.13923296
0.18719167 0.022872616 -0.14078176 -0.17782417 -0.004186929 0.1462759 0.067251295 0.12820262
-0.22160642 0.14937285 -0.018196695 -0.15019388 -0.044792026 0.14976841 -0.06792338 -0.22028114
-0.19466537 -0.10651311 -0.01540213 0.023262518 -0.085650854 -0.05131974 -0.124071114 -0.074598305
0.05668049 -0.2401519 -0.053461842 0.1704824 -0.08050148 -0.06758785 0.019338284 0.110332735
0.23012206 -0.19917889 -0.21817774 0.049037103 -0.21436915 0.18945408 0.057766635 0.13350776
-0.23702474 0.052825008 -0.07637668 0.062152363 -0.031345204 -0.06563219 0.20853715 -0.07597536

atom_encoder.atom_embedding_list.5.weight f4 [6, 128]
00000000: 4ea1 3cbd 8224 233d 2f5f 73bb fa2d 08bc
00000010: d115 473d 5112 373e 6bd4 0d3e 3ab2 863d
00000020: 0c6c 9abd cac8 f53d 731e 15bd c679 c53d
00000030: c8aa c23d afc2 efbd 5ed4 01bd dae5 9f3d
00000040: 91cd 4d3e 8eec 7a3d 09b4 f23d a730 81bd
00000050: d9d7 40be 315d 303d ffad 3e3d 4634 543c
00000060: 6694 823c 38b0 653d 6827 64bc 7f35 c1bd
00000070: 9a46 4ebe 8c2f c63b 1c03 5a3e 9ffa 563d
00000080: 83ed 843d 5653 80bb 88b9 46bc 5fb0 0e3e
00000090: b036 98bd 623f 3abd 4fa1 16be 9482 42be
000000a0: 4aac 113e 0922 80bc 7948 46be 4d08 1f3e
000000b0: 1d67 a03b 0b29 32bd 7715 0cbd 6554 e6bd
000000c0: 85d3 1ebe 390b 083c eb62 25bd c516 273e
000000d0: 654f a6bd 9efe 24bd 136d 03bd a03b cebd
000000e0: 4d28 e13d 269d 0bbe 3969 d7bd 031f 05bd
000000f0: fba1 093e c58b d8bc 9a77 e5bd 750d 283d
00000100: 080c 143d f8dd d23c 0dee 363e 7c8e bd3d
00000110: 8ddc a4bd 8791 083e 2372 373e 5c70 9d3d
00000120: b847 4fbe b4f2 15bd 0d55 01be bb06 d8bd
00000130: 00d4 42be d328 3b3d 461c 10be 5083 853d
00000140: 9a00 babd a51e 213e 2712 13be a3bc 353e
00000150: 8c20 363e 2ceb debd b925 553e 4a9d 42be
00000160: 3153 823d c4b1 efbd c197 493e 841d 2a3c
00000170: a683 3cbe 3893 773d 346e afbd 46a7 07be
00000180: cc5b 033e cea1 263e 3087 4d3e 4a29 5e3d
00000190: cc55 5f3e 4719 eb3d b476 583e 61c7 133e
000001a0: f165 403b 9c4d e33d 318d cd3d 1e15 c23d
000001b0: 4398 2ebc 5cae 0bbe 45a0 443e 22b4 3cbe
000001c0: 75cd 17be 8528 94bc 8624 7cbd f91f 1f3e
000001d0: 34d5 dd3c 257e 25be 0743 273e 8089 883d
000001e0: 318c 53be 9e21 523e ffbd 47be 86e0 90bd
000001f0: 9538 483e d6f0 a73d 730f ee3d 4f9a 81bd
00000200: f4df a3be a5cf d33d 895a 67ba 7ed7 b83d
00000210: 1bcf 60bc 07c1 8dbd 063a 9f3e ad94 543e
00000220: bc96 3fbd 1b12 7cbe 038a 41bd 24fd c4bd
00000230: b36c 2c3d ac97 803e 16c1 a03d 1e8d 773e
00000240: 32dd 10bd 164b 783d 5f43 86bc a88b 15be
00000250: 4753 3cbd 08da a53e b52f 833e e74e 013e
00000260: 0d76 b2bc aa52 08be 09cf 8d3e 2d25 273e
00000270: 62e2 753e fe54 73be c71c 68be b2dc 143e
00000280: 8bc3 c13d e58d b6bd 5983 02bd ccaf 85be
00000290: 3960 db3d 94e8 c2bd bb67 64be 7205 36be
000002a0: f54d 83bd 1be8 973c 5b30 983d 0aa3 863e
000002b0: 63a9 6fbe 09b5 aebd 3ec8 b03e 9825 203e
000002c0: 88bf 3b3e 4663 cebd 4f78 313e cac6 39bd
000002d0: 0785 debc ee58 a2bc a20d 003d 4cec e4bd
000002e0: 203d c1bd 3b0b 3b3e 939e 6c3e fc10 183e
000002f0: 9e9e fb3d 9437 2fbe 40d6 e9bd 9399 cf3d
00000300: f10a 573d aed2 7a3e 0e2a d53c 0c58 133e
00000310: 6465 25be e15c a03d a048 293e f9b1 bf3d
00000320: 2d85 a83e 004c c5bd bacd cb3d a4f1 053e
00000330: b116 61bd c1f8 84bc 3dec 973d 7997 c2ba
00000340: 8b87 8c3e c017 afbd 8bfb 9e3d 81cf aabe
00000350: 8668 173d 7500 84bd fe5b c8bd c2f8 b1bd
00000360: 873d ffbd a8cd 91bc 50b3 763e db44 4d3e
00000370: 2257 bbbe b04c 17be addb e83c 2d9c 073e
00000380: 6d1d 193e 6f28 d2bc 2f57 3bbd f19b 533e
00000390: a192 203e 6417 7cbe d1f6 713e 63c5 53be
000003a0: bf7f 64be f3be a5bc be48 69bd 8b1c 763d
000003b0: 56e5 04bc 7cf7 da3d 640c 3ebe 9f35 463e
000003c0: 8a70 573e 041e 6bbe d8b2 373e c873 a93c
000003d0: d753 563e 1439 8b3b 3023 6dbd 5707 053e
000003e0: 1ac1 173d ffab 6cbe c3bc 513e b2cd 113e
000003f0: 3eed a2be caf6 3b3e f93a 2ebe 696d adbe
-0.04605227 0.03982974 -0.0037135591 -0.008311743 0.04860479 0.17878081 0.13850562 0.06576963
-0.075401396 0.12001188 -0.03640599 0.09642367 0.0950523 -0.11707055 -0.03169667 0.078075126
0.20097949 0.061260752 0.11850745 -0.06308108 -0.1883234 0.043057624 0.046552654 0.012951916
0.015939903 0.05607626 -0.013925411 -0.09434032 -0.2014412 0.0060481485 0.21290249 0.052485105
0.06490614 -0.0039161844 -0.012129195 0.13934468 -0.07432306 -0.045470603 -0.14709972 -0.18995124
0.1422588 -0.01564123 -0.19363584 0.1553051 0.0048951046 -0.043496173 -0.034200158 -0.11246566
-0.15510376 0.008303457 -0.04037754 0.1631728 -0.08120612 -0.040281884 -0.032086443 -0.10069966
0.10994015 -0.13634166 -0.105181165 -0.03250028 0.13440697 -0.026433835 -0.11204453 0.04102846
0.036144286 0.025740609 0.17864247 0.09255692 -0.08049879 0.13336764 0.17914633 0.076874465
-0.20242202 -0.036608413 -0.126301 -0.10548159 -0.19026184 0.04569323 -0.14073285 0.065191865
-0.09082146 0.15734346 -0.14362393 0.1774774 0.17785853 -0.10884699 0.20815171 -0.19005314
0.06363524 -0.11703828 0.19686796 0.010383014 -0.18409595 0.060443133 -0.085659415 -0.13247404
0.12827986 0.16272661 0.20071101 0.054238595 0.21810073 0.11479431 0.21139032 0.14431526
0.0029357637 0.11098787 0.10036696 0.09476684 -0.010656419 -0.13640732 0.19201763 -0.1842809
-0.1482447 -0.018085727 -0.06155827 0.1553954 0.027079202 -0.16161402 0.16334163 0.06666851
-0.20658948 0.20520636 -0.19506072 -0.070740744 0.19552834 0.08200233 0.116240405 -0.0632826
-0.320068 0.103423394 -0.00088254415 0.09025477 -0.013721253 -0.06921583 0.31098956 0.2075984
-0.04677461 -0.24616282 -0.04725076 -0.09618595 0.04209585 0.25115716 0.07849328 0.24174926
-0.0353672 0.060618483 -0.016389547 -0.14604056 -0.045977857 0.32392907 0.25622335 0.12627755
-0.021784807 -0.13312784 0.27697018 0.16322775 0.2401214 -0.2376289 -0.22667228 0.14537314
0.09461125 -0.08913783 -0.031863544 -0.26110685 0.107117124 -0.09517017 -0.22305195 -0.17775515
-0.064113535 0.018543294 0.07431098 0.26296264 -0.2340446 -0.085306235 0.34527773 0.15639341
0.18334782 -0.10077529 0.1733105 -0.045355596 -0.027163042 -0.019817796 0.031263 -0.111778826
-0.09435487 0.18266003 0.23107366 0.14850229 0.12286113 -0.17111045 -0.11417818 0.10136714
0.05250067 0.2449443 0.02602103 0.14389056 -0.16151959 0.07830215 0.1653161 0.093601175
0.32914105 -0.096336365 0.099513486 0.1308046 -0.05495328 -0.016231896 0.07418106 -0.0014846168
0.2744716 -0.08549452 0.07762822 -0.33361438 0.036964916 -0.064454 -0.09783171 -0.08690025
-0.12462907 -0.01779826 0.2409184 0.20045798 -0.36589915 -0.14775348 0.028425062 0.1324317
0.14952631 -0.025654046 -0.04573744 0.20664956 0.15680934 -0.24618298 0.23629309 -0.20680766
-0.22314356 -0.020232653 -0.056954138 0.060085814 -0.008111319 0.10691735 -0.18559414 0.19356392
0.21039024 -0.22960669 0.17939317 0.020685092 0.2093042 0.0042487476 -0.057894886 0.12991081
0.03704939 -0.23112486 0.20482163 0.14238623 -0.31821626 0.18355861 -0.17014684 -0.33872536

atom_encoder.atom_embedding_list.6.weight f4 [6, 128]
00000000: 2a88 97bd 3fdb 303e baa4 e93d 9e41 e4bd
00000010: 5cc6 303e af47 a9bd f781 2bbd 2275 143c
00000020: e426 073e 7f4e 08be bf2a cc3d c7d7 ea3d
00000030: 9347 dcbd 4261 80be e66c d23c 2501 2e3c
00000040: 00d7 d2bd 1aca 39be 92ca ffbd ff28 c13c
00000050: 57a4 413e d29e 3c3c 256f da3c 20d9 55be
00000060: d0b4 cb3d 0e9f 313e b089 bdbd 3cf6 153e
00000070: 59f9 d23d 009d 733e 56b8 8abd b693 f9bc
00000080: cf58 683e 2466 a5bd 6855 453e 613f 95bd
00000090: c78f bcbc 5a35 6bbd 7952 c9bb 9244 393e
000000a0: 871a 5bbe 7f06 b2bd cfce 353d 70f5 2bbe
000000b0: 88e6 b33d 6c82 4f3e 2dd0 5f3e 0ad1 543d
000000c0: 198d ffbd 573d 28be 7a2a 1bbe 59a7 00bd
000000d0: ef92 db3d 6b3c 61be 5e8d 083e d071 b2bd
000000e0: 77e2 6cbd ad78 2bbe c62d 23be 48fd 743d
000000f0: c8c2 46be 4630 e4bd 8124 c0bd b8c7 b43d
00000100: 74e3 b63d 51b8 72bd a9b1 25be 877c 383d
00000110: a7b1 65bd fe34 44bd ce32 883c 5584 80be
00000120: e338 be3d 653e 113e 8db6 b23d 4266 44bd
00000130: 76cd b5bd cb6e 6f3b 410e 07be e853 283e
00000140: 2a8f 8dbd 3797 37bd a9de 6b3e e243 683e
00000150: fd08 323e dd32 10be 1ea0 5c3d 4840 61bd
00000160: 5409 933b deee 58be 392c 7f3b 78f3 3e3e
00000170: 2e21 0e3d 0dd3 4dbe 5b0b 5f3d a13e d93d
00000180: 0e7b ad3c 7697 8b3d 85da 17be 17b0 353e
00000190: 05a3 1fbe 221d 513e e89d 35bc fcb8 be3d
000001a0: 19de 613e af9c 003e 9e65 a83c c0d0 443e
000001b0: 4d7f fa3d 6978 b43d 07b5 90bd f2f3 dc3d
000001c0: 5835 403e 133e ba3d 76db 1b3e 17a0 3f3e
000001d0: dccc 073e 0823 b8bd 55c5 7a3e 0eb0 1cbe
000001e0: 9f6e 153d d8f2 27be e827 773e 04b2 a1bd
000001f0: fa75 3abd 9076 0cbe a579 323e 116b 693d
00000200: 1669 ebbd ee04 233d 3d5a afbd 0813 333e
00000210: 4d28 353e 2de3 253e 068d 1cbe 8e86 903d
00000220: 0fe2 88bd 0cdb bebd 0cd2 e23d c607 403d
00000230: 0f70 fbba 3a63 1c3e eecd bdbd f64b 203e
00000240: cd47 403c 8170 483e 224f 693d 80d0 f1bc
00000250: 94c5 083e cbbe b6bd afe9 1dbe 6cee e2bd
00000260: e9b8 3e3d 759b 7abd d905 283e cd27 fb3d
00000270: ad00 4ebe f13a 3c3e 5ed0 0abe 5581 4dbd
00000280: a0af 20be 0908 97bc f989 1e3e ddff 063e
00000290: eea5 5f3c 5f8a 5c3e a0a8 6a3e 3d79 eabd
000002a0: 202c 0d3d ac52 a53c f4fe b53a ef50 253e
000002b0: 30a5 dcbd 5346 efb6 3ea6 893d d307 12bd
000002c0: 502d 5c3d 012d a43d 74ba ae3d 29c5 6cbd
000002d0: d06b 153e e846 033d d275 6cbd 1d1f 17be
000002e0: cfbb 473e d710 fc3d c0f0 3f3e 14ed 43be
000002f0: ea40 4abd be66 3fbc 7252 603e 0240 463e
00000300: 76b8 7dbd 8089 483e ceea 0d3e 5014 1dbe
00000310: 1302 5fbd 23ea 143e 871e 903c dbcb 4bbe
00000320: 40b9 1f3d bb83 713e a1ae be3d 37f1 3cbe
00000330: 79ca ac3c ed78 f43d eee4 14bd bc8c 10bd
00000340: 4a75 42be 4b17 93bc 17cd 0abe c1c2 0dbe
00000350: 1bbd dc3a b2d9 973d 2927 10be 1093 ecbd
00000360: 97ad 0b3d 952a 3ebe e60f 2dbe ceb4 12be
00000370: d15c 2ebe 37bb 2d3e a7f7 303e 55dd 863d
00000380: e06b a53d 9c0e d63d c0f4 0b3e 18d9 e2bd
00000390: 83a1 43be d5f4 5cbc 3c67 f8bd 59d4 e13d
000003a0: eea0 7a3d 966c 07be 24bd cfbd ccf4 be3c
000003b0: 2e3a e1bd 968a 0c3d 62b0 45be fd96 0bbe
000003c0: 5e43 8a3d ed04 8c3a 7798 6fbd b483 8b3d
000003d0: 1e03 bdbd 2d7b 383e 93ae 4dbe ad0f bc3d
000003e0: e4a0 25bc 06cb f23d 8594 5dbe f4f3 f83c
000003f0: af9b c3bc 07b7 95bd fc10 693d ee1d b53c
-0.07399018 0.17271136 0.11408372 -0.11145328 0.17263168 -0.08265626 -0.04187199 0.00906113
0.1319843 -0.13311194 0.09969091 0.114669375 -0.10755839 -0.25074202 0.025686692 0.01062039
-0.10294914 -0.18143502 -0.12489809 0.023579119 0.18910347 0.011512475 0.026664326 -0.20883608
0.099465966 0.17345831 -0.092547774 0.14644712 0.103014655 0.2379036 -0.067734405 -0.030465942
0.22690128 -0.080761224 0.19270861 -0.07287479 -0.023017777 -0.057423927 -0.0061438647 0.18092564
-0.21396838 -0.08692645 0.04438668 -0.16792846 0.08784205 0.20264596 0.21856757 0.051957168
-0.12478084 -0.1642965 -0.15152922 -0.031409595 0.10721385 -0.21995704 0.13335177 -0.08713114
-0.05783316 -0.16745253 -0.1593543 0.05981186 -0.1941024 -0.1114202 -0.093819626 0.08827156
0.08930102 -0.05925781 -0.16181053 0.045040634 -0.056077626 -0.0479021 0.016625788 -0.2510096
0.09288194 0.14183958 0.08726225 -0.047949083 -0.08877079 0.0036534544 -0.13189031 0.16438258
-0.06912072 -0.044821944 0.23034157 0.22682145 0.17386241 -0.14081903 0.053863637 -0.054992944
0.004487196 -0.2118487 0.003893627 0.18647563 0.03469961 -0.2010004 0.05445419 0.10607649
0.021176841 0.06815998 -0.14829452 0.17742954 -0.15589531 0.2042127 -0.011085011 0.09312627
0.2205738 0.1255977 0.020556267 0.19220257 0.12231312 0.08812029 -0.07065778 0.107887164
0.18770349 0.09093871 0.15220436 0.18713413 0.13261741 -0.08991057 0.24489339 -0.15301535
0.03648245 -0.16401231 0.24136317 -0.07895282 -0.045522667 -0.13717103 0.17429216 0.056986872
-0.11494653 0.039799623 -0.085621335 0.17487729 0.17691155 0.16199942 -0.15288171 0.07056914
-0.06683742 -0.093191236 0.110752195 0.046882413 -0.0019183176 0.15272227 -0.092677936 0.15653977
0.011735869 0.19574167 0.056960233 -0.029518366 0.1335662 -0.089231096 -0.15421174 -0.110806316
0.046563063 -0.06118341 0.1640848 0.12263451 -0.20117445 0.1838186 -0.13556048 -0.05017217
-0.15691996 -0.018436449 0.1548232 0.13183542 0.013650401 0.2153716 0.22915888 -0.114489056
0.03446591 0.020181023 0.0013885186 0.16144155 -0.107736945 -7.130942e-06 0.06721161 -0.035651993
0.05375415 0.08016396 0.08531657 -0.057805214 0.14591908 0.032050043 -0.05772955 -0.14757963
0.19505237 0.123078994 0.18744183 -0.19133407 -0.049378313 -0.0116822105 0.2190645 0.19360355
-0.061943494 0.19583702 0.13859102 -0.1533978 -0.054445338 0.14542441 0.017592682 -0.19901983
0.038995028 0.23585407 0.093106516 -0.18451391 0.02109264 0.11937127 -0.036351137 -0.035290465
-0.18990055 -0.017955443 -0.13554798 -0.13843824 0.0016841026 0.07414569 -0.14077438 -0.115514874
0.034101095 -0.18570931 -0.16900596 -0.14326784 -0.17027594 0.16965948 0.17281972 0.065851845
0.08077216 0.10452005 0.13667583 -0.110765636 -0.1910458 -0.013486107 -0.121290654 0.1102683
0.06118863 -0.13225016 -0.101434976 0.023310088 -0.10997425 0.034311853 -0.19305566 -0.13631816
0.067511305 0.001068262 -0.05849501 0.0681223 -0.0922911 0.18015738 -0.20086126 0.091826774
-0.01010916 0.1185513 -0.21638687 0.030389763 -0.023877947 -0.073103 0.056900963 0.022108998

atom_encoder.atom_embedding_list.7.weight f4 [2, 128]
00000000: e890 4f3d 070c 74bd a82d 2fbd 6148 34be
00000010: 3879 893d a919 12be 47cd 4c3e 2674 42bd
00000020: e804 8c3d 723c 3bbe 806d 75bc ff8e a13d
00000030: 7e0a aebd e2a8 23be 3e15 93bd 249e dabd
00000040: 3300 773c 6325 dfbd 863b 133c 231c f7bd
00000050: ee60 91bd cf7c 6e3d 13de d0bd 9780 1a3d
00000060: 7cdb 02be 3c38 abbc c906 463e 9fdf a5bd
00000070: 6886 1abe 5e43 efbd 1f09 cfbd 28fa 2ebd
00000080: dccd 103e 3f02 41bd 62a8 153e 80c8 f53d
00000090: 765b 813d fa32 b23d f946 503d b166 25be
000000a0: 7740 e53d fd00 c0bd e22d 2ebe 4ed7 403e
000000b0: 4749 1ebe 6193 0ebc 7cf1 3dbe 570e 41be
000000c0: 20d1 a03d 6afc ba3c d5d8 0f3e d679 e4bd
000000d0: 7b3e edbd d263 84bd c2b2 633e 2c31 0b3e
000000e0: 0944 78be dc3e 81bc 8b24 f2bd 495b 333d
000000f0: bb06 9bbd 26cf 3dbe 69cc 47be 21f3 b2bd
00000100: 0830 3fbe 0eda 35be 5b2e 73be e161 86bd
00000110: f2ab aabd fce1 883d 3fd9 483e f398 0b3e
00000120: 01eb 38be 9b14 10bc 92e7 b8bd 910e a5bc
00000130: 1eca 833d be93 8fbd d6dd 673e e22d 9fbd
00000140: 413f 13be 9849 9dbd 8aaf 41be 0a15 90ba
00000150: 67bd 0abe e902 213e 46bc 6bbe a37e 21be
00000160: 7cf6 e3bd 715a d1bd 2c55 dbba ce75 67be
00000170: be42 8f3d a0ae e33c b5ac 08bd dfa7 5fbc
00000180: bcc1 fe3d aa5c babd d686 d3bd 7e83 b73d
00000190: b0be 203e f8a0 343e 11e8 05be 3365 44be
000001a0: 7fa1 1ebe 1856 debd f219 24be 33ec 2b3d
000001b0: 26e1 933d db75 b43d 7420 1a3d df85 cabd
000001c0: 7c1e 223e 8c52 5b3e cb22 8cbd 4c1f 3c3e
000001d0: 00da a93d d0f7 143d a881 143e eb97 b8bd
000001e0: e559 b33d 66ba 60bd 6203 813d 9543 473e
000001f0: 5527 0abb 6286 5fbe 74d8 cbbd 94de 3cbd
00000200: df14 be3d 1c84 283d 130c 8bbd ac31 373e
00000210: e36d 513e 9391 f1bd bd2e f4bd 891f a73d
00000220: 2bf6 be3d d921 e23c b623 363e 4cc6 25bd
00000230: cdaf 12bd 04d1 0ebe a2fa 4a3e bb7d 16be
00000240: 9cf9 1c3e 4654 33be 6886 453e b3bc 8c3d
00000250: c73c 28be afa0 d4bd ac15 673d caeb 593e
00000260: 245b dfbc f2e4 62be 5f3b 5bbe 5ac7 1dbe
00000270: 0e14 c33d 8efe 133e 183c 3bbe ded7 133e
00000280: 85ba df3d 90f9 403e 2b03 37be 4264 28be
00000290: fa31 41be 3969 00be 28ec b33d 9930 6f3d
000002a0: 099b 28bd 7e45 05be 2355 ab3d 0a1c 0d3d
000002b0: afbb 343d 37a7 adbd f0bb 373e e279 a33c
000002c0: cd15 2dbe 9f35 babd d1f8 393d 14d6 fc3d
000002d0: 04ef 9a3b 58cb 4dbd 18ed 87bc 1e52 1fbe
000002e0: aeb5 563e 14d1 04be a539 783d c528 193e
000002f0: 76e6 2dbe 353e 8dba ab0d 9abb 1ca3 4dbc
00000300: 1463 833d 885d 10be b14d 1e3c 7118 0dbe
00000310: 683f e43d dd78 a0bd 0fbf b93d f27f f73c
00000320: e1cb 0d3e 70ab e6bd d6e5 52be 1a1e b13d
00000330: a6c1 41be 2fd6 94bc 4560 19be 1640 24be
00000340: 65db 28bd 3f23 73be 5e1a a53c 061c 4bbc
00000350: eae2 a0bd cb6c cabd d7f3 af3d 69f2 0f3b
00000360: 2176 a6bc cc10 513d b7b7 a43d dd5e 70bd
00000370: 6b52 243e 48ef 0e3e bbdb 11bd 643a 23be
00000380: 3fdf 313e 2340 9e3d d81c 3fbe 7e54 44bd
00000390: 9cd4 623e 5727 d63d 851b 113e 2d37 d1bd
000003a0: 9cea 6f3d eb8b 06be 7079 a4bd 5137 d93d
000003b0: 2481 81bd fa0d 51be f798 33be 45bf 8f3c
000003c0: f396 ddbd e7b9 983d 594f b7bd 176b f03c
000003d0: 6fa1 23be de2b 88bd d066 ec3c 1fd7 e0bd
000003e0: 968f e0bd 3d06 74bd b6c0 933d c4ba 1f3e
000003f0: e83a 513d 4740 843d f902 c9bd 4080 22be
0.050675303 -0.059581783 -0.04276815 -0.17605735 0.06712574 -0.14267601 0.20000182 -0.04747405
0.06836873 -0.18284777 -0.01497972 0.078886025 -0.08498095 -0.15982392 -0.07181786 -0.10674694
0.015075731 -0.10895803 0.008986359 -0.120659135 -0.07098566 0.058224496 -0.10198607 0.03772029
-0.12779039 -0.020900838 0.19338526 -0.08099293 -0.15090334 -0.11682771 -0.101091616 -0.042719036
0.14141029 -0.047121283 0.14615014 0.12001133 0.06316273 0.08701129 0.050848935 -0.16152455
0.11193936 -0.093751885 -0.1700969 0.18832132 -0.1545764 -0.00870213 -0.1854915 -0.18853126
0.078523874 0.022825439 0.14047559 -0.11156051 -0.11584183 -0.06464352 0.2223616 0.13592976
-0.24244703 -0.015777044 -0.11823376 0.04378823 -0.07569643 -0.18536052 -0.1951157 -0.087377794
-0.18670666 -0.17758963 -0.23748152 -0.06561638 -0.08333577 0.06683728 0.19614123 0.13632564
-0.18058397 -0.008793975 -0.090285435 -0.020148547 0.06435035 -0.070106015 0.22643217 -0.07772423
-0.14379598 -0.076800525 -0.18914619 -0.0010992598 -0.13548814 0.15723766 -0.2302104 -0.15770964
-0.111309975 -0.102223285 -0.0016733757 -0.22603533 0.06995152 0.027793229 -0.03336783 -0.013650863
0.12439296 -0.090997055 -0.10328452 0.08960627 0.15697742 0.1763953 -0.13076808 -0.1917923
-0.15491293 -0.10856265 -0.16025522 0.041973304 0.07220678 0.08811542 0.037628606 -0.09888815
0.15831941 0.21418208 -0.06842574 0.18371314 0.08293533 0.036369145 0.14502585 -0.09013351
0.087573804 -0.054865263 0.06299473 0.19459374 -0.0021080573 -0.21828607 -0.099533945 -0.046110705
0.092813246 0.041141614 -0.06789412 0.17890042 0.20452075 -0.11795344 -0.11922977 0.08160312
0.093242966 0.02760403 0.1778706 -0.040472314 -0.035812188 -0.1394692 0.19822171 -0.146964
0.15329593 -0.17512617 0.19289553 0.06871929 -0.16429435 -0.103822105 0.056417152 0.21281353
-0.027265139 -0.22157648 -0.21409367 -0.15408078 0.095253095 0.14452574 -0.18284643 0.14437816
0.10924248 0.188452 -0.17872302 -0.16444495 -0.18866721 -0.1254014 0.087852776 0.058395956
-0.041163478 -0.1301479 0.08365848 0.03445057 0.0441243 -0.08479159 0.17942786 0.01995558
-0.16902848 -0.09092259 0.045403305 0.1234552 0.0047282 -0.05024275 -0.016592547 -0.15558669
0.20967743 -0.12970382 0.06060185 0.14956959 -0.16982445 -0.0010775985 -0.0047013364 -0.012551095
0.06415382 -0.1409818 0.009662078 -0.13778855 0.11144906 -0.07835553 0.09069645 0.030212376
0.13847305 -0.11263168 -0.20595488 0.086483195 -0.18921527 -0.018168537 -0.1497813 -0.16040072
-0.041224856 -0.23743914 0.020154174 -0.012396818 -0.078557804 -0.09884032 0.08591431 0.0021964556
-0.02032 0.05104141 0.08042853 -0.05868422 0.16047065 0.13958466 -0.035609942 -0.15940243
0.17370318 0.07727077 -0.18663347 -0.04793214 0.22151417 0.10456722 0.14170654 -0.10215602
0.05857335 -0.13139312 -0.08030975 0.10606254 -0.0632346 -0.20415488 -0.1753882 0.01754726
-0.10819807 0.07457333 -0.08950681 0.02934794 -0.15979551 -0.06648992 0.028857619 -0.10978531
-0.10964887 -0.05957626 0.07214491 0.15598589 0.051081568 0.064575724 -0.0981502 -0.15869236
