logs/dict/ogbg-molbbbp-GCN-64-5-128-0.0001-0.5-0.0-cls-45.pth (torch, 402148 bytes, 43 tensors)

atom_encoder.atom_embedding_list.0.weight f4 [119, 128]
000000 7c c3 b3 bd 10 9d cf bd 03 d9 00 3e 3d e0 9f 3e
       -0.0877752 -0.10137379 0.12582783 0.31225768
000010 5e 63 a7 3c 70 a6 8e bd 5e 33 c1 3d 0a 0b 91 3d
       0.020433124 -0.06965339 0.09433626 0.07082184
000020 28 91 cd bd b7 2c a8 bd 4c 2b b3 bc af 8d ea 3d
       -0.10037452 -0.08211654 -0.021871231 0.11452805
000030 14 9f c2 bc 89 f2 7f 3e 60 81 8c bd 98 75 d1 3d
       -0.023757495 0.24994864 -0.06860614 0.10227507
000040 4e 53 66 3e 58 14 f7 bd 19 63 77 3d 05 2f 16 3c
       0.22492716 -0.12064427 0.06039724 0.009166484
000050 5e 1f 47 bd fd 55 85 3c 4f 20 8d 3d 78 24 2b 3e
       -0.0486139 0.016276354 0.06890928 0.1671313
000060 64 ba 70 bc a3 39 9f bd 22 39 04 3d 55 21 43 be
       -0.0146928765 -0.07774665 0.03228105 -0.19055684
000070 bb 4f 90 bd f4 27 1f bc 66 3c 65 3e 39 9e 25 bd
       -0.070464574 -0.009714115 0.22386321 -0.040434096
000080 c1 8a 30 3d cd 69 8b 3d ed f3 c1 bd 52 7e e1 3d
       0.043101076 0.06807289 -0.09470353 0.11010422
000090 0e 94 aa be 8e ba 17 bb 29 6d 97 3d 28 84 c2 bd
       -0.33316082 -0.0023151967 0.073938675 -0.09497863
0000a0 f0 89 18 be 2b 31 66 be 50 6a 48 3d da ed 0c be
       -0.14896369 -0.22479694 0.048929513 -0.13762608
0000b0 08 62 2a be 75 6c 2a 3e f0 17 a7 bd fd fc 1a 3d
       -0.16638958 0.16642936 -0.081588626 0.037838925
0000c0 1d 0e 90 3e b7 66 42 bd 7a b2 1a be 59 2d 5e 3e
       0.28135768 -0.047461238 -0.15107146 0.21696986
0000d0 12 57 2e 3e bf a6 3d 3d 46 1c 07 3c 22 87 69 3e
       0.17025402 0.0463016 0.008246487 0.22805455
0000e0 30 98 25 3d af c5 6d 3d d5 37 54 3d 32 2a 0d be
       0.04042834 0.058049854 0.051811058 -0.13785627
0000f0 7c 45 d9 bd 4f 88 52 3d f5 9a 24 3e ff a5 bb 3d
       -0.10608956 0.051399525 0.16074736 0.091625206
000100 59 67 27 3e dc f2 00 3d f7 86 3c bc 26 07 59 3d
       0.16348018 0.03148161 -0.0115067875 0.052985333
000110 fe b3 80 3e c5 f0 9a 3d 23 c8 0f be 26 e6 28 3e
       0.25137323 0.075654544 -0.1404119 0.16494045
000120 07 99 e9 bd 51 8b 91 bd b3 6f 92 be f6 c8 3b 3e
       -0.11406141 -0.071066506 -0.28600845 0.1833838
000130 58 fb 86 be f4 2f bd bc 07 1d 95 bd 6d 8d 88 3d
       -0.26363635 -0.023094155 -0.07280927 0.066676
000140 22 7c 22 bc e9 e7 04 3e f9 ac 1f 3d 8f 3f 35 3d
       -0.009917291 0.12979092 0.03898332 0.044250067
000150 56 0c 1c be 11 28 82 3d f3 81 a1 b8 b3 9e 48 3e
       -0.15239081 0.06355298 -7.701283e-05 0.19591789
000160 42 8d a9 3d f9 ff 9b 3c 30 c9 29 3d 4e a2 ae bd
       0.08278896 0.019042956 0.041451633 -0.08527051
000170 80 37 ef 3d 4b 4b 41 3e 59 da 8b 3d d6 cd 18 bc
       0.11680508 0.18876378 0.06828756 -0.009326419
000180 b8 db 17 bd bf 0d 1f 3e 7b 70 34 bc 58 f0 5a 3d
       -0.037074775 0.15532587 -0.011013146 0.053451866
000190 b0 75 37 3c f6 73 04 3d ff 57 b8 3d fb 3a 4f bb
       0.0111974925 0.03233715 0.09001159 -0.0031620848
0001a0 71 0a 88 bd 8a 64 c9 bc a6 9c dc 3d 8a a4 8f bd
       -0.066426165 -0.024584074 0.10772066 -0.07013805
0001b0 41 29 49 3c ff 1d 05 be cf 71 23 bc 51 af a6 3d
       0.012277902 -0.12999724 -0.009975865 0.08138908
0001c0 e7 d3 07 bd 22 a4 59 be 14 57 d0 bd d8 f4 7f 3d
       -0.03316107 -0.21254018 -0.10172859 0.06248936
0001d0 fa 30 67 3d e2 f7 9f 3d d4 50 24 3d 79 53 fd 3d
       0.056443192 0.07810952 0.040116146 0.12369437
0001e0 c6 a9 61 bd 2e 3a 0e be 89 0e e2 bc ce c1 57 3e
       -0.05509355 -0.13889381 -0.027594822 0.21070024
0001f0 47 79 b3 3c 05 23 a9 3d ef d8 1b 3d 92 b1 fb 3d
       0.021908415 0.082586326 0.03804868 0.12289728
000200 53 c0 bb bd 4a 65 f8 bd c8 3a 6a bd 65 6a 1b 3e
       -0.09167542 -0.12128694 -0.057184964 0.15177305
000210 be 69 fa bc 72 3c 07 be 57 b7 07 be 99 10 01 be
       -0.030568 -0.13206652 -0.13253532 -0.12603988
000220 98 27 39 3d 74 31 07 be 04 6a 0b bd df b0 c0 3d
       0.045203775 -0.13202459 -0.03403665 0.094087355
000230 09 01 0a 3e a5 83 aa bd 03 4c 13 be 03 25 86 bd
       0.13476957 -0.083258905 -0.14384465 -0.06550028
000240 8c 09 1b be a9 49 b6 3d ac ad 15 bc 0b 0e 2e 3d
       -0.1514036 0.08900768 -0.009135645 0.04249386
000250 fe eb ac 3c 8e 10 37 bd 4f 42 e9 3d 8f 7c 41 3d
       0.021108624 -0.044693522 0.113896005 0.04723793
000260 b0 0f 1a 3d 7c ea 0f be ac d9 8a 3d bc 6b 01 be
       0.037612617 -0.14054292 0.06779799 -0.12638754
000270 c4 99 c0 3d 47 45 e2 3d 41 13 3d 3d 42 d0 12 3e
       0.094043285 0.1104837 0.04616094 0.14337257
000280 3e 7d 41 3c 4c 8b 3a bc eb ea 9f 3d 42 e1 dd ba
       0.011809645 -0.01138575 0.07808479 -0.0016928094
000290 c8 c1 9d bc cc ff 07 3e 97 93 33 bc 2c a5 00 3e
       -0.019257441 0.13281173 -0.010960481 0.12563008
0002a0 7e ff fe 3d da 5c 2d bd 34 bb 67 3d 5f 8e 06 bd
       0.12451075 -0.04232488 0.056575015 -0.03285062
0002b0 4f 81 0d be 82 0a 00 be 34 25 a1 3d 9d 3f 1a 3d
       -0.13818859 -0.12504008 0.07868424 0.037658323
0002c0 87 54 5f bd 8b 16 dd bd c9 4f 23 3b 44 2f 28 3c
       -0.05452397 -0.10795315 0.0024919382 0.010265175
0002d0 d3 40 1a be 89 f6 1d be c7 c5 5f bd b4 12 a4 bd
       -0.15063791 -0.15426077 -0.054631975 -0.0801138
0002e0 3c df ca bc 88 5d 95 3d f3 0a b1 bc a6 b7 ad 3d
       -0.02476465 0.0729323 -0.021611666 0.08482294
0002f0 c5 ec 9b 3c 3b 37 6b bd c4 7d 34 bd d4 0a 56 3d
       0.019033799 -0.05742572 -0.044065252 0.05225642
000300 ab 63 dc bd ba 5e 11 bd db b9 88 3d 5c 4f 41 bd
       -0.10761198 -0.03549073 0.06676074 -0.047194824
000310 34 91 18 be 29 00 b0 bd 7f 48 1e 3e 42 36 62 bc
       -0.1489914 -0.085937805 0.15457343 -0.013806881
000320 99 59 f2 3d e5 a8 89 3c 32 5a f3 3d 7e 1d a9 bd
       0.11833496 0.016804168 0.11882438 -0.08257578
000330 0d 89 a3 3d a1 91 18 be 1a ce f2 bd eb b5 01 be
       0.07985125 -0.14899303 -0.11855717 -0.12667052
000340 b4 08 c4 3d aa 80 dd bd 07 c9 ed bb 5d 43 56 bd
       0.095719725 -0.10815556 -0.0072566303 -0.052310336
000350 03 31 33 bc e2 52 ea bd 8a e8 e0 3d 1c 94 ae bd
       -0.010936978 -0.1144159 0.10981853 -0.08524343
000360 b8 20 a7 bd 67 e9 a9 bd 32 9a 7a 3d e4 59 0b 3e
       -0.081605375 -0.08296471 0.06118221 0.1360851
000370 bb bc fb bc 4a 7c b3 bc b3 08 04 be 97 de bb 3d
       -0.030729642 -0.021909852 -0.12893943 0.09173315
000380 aa 30 c4 bc 6d 53 04 3e 95 2d 18 be 0a ba 73 ba
       -0.023948986 0.1292245 -0.14861138 -0.00092974363
000390 94 91 c4 bd 7b 0f 94 bc 3a fb 98 bd eb 85 a0 bc
       -0.09598079 -0.018073788 -0.07469793 -0.019595107
0003a0 ea 2b 3a ba 7b a3 98 3d 3f 04 5e bd 9c 63 c8 3d
       -0.00071018806 0.074530564 -0.05420327 0.09784624
0003b0 21 17 e1 bc 4f b8 53 bc 7e 07 3c 3d a3 41 43 3d
       -0.027476849 -0.012922361 0.045905583 0.047670018
0003c0 d8 d5 bf bd cd ea fc bd 48 41 b7 3c 4b a3 e6 3d
       -0.09366959 -0.12349472 0.022369996 0.112616144
0003d0 26 fa ca 3d 59 bc b3 3d d4 0f c1 3d 94 c4 92 bd
       0.09910993 0.08776159 0.09426847 -0.071664006
0003e0 24 61 1f 3d db 9d 9b 3d 7e 26 6c bd e8 9b 38 3d
       0.038911 0.07598468 -0.057653897 0.04507056
0003f0 4f ce 33 bd 49 71 04 3e 4f ac 0c 3e cc 10 12 be
       -0.043897923 0.1293384 0.13737606 -0.1426422

atom_encoder.atom_embedding_list.1.weight f4 [4, 128]
000000 db 57 55 3e b0 8e bf 3d 2b 36 fe 3c ef 6e 58 bd
       0.20834295 0.09353387 0.031031689 -0.05284017
000010 e7 a0 96 3d 25 15 52 3e 11 81 24 3e 2b 88 72 bd
       0.073549084 0.20515878 0.1606486 -0.05921189
000020 6b 33 58 be 3e 5d fe bd cb c5 3a bc 34 c8 b8 3d
       -0.21113364 -0.12420128 -0.011399697 0.09022561
000030 09 a1 09 be 83 55 d2 bd 56 07 2d be b2 ab 21 3e
       -0.13440336 -0.10270216 -0.1689733 0.15788153
000040 1d 9c 25 3e f8 90 94 3c 4a 28 84 3c 3f 4a 4e bd
       0.16172834 0.018135533 0.016132493 -0.050363775
000050 82 a4 5c be 0c aa 39 3e 08 ca 2a 3e a4 20 04 be
       -0.2154713 0.18131274 0.16678631 -0.12903076
000060 ef b9 89 bd 8a 79 23 3e 06 35 69 be 23 bc e3 bc
       -0.06724917 0.15964332 -0.22774133 -0.027799672
000070 16 55 27 3e f6 a5 dd bd 4a e2 c7 3d f1 a7 34 be
       0.16341051 -0.1082267 0.09759958 -0.1764219
000080 22 25 da bc bd 3d 19 be 9b 80 1d be 5d 29 0c 3c
       -0.026629034 -0.14964958 -0.1538109 0.008554784
000090 4c 44 28 be 30 18 26 be 00 94 c5 3d 44 70 32 be
       -0.16432303 -0.16220164 0.096473694 -0.17425638
0000a0 46 23 4b 3e 24 de 1e be bd c4 5f be cf 92 92 3c
       0.19837674 -0.15514427 -0.21852393 0.01789227
0000b0 de be 2c be 10 6e 8a bd c5 cd 99 3d 4b e8 75 be
       -0.16869685 -0.06759274 0.075099505 -0.24014394
0000c0 52 94 68 bd 77 2c 53 bd d3 ce 57 3e 53 0c 1a 3d
       -0.056782074 -0.051556077 0.21074991 0.03760941
0000d0 3d e5 10 3e d7 53 1e 3e 45 7c 3a be 60 5b 26 bd
       0.14149947 0.1546167 -0.18211468 -0.040614486
0000e0 07 d2 22 3e 5e 01 c4 3d f6 d1 1d 3e f6 16 1f 3e
       0.15900432 0.09570573 0.15412125 0.15536103
0000f0 c9 ea 0f be 99 78 31 3e f8 d7 5e be c7 69 94 bd
       -0.14054407 0.1733116 -0.21762073 -0.07246738
000100 60 a8 f7 bd 0e 89 36 be d0 0e 2b 3e 76 18 4e be
       -0.12092662 -0.1782572 0.1670487 -0.20126519
000110 82 e3 d4 bd a9 d5 74 3e 13 3c 9b 3d 0c 7d 1f be
       -0.10394956 0.2390963 0.075798176 -0.15575045
000120 af 6a 02 be e1 94 15 3d 54 30 1d be 85 be 1b bd
       -0.12736009 0.036518935 -0.15350467 -0.03802349
000130 5d 88 bd bd 61 e4 db bd 7d e6 2c 3d 88 6e 4a be
       -0.09254525 -0.10736919 0.042212 -0.19768727
000140 cc 04 3e be 17 7b 54 bd d7 d2 7a bd 9c a2 8d bd
       -0.18556517 -0.0518752 -0.06123623 -0.06915781
000150 36 f0 b5 3c 21 ed 7d 3d 9f 6c ff 3d 32 07 f5 bc
       0.022209268 0.061993722 0.1247189 -0.029910658
000160 84 50 9f bc 8e 11 5b 3d 93 7b 2b 3e 00 49 de 3d
       -0.019447573 0.05348354 0.16746359 0.108537674
000170 1a 1c 37 3e fa c3 d1 3d 51 2b 58 3d 52 3e dc bd
       0.17881814 0.10242458 0.052775685 -0.10754074
000180 4d b7 c0 bd 9a f8 da 3d a7 28 52 be 78 7f a2 3d
       -0.09409962 0.10691948 -0.2052332 0.07934469
000190 5d ff fc bd b7 aa 3c 3e ed a3 22 be b9 34 82 bc
       -0.12353394 0.18424498 -0.15882845 -0.01589428
0001a0 51 33 8d 3b d3 fd cc 3d 01 14 49 3d 0c eb ec bd
       0.004309096 0.10009351 0.049091343 -0.11568269
0001b0 75 9c 2c 3c 05 ea 25 3e 10 99 5d bd 9e be 13 be
       0.010535349 0.16202553 -0.05410105 -0.14428183
0001c0 2f 03 55 bd bc 0c 60 3e 8a 34 7f bd 64 92 2a 3e
       -0.05200499 0.21879858 -0.062305965 0.16657406
0001d0 cd d9 da 3d e3 f8 ea bd f0 7f 8e bd 10 1b 2d 3e
       0.106860735 -0.114732526 -0.06957996 0.16904855
0001e0 66 fe 49 ba ed eb 10 be c1 e6 4d be a0 8f 9a 3d
       -0.000770545 -0.14152499 -0.20107557 0.075469255
0001f0 4f fb 40 3e 9f 21 5f 3d 8d ca e7 bd d6 b4 1c 3e
       0.18845867 0.054475423 -0.1131793 0.15303358
000200 79 ff 66 3d f0 32 ad bd 59 3e 14 be c3 6e 52 3e
       0.05639598 -0.08456981 -0.14476909 0.20550065
000210 d0 9b 57 be 1a b7 5d be 1e 0c 49 3e 3b f2 0c bd
       -0.21055532 -0.21651879 0.19633529 -0.034410696
000220 61 b2 b1 3d 48 1a 56 3e 28 45 02 be 63 d2 96 3d
       0.08676601 0.20908463 -0.12721694 0.07364347
000230 22 39 1f be cb 5f 53 3d 5f e2 c7 3d e3 4c d8 3c
       -0.15549138 0.051605027 0.09759974 0.02640385
000240 13 62 db bd 7f c3 d1 bc d0 d5 f6 bd a9 7c 38 3e
       -0.107120655 -0.025605915 -0.120525 0.18016304
000250 90 5d c9 bd a8 b6 6a 3c 73 18 14 bd 07 b4 4f be
       -0.09832299 0.014325775 -0.03615613 -0.20283519
000260 8c f8 d3 bc 19 cd c5 bc 6c c7 c6 bd 2a 75 75 3d
       -0.025875352 -0.02414565 -0.097060055 0.05992619
000270 84 d9 13 3e 0a 26 3d be 47 05 bb 3d 93 f5 05 be
       0.14438444 -0.18471542 0.09131866 -0.1308196
000280 69 0b 3d 3d 7e ea f5 3d 3c 7b 70 be 63 ea 19 be
       0.04615346 0.120076165 -0.2348451 -0.15030818
000290 98 b4 fa bd e7 2f f5 3d ec b9 1a 3d d2 3c 9b bd
       -0.12241477 0.11972027 0.037774965 -0.0757996
0002a0 0d f2 3c be 7b 3b bf 3d b0 7d ba bd 8d 30 23 be
       -0.1845171 0.09337517 -0.09106004 -0.1593649
0002b0 77 dc cf 3d 9a 06 b1 bd d4 85 22 be 1a 85 11 3e
       0.10149472 -0.08643837 -0.15871364 0.1421093
0002c0 85 77 31 3d 9b 8f 51 bd db cd 69 bd 01 85 33 3e
       0.043326873 -0.051162343 -0.057081085 0.17531206
0002d0 f6 fb 7b bd 4c 77 15 be 18 27 b8 3c 78 20 53 be
       -0.061519586 -0.1459629 0.022479579 -0.20617855
0002e0 ff e5 21 bd b9 25 18 3e e3 de ad bd 67 52 06 be
       -0.039525982 0.1485814 -0.08489778 -0.13117371
0002f0 24 20 31 be f3 41 76 be e4 9f 4e 3e ff d4 d9 bd
       -0.17297417 -0.24048595 0.20178181 -0.10636329
000300 c5 52 c3 bd e2 0e 14 3e cc 99 1e 3e ae 0b 0e 3e
       -0.095372714 0.14458802 0.15488356 0.13871643
000310 3d 5f 41 be 62 9d 82 3d 50 c3 bd bd 35 13 29 3e
       -0.18883987 0.06377675 -0.092657685 0.16511233
000320 81 8f 2b 3e cc 28 8b 3e fb a8 96 be 5e 2d 28 3e
       0.16753961 0.27179563 -0.29425797 0.16423556
000330 9f 8a 99 bd 4f 90 bc 3d e8 10 cb bd fb b3 db 3a
       -0.07497143 0.09207212 -0.09915334 0.0016762012
000340 76 ab a7 3d f6 4f cd bc c0 47 bb bd 82 ee 45 be
       0.081870005 -0.025062542 -0.091445446 -0.19329265
000350 d8 39 cc 3c d1 ee b9 bd c6 8a 18 be e9 13 26 3e
       0.024929926 -0.09078754 -0.14896688 0.16218533
000360 c7 c1 08 3d 23 5f e3 bd 96 c7 b5 bc ea 32 ab bc
       0.033387925 -0.1110213 -0.022189897 -0.020898301
000370 35 54 0c be 21 3d c4 3c 0d f1 2e be ce 92 b0 3b
       -0.13703997 0.02395493 -0.17084141 0.005388594
000380 d6 92 73 bd 35 0a f6 3d c0 63 9a 3d 5d ad 6f 3e
       -0.059466206 0.120136656 0.07538557 0.23405977
000390 b1 84 72 be ef ab 50 bd 54 87 10 3e 64 04 60 3e
       -0.2368343 -0.05094522 0.14114124 0.21876675
0003a0 95 11 c7 bd 72 34 92 bd 81 cf c9 bd 7c d2 86 be
       -0.097201504 -0.071389094 -0.09854031 -0.26332462
0003b0 56 66 9b 3d 81 a3 9d 3a 39 10 8f 3d 5c 6d 5b be
       0.075878784 0.0012026877 0.06985516 -0.21428436
0003c0 45 02 96 bd 5e e0 44 be 11 99 bd 3d ca 38 e0 3d
       -0.07324652 -0.19226214 0.09257711 0.10948332
0003d0 3d c9 c8 bd 8d 2a e6 bc f4 57 47 be 07 38 20 bc
       -0.09804008 -0.028096462 -0.19467145 -0.009778983
0003e0 fd 4f 4a be 92 ab c0 bb 3a 9e eb bd 13 0f 00 3e
       -0.19757076 -0.005879828 -0.11504789 0.1250575
0003f0 76 20 d7 3d a7 b9 49 be 76 d9 03 3e 9e 75 16 be
       0.10504238 -0.19699727 0.12875924 -0.14693305

atom_encoder.atom_embedding_list.2.weight f4 [12, 128]
000000 69 21 3a be c8 87 ab 3d f7 b6 4f 3d 4a cf e3 3d
       -0.18176807 0.083755076 0.0507116 0.111235216
000010 f7 4d ee 3d cf 75 1e be d7 ed 85 be d2 31 da 3d
       0.11635964 -0.15474628 -0.2615802 0.10654034
000020 77 06 94 3d db 74 e8 3d 54 63 5e bc 92 f9 0f 3e
       0.072277956 0.113504134 -0.013573486 0.14060047
000030 9d 73 26 bd c4 a7 b5 3c 83 90 85 3d d9 56 a4 3d
       -0.0406376 0.022174723 0.06521704 0.080243774
000040 fc 29 df bd c9 8f a2 be e9 5a ec bc 9f cf f2 bc
       -0.1089668 -0.31750324 -0.028851943 -0.029640017
000050 a3 9e 89 3e a1 3e 77 bc 9a 00 09 3e 5c fb 20 3e
       0.26878843 -0.0150906155 0.13379136 0.15720886
000060 73 d0 b8 bd 6c 97 35 3e fd 4f 64 3e eb 6a c7 bd
       -0.090241335 0.17733544 0.22296138 -0.0973719
000070 d8 97 96 3d d5 ea ca 3d 29 5a a5 bc 58 24 23 bd
       0.07353181 0.09908072 -0.020184593 -0.039829582
000080 50 ed e7 bd d9 e0 ac bd 1a 87 dd 3d ea ec 37 be
       -0.11324561 -0.08441324 0.10816784 -0.1796147
000090 a7 ac 33 be 66 4b 42 bd d0 85 9b bd e6 00 c3 3d
       -0.1754633 -0.047435187 -0.07593882 0.09521656
0000a0 f5 cf 19 3c ec 68 10 bd ce b3 1a 3d 0b 9f 48 3e
       0.00938796 -0.03525631 0.03776913 0.1959192
0000b0 b2 2f 34 bd 50 8b 00 be e2 f9 84 be d7 aa 45 3d
       -0.0439908 -0.12553144 -0.25971895 0.04825863
0000c0 35 f5 b7 3d 60 eb 0c be 46 a0 db 3d 93 f7 d5 3d
       0.089823164 -0.13761663 0.10723929 0.10447612
0000d0 7a dc 32 bd 7b 06 91 bd d3 5f 49 be f9 d4 73 3d
       -0.043667294 -0.07081314 -0.1966546 0.05952928
0000e0 1b 99 09 be df 3a 77 3d f7 79 b0 3d cf 8b 24 3e
       -0.13437311 0.06035888 0.08617013 0.16068958
0000f0 5c 46 36 be a8 82 48 3d 89 01 06 be 79 28 80 3d
       -0.17800277 0.04895273 -0.13086523 0.062577195
000100 ce 36 2f 3e 5c c0 fd 3d 41 8e 2e 3e d1 6f a2 3d
       0.1711075 0.12390205 0.17046453 0.079314835
000110 35 e2 71 bc c8 42 e4 bd 0a 8f 6b bd 2e 4f 3e 3e
       -0.014763405 -0.1114555 -0.05750946 0.18584892
000120 4e 2c 0c 3d cf a9 10 3e 0a 52 6c be 9c 6b fd bd
       0.03422194 0.14127277 -0.2307817 -0.123740405
000130 1b f6 5e 3d 95 f0 f7 bd 00 51 43 be 55 95 47 be
       0.054433923 -0.12106434 -0.19073868 -0.1949056
000140 25 f0 c0 3c 21 81 6f be 85 d9 9b bc 73 c5 c9 bb
       0.02355201 -0.23389103 -0.01902462 -0.006157571
000150 e5 08 6a bd 64 fd c3 3d 2a d7 61 3b ac e9 ba 3d
       -0.05713739 0.09569815 0.0034460523 0.091266006
000160 39 37 5f bc 37 76 80 3d 76 78 fb 3d ae da c8 bd
       -0.013624006 0.06272548 0.122788355 -0.09807335
000170 c2 66 38 be d8 2e f0 3d f3 4d 93 bd 5f 6f 1a bc
       -0.18007949 0.11727685 -0.07192602 -0.009425967
000180 e0 be 39 3e bb 1d d0 bb ea e9 23 be 68 9f 56 3e
       0.1813922 -0.0063512004 -0.160072 0.20959246
000190 8b 08 1f 3d 43 77 9c 3d 4a b8 01 be 06 d7 21 3d
       0.038826507 0.07639935 -0.12667957 0.039511703
0001a0 83 39 3b 3e 34 c9 27 3e 8a 28 61 3d 83 c2 3e 3e
       0.18283658 0.16385347 0.0549703 0.18628888
0001b0 23 13 42 be 1a f2 41 bc c2 b3 52 be 31 08 cd 3c
       -0.18952613 -0.011837507 -0.20576385 0.02502832
0001c0 81 48 0f bc 91 e2 22 3e c8 47 c6 bd 64 6d 14 3a
       -0.008745314 0.1590674 -0.0968166 0.00056620524
0001d0 cc 93 c9 3c fa b0 d6 bd 92 02 2a 3e 87 22 31 3e
       0.024606608 -0.10482974 0.16602543 0.17298327
0001e0 70 fe 05 3e 19 9f 07 3c b2 da 9e bd b6 da f6 3b
       0.13085341 0.008277678 -0.077565566 0.0075333966
0001f0 64 c3 a1 3c c8 ac 5c be 21 cf 5d bd 4b 6a eb 3d
       0.01974649 -0.21550286 -0.05415261 0.11494883
000200 b6 c8 83 3d 6f 49 f9 3c 7a 6e 7d 3d 12 33 c8 3d
       0.06434767 0.030430524 0.061872937 0.09775366
000210 47 35 1d 3e aa 94 dd bd 7b 96 1d 3e 56 eb 0e bd
       0.15352355 -0.10819371 0.15389435 -0.034892403
000220 d1 bc 36 be ab 06 55 bd 2c 6d 9c 3d ae df 34 be
       -0.17845465 -0.052008312 0.076380104 -0.17663452
000230 db c6 e3 3d 1e 3a 28 3e b5 26 0b be 50 5a 3f 3e
       0.11121913 0.1642842 -0.13588984 0.18686795
000240 df 5f 17 3d 01 e3 4d 3e 08 3b 11 be 56 d9 85 3d
       0.036956664 0.20106126 -0.14182675 0.06535594
000250 c5 15 81 3d ee d4 1b 3e a9 44 e9 3c 22 1e f3 3d
       0.0630298 0.15217945 0.028475123 0.11870982
000260 63 58 90 3d 04 59 9d 3d 95 c9 27 3e 58 ab 38 be
       0.070481084 0.07682994 0.16385491 -0.18034112
000270 79 dc d1 39 20 b8 f0 bd 10 0f 62 bd 73 06 d5 3d
       0.0004002785 -0.11753869 -0.055190146 0.10401621
000280 00 77 22 3e e4 7f 07 3e 66 9a 25 3e d7 d0 d6 bd
       0.15865707 0.1323238 0.1617218 -0.10489052
000290 05 58 4f 3e a5 a8 7f 3d e2 bf 22 3d 76 34 0b 3e
       0.2024842 0.06241669 0.039733775 0.13594231
0002a0 6b 68 5b 3d 74 99 61 bd f5 63 3b be cd b9 16 be
       0.053566378 -0.055077985 -0.1829985 -0.14719315
0002b0 09 0b 30 be 4d cc 83 bd cf a4 24 be 59 e8 23 be
       -0.1719171 -0.06435452 -0.16078494 -0.16006602
0002c0 6f 1c ff 3d 24 b6 1b bd da 07 29 bd 56 79 f9 3d
       0.12456595 -0.0380155 -0.041267253 0.12181346
0002d0 75 80 3f 3e 16 cf 3f 3d 6e a7 74 3c 67 c8 4d be
       0.18701346 0.046828352 0.0149324965 -0.20095979
0002e0 fa 9e 12 3d 18 55 ce bd a9 8a 87 3d c5 84 02 be
       0.035796143 -0.10074824 0.06618244 -0.1274596
0002f0 d0 84 00 be 68 78 b9 bd 67 0b 53 bd fa 43 6e 3d
       -0.12550664 -0.09056169 -0.051524546 0.058170296
000300 13 5b a6 3c ce c3 9f bd 0b d7 2b 3d fd 14 45 3e
       0.0203071 -0.07801019 0.041953128 0.19246288
000310 06 25 6d bd d9 c1 7b 3d b0 bd 11 be 85 c1 3c 3e
       -0.057896636 0.061464164 -0.14232516 0.18433197
000320 89 71 8b 3d 24 3b 62 3d f3 94 03 bd e4 9c 4e bd
       0.068087645 0.055232182 -0.03212447 -0.05044259
000330 df 9a 2e 3d 7b 04 bf bb f7 c8 6d bc 50 d9 48 3e
       0.042628165 -0.0058293915 -0.014513246 0.19614148
000340 2c 6f 4b be 93 df 18 bd 37 4b 26 be cc 76 e0 bb
       -0.19866627 -0.037322592 -0.1623963 -0.006850099
000350 00 e2 db bc 44 7d 62 3d 8c 42 39 3e ec d8 ac 3d
       -0.026841164 0.055295244 0.18091792 0.08439812
000360 8a 48 03 be 03 08 01 3e 2f 44 ec bd 27 be ce 3d
       -0.1282064 0.12600712 -0.115364425 0.100948624
000370 0c 0e 9c 3d 49 8e 29 3e e6 fd 19 bd b4 43 be 3d
       0.07619867 0.16558184 -0.037595652 0.09290257
000380 d1 db ee bb 7b bc 9c bd b2 72 4d bd a6 65 3f be
       -0.0072893878 -0.07653137 -0.05015821 -0.1869112
000390 58 71 ef 3c 5e 9c 19 3e 5b f1 57 bd 8f 1f dc bd
       0.029228851 0.15001056 -0.05272041 -0.10748207
0003a0 e9 16 32 bb b8 49 1c 3e d6 c8 23 3e c8 45 9f 3c
       -0.00271743 0.15262496 0.15994582 0.019442454
0003b0 ce d4 29 3e 92 e2 3f be 0e 1c 7a 3d 87 9a 31 3e
       0.16585085 -0.18738773 0.06106191 0.17344104
0003c0 74 75 14 3e d8 ef cf 3d b8 9d 0b bd 06 aa 1b 3d
       0.1449793 0.101531684 -0.03408596 0.038003944
0003d0 35 f8 2c 3c e8 39 12 3e b3 4b 3b 3d cf ea bd 3a
       0.010557224 0.14279902 0.04572649 0.0014489534
0003e0 5d 15 5d 3d 29 90 e9 bd c4 7e a9 3d 2c c1 89 3d
       0.05397545 -0.114044495 0.08276132 0.06726298
0003f0 58 4d 07 3e 5e 0f 0d 3e c4 04 a4 bd af 2e ff 3c
       0.13213098 0.13775393 -0.080087215 0.03115019

atom_encoder.atom_embedding_list.3.weight f4 [12, 128]
000000 c9 15 1e 3e 50 5c 05 3e 7d 3a bb bc ef 38 7a 3d
       0.15437998 0.13023496 -0.022855038 0.061089452
000010 8d b5 be bc 6b 59 46 3e f3 12 80 3c c6 b1 c0 3d
       -0.02327993 0.19370048 0.015634036 0.094089076
000020 d9 57 d9 bb 00 84 c1 bd 25 a9 4e 3d a7 b4 04 3c
       -0.0066327867 -0.09449005 0.050454278 0.0080997115
000030 0d 8a 3a 3e 38 54 28 3e cf 24 b5 3d b5 c3 2f 3e
       0.18216725 0.16438377 0.08844911 0.171645
000040 d8 76 d1 bd bb 9e 98 3d 39 3c ed bc 3a b8 0f be
       -0.10227746 0.074521504 -0.02895938 -0.1403512
000050 6c 46 1c bd fc 1d 30 3b ac 1f 75 bd e5 2f 97 bd
       -0.038153097 0.002687334 -0.059844658 -0.07382182
000060 26 62 38 3e b2 7b 48 be b7 08 95 3d c9 27 2c 3e
       0.1800619 -0.19578436 0.07277053 0.16812052
000070 d8 46 1d 3d fc b3 c9 bd 4f 39 38 3e 46 81 0e 3e
       0.03839764 -0.098487824 0.17990611 0.13916501
000080 a7 d5 3f 3e f7 1a aa 3d 0e 73 2c be 2a a5 03 be
       0.18733846 0.083059244 -0.16840765 -0.12855974
000090 07 ba 3f be d6 de 52 3d bd b5 43 3d 45 09 44 bd
       -0.18723308 0.051482044 0.04778074 -0.047860403
0000a0 3f 79 ac 3d 5e bb 86 bd 1d 97 e3 3d d7 b8 44 3e
       0.08421563 -0.06578706 0.11112807 0.19211136
0000b0 67 87 ec 3d f4 07 f0 bd a8 36 ab 3d 44 59 18 3e
       0.115492634 -0.11720267 0.08360034 0.14877802
0000c0 83 fc 5a 3c e9 22 52 3e fe b7 09 be bf 47 ba 3d
       0.013365868 0.2052113 -0.13449094 0.09095716
0000d0 af e6 18 be ff ac f8 3d 1b f1 b9 3d f5 c9 0a 3e
       -0.14931749 0.121423714 0.0907919 0.13553603
0000e0 fe ca 85 3a ec 1e 98 3d 27 f3 14 3e eb 70 c1 3d
       0.0010207591 0.07427773 0.1454588 0.094453655
0000f0 14 b7 79 bd fb d3 24 be 16 e1 1b 3e 11 8d 41 be
       -0.060965613 -0.16096489 0.15222582 -0.18901469
000100 75 e4 dc 3d 1f f0 35 3e 0c 2a c9 3d d8 ce cd 3d
       0.10785762 0.1776738 0.09822473 0.10049218
000110 3d 36 10 3e 7c df 85 3d 85 03 af 3d 50 0a 06 be
       0.1408319 0.06536767 0.08545593 -0.13089871
000120 9b 09 00 be d9 06 16 be e1 80 f0 bd 4d d4 4e be
       -0.12503664 -0.1465105 -0.11743332 -0.20198174
000130 38 c8 9b bc 88 9e 43 be ba 5f c4 bd 12 a3 2b 3e
       -0.01901637 -0.19103444 -0.09588571 0.16761425
000140 f3 71 9a bd 75 ee de bd c2 ee fe bd 08 fd 5a 3c
       -0.07541265 -0.10885326 -0.12447883 0.013365991
000150 21 93 0b 3e 20 00 1e 3c 6b 61 49 3e c7 81 30 be
       0.13630344 0.0096435845 0.19666068 -0.17237006
000160 3a 4f df bd 14 58 01 3e 83 4b 07 3e 8b 9c 4e bd
       -0.10903783 0.12631255 0.13212399 -0.05044226
000170 c4 67 1a be 94 2f 14 3d 0c a1 81 3b 43 49 12 be
       -0.15078646 0.036178187 0.003955966 -0.1428576
000180 14 4b d2 3d 5b 7d 4c be c4 6c 1f 3d f1 b7 01 3e
       0.10268226 -0.19969694 0.038922086 0.12667824
000190 6d f8 f8 3d 05 be 03 be 62 cc 4d 3d ec 99 d1 bd
       0.121567585 -0.12865455 0.050243743 -0.102344364
0001a0 19 a3 31 be 19 16 42 be aa bd b5 3d cd 9a e1 bd
       -0.17347373 -0.18953742 0.08874066 -0.11015854
0001b0 c7 52 46 3e cc ba e1 3c be 75 b8 3d c3 3c 48 bd
       0.19367515 0.027554892 0.090068325 -0.048886072
0001c0 74 89 39 3d 76 83 2d 3e 32 33 69 3d eb 16 47 be
       0.0452971 0.1694468 0.05693359 -0.19442336
0001d0 23 3f 40 3e 71 7d 2f bd 17 e5 12 3e f7 20 3e 3e
       0.18774085 -0.04284424 0.14345203 0.18567263
0001e0 ce 74 05 be 17 74 19 3e e9 26 22 be b1 b2 5b 3d
       -0.13032839 0.14985691 -0.15835156 0.05363721
0001f0 09 3f 4c 3d c7 5e 4a bc 04 00 46 bd 3f be 26 be
       0.049864803 -0.012351698 -0.04833986 -0.1628351
000200 bb 95 45 3e 32 bb 14 3e b7 87 50 be 8a 75 24 3e
       0.19295399 0.14524534 -0.20364271 0.16060463
000210 cb a2 f5 3c ac a6 c2 3d 7a 24 8b bc db 7e 5f 3c
       0.029984852 0.095044464 -0.016985167 0.013641085
000220 e7 1e 03 3e 24 c9 27 bd b7 a0 cf 3b 10 4e 22 3d
       0.12804757 -0.040963307 0.0063362974 0.039625227
000230 3e 1c f7 3b 49 2a 94 bd 01 05 bc bd d1 b0 70 3c
       0.0075412085 -0.07234628 -0.09180642 0.014690594
000240 14 be 3f 3e 84 bb 0e 3e 02 e5 cb bd f9 d6 24 3e
       0.18724853 0.13938719 -0.09955789 0.1609763
000250 61 87 a1 3d 38 dc 53 3e 84 dd c4 bd d2 5e 39 be
       0.078871496 0.20689476 -0.09612563 -0.18102577
000260 08 d2 9a 3d 5a bc bd bd 41 75 d8 3d 98 a0 d7 bd
       0.075595915 -0.09264441 0.105692394 -0.10528678
000270 c6 9a 1e 3e 17 25 4a 3e 83 73 9c bd 1b 1c 34 be
       0.15488729 0.19740711 -0.076392196 -0.17588846
000280 8c ac 3e bc 8a 6c 24 be bc ad 51 3e 2e a5 c4 bd
       -0.011637818 -0.1605703 0.2047643 -0.09601818
000290 38 b6 02 3e 52 b6 26 be 45 0a 50 bd 10 9b 4d 3d
       0.12764823 -0.16280487 -0.050791044 0.050196707
0002a0 42 ab b1 3c 24 ad 0c bc db 39 0f be 98 06 9c bd
       0.021688107 -0.008586202 -0.13986914 -0.07618445
0002b0 87 c9 b9 3d 11 84 d3 bd df 8f 90 3c 53 2e ab 3d
       0.090716414 -0.10327924 0.017646728 0.08358445
0002c0 f7 04 23 bd 9f f0 4a 3e 89 7f 18 3e a4 5a 44 3e
       -0.039799657 0.19818352 0.14892401 0.19175202
0002d0 2b 7d 5e 3d 28 f1 68 3c dc 0c 11 bd e2 5a 8d 3d
       0.05431859 0.014217652 -0.035412654 0.069021
0002e0 86 71 e3 bb aa 12 a9 bd 15 64 14 be 9b ac 36 3d
       -0.0069410233 -0.08255513 -0.14491303 0.044598203
0002f0 23 32 b1 3d 0b 37 1f 3d 9f 0a 1b 3e 32 41 45 3d
       0.08652141 0.038870852 0.1514077 0.04815788
000300 d7 f4 08 3e 49 c4 00 bd 50 bd 30 bd a5 cf 1b be
       0.13374649 -0.031437192 -0.043149292 -0.15215929
000310 59 0f a4 3d 29 66 85 3d 63 8c 52 3e 29 7f 0f 3e
       0.0801074 0.06513626 0.20561366 0.14013352
000320 e2 a5 2e 3e ff be 0c 3e 99 65 1b be f0 27 02 3e
       0.17055467 0.13744734 -0.15175475 0.12710547
000330 87 7d 17 3e 69 e1 53 be 38 17 f6 3d f0 c7 9c 3d
       0.14793979 -0.20691456 0.120161474 0.076553226
000340 b3 21 d9 bd c6 7b 71 bd 10 be 34 3e 1e db 29 3e
       -0.10602131 -0.05895593 0.17650628 0.16587493
000350 3b b2 32 be cc dd 94 bd 0d e7 9b 3d 53 ea d8 3d
       -0.17450802 -0.07268867 0.07612429 0.10591569
000360 0c 92 32 be 88 99 c8 3d 84 1f 83 bd d3 db 07 bc
       -0.17438525 0.09794909 -0.064024955 -0.008292156
000370 48 e0 84 3c 16 7f 5a bd 4e dd fe bd b8 4a f9 3d
       0.016220227 -0.053343855 -0.12444554 0.121724546
000380 0f 46 49 3c c7 69 0b 3b b2 d8 55 3c d1 b3 41 3e
       0.01228477 0.0021272765 0.0130521525 0.18916251
000390 74 dc 71 bd 0f 71 30 3e 51 e3 51 be 9c 4c 9f bd
       -0.05904813 0.17230628 -0.2049687 -0.07778284
0003a0 f5 a7 4c 3e d8 b3 ce bd 25 e3 8b 3d 5f 68 cb 3d
       0.19985946 -0.10092896 0.06830434 0.099320166
0003b0 02 6a 42 be 7c ff 23 3e c9 84 7b bd 02 19 de bd
       -0.18985751 0.16015428 -0.06140593 -0.108446136
0003c0 72 2e 83 bd 46 6f 20 3e 96 b6 cb 3d f2 b0 07 3e
       -0.06405343 0.15667447 0.09946935 0.13251093
0003d0 a4 dd f5 bc b9 92 13 3e 1c 3b 5f bd 40 ea 6d bd
       -0.030012913 0.14411439 -0.05449973 -0.058084726
0003e0 68 ed 4c be cf e2 09 3e 77 98 42 bd 4f b1 26 be
       -0.20012438 0.13465427 -0.047508683 -0.16278575
0003f0 d1 a6 4e 3d 36 28 cc bd 23 bb ad 3d ac 61 ee 3c
       0.050452057 -0.09968607 0.08482959 0.029099308

atom_encoder.atom_embedding_list.4.weight f4 [10, 128]
000000 e0 c6 51 bc 3e 11 24 be 3f 2c e6 bd 21 af 1c 3d
       -0.012803763 -0.16022202 -0.11238908 0.038252953
000010 d1 e6 3f 3e 56 c8 10 be b6 a4 a5 bb e1 bf 42 3e
       0.18740393 -0.14138922 -0.0050550355 0.19018508
000020 d6 fb b1 3d 1f b1 00 3e 96 ef 14 bd 15 2e 13 be
       0.08690612 0.12567566 -0.0363613 -0.14373048
000030 e5 37 69 bd 71 07 45 3e 3e ce 35 3e 65 bc eb bc
       -0.05693807 0.1924112 0.17754456 -0.028776357
000040 cc 7d ed bd 11 99 d7 bc 88 83 1b 3e a0 44 51 bd
       -0.115962595 -0.026318105 0.15186894 -0.051090837
000050 ab 9d 3a be 84 be f7 3d 87 3d 76 3d f6 89 e3 bd
       -0.18224208 0.12096885 0.06011727 -0.11110298
000060 1e 8c c4 bd e9 82 52 be 9e 99 09 3e 45 ff 01 be
       -0.09597038 -0.20557751 0.13437507 -0.12695034
000070 8a 72 ec bd 25 8e 57 bd 51 b1 54 3b 31 c8 89 bd
       -0.11545284 -0.052625794 0.0032454322 -0.067276366
000080 7e e3 a8 bd d9 c5 80 bd 13 ac 15 ba 92 1a 6f bd
       -0.08246516 -0.062877364 -0.000570954 -0.05837495
000090 89 2c cf bd 53 9c 8b 3d dd 3e 30 3d 04 27 14 be
       -0.10115916 0.06816926 0.0430287 -0.14468008
0000a0 6f 7a 0f 3e e9 94 f0 3b ac 69 2d bd 23 ef 2d be
       0.14011548 0.00734197 -0.042337105 -0.16985755
0000b0 c0 43 8d bd 61 cb 08 3e 8c e0 99 3d 80 b9 e2 bc
       -0.06897688 0.13358833 0.07513532 -0.027676344
0000c0 6f c2 5b bd 78 b4 c4 3d 5f 8d d4 3d ed 9b 4d 3d
       -0.053652223 0.09604734 0.10378527 0.05019753
0000d0 0a 7f c9 3c 1f b2 e1 bd 16 07 a6 bd e1 9a 2f be
       0.02459671 -0.11020302 -0.0810682 -0.17148925
0000e0 89 60 0c be 02 cc a5 3a 06 ee e7 bd c4 e0 d2 3d
       -0.137087 0.00126493 -0.11324696 0.10296777
0000f0 90 e2 10 3e 97 63 5e bd b6 82 f4 bd 08 0d ce 3d
       0.14148927 -0.054294195 -0.11938994 0.10061079
000100 14 b1 20 3e 6f 82 00 be e7 0d 11 3e 22 d9 66 bd
       0.1569255 -0.12549756 0.1416546 -0.056359418
000110 57 01 4d 3e e6 a3 3b be f9 fe 4e 3e 79 78 ba 3d
       0.20020042 -0.18324241 0.20214452 0.091050096
000120 f4 4f 1c 3e 5e 60 9c bd 4c 38 1e 3e 53 de 98 bd
       0.15264875 -0.07635568 0.15451163 -0.0746428
000130 bf fb 15 be 58 c5 28 be 0d 00 1e bd 50 e0 da bc
       -0.14646815 -0.1648153 -0.038574267 -0.026718289
000140 18 24 c2 3c 4f e4 ef 3c d3 0b 16 be 26 d9 46 3d
       0.023698851 0.02928367 -0.14652948 0.048546933
000150 1b 5b 56 bd 10 ba 0c be 14 32 42 3e d5 d6 5d 3c
       -0.05233298 -0.13742852 0.18964416 0.0135399895
000160 bd ee 2e 3d 76 ba 1e be 8a a2 1e 3e 4b 6b 0b 3e
       0.042708147 -0.15500817 0.15491691 0.13615148
000170 ab a4 08 be 1c b5 80 bd ab 12 ec bd d8 43 b6 bd
       -0.13344066 -0.06284544 -0.11526998 -0.08899659
000180 97 73 37 3e ea 47 34 bd c8 78 0e bc 7d 06 ec 3c
       0.17915188 -0.044013895 -0.008695789 0.028811688
000190 07 a4 32 3e e1 bf 38 be 66 25 8a bc ab f1 4c 3e
       0.17445384 -0.18041946 -0.016863536 0.20014064
0001a0 ad 73 20 3d cf 99 39 3e 93 2e 9a bc 15 55 28 be
       0.039172817 0.1812508 -0.018821036 -0.16438706
0001b0 ba 10 d7 bd d2 4c df bd e8 d4 0e be 62 a6 3b be
       -0.10501237 -0.10903324 -0.13948405 -0.18325189
0001c0 a4 0c 07 be ea e3 4d be 07 90 b2 3d a1 59 e3 bd
       -0.13188416 -0.20106474 0.08718877 -0.1110108
0001d0 47 b3 57 bc 15 3e 5c 3c 4f b8 a8 bd c6 23 e7 bc
       -0.013165302 0.013442536 -0.08238279 -0.0282153
0001e0 f8 ea 45 be d3 72 4d 3d cf 91 ff bd 5e 4f 3b bd
       -0.19327915 0.050158333 -0.12478983 -0.045729987
0001f0 46 40 ba bc c1 f0 54 3e 12 9d 47 3e 06 27 c1 bd
       -0.022735726 0.20794965 0.19493511 -0.09431271
000200 9d fd 7e be f2 5c 34 3c 71 b0 ec bd 1f 9f 03 3e
       -0.24901433 0.011008488 -0.11557091 0.12853669
000210 0c 4b 24 3e ad 7b a4 3c 4c e5 63 be 04 35 8a 3d
       0.16044253 0.020078504 -0.22255439 0.06748393
000220 0e ba de bd 65 2b 46 3e d8 72 12 3e c9 fc ff bd
       -0.10875331 0.19352491 0.14301622 -0.12499387
000230 e5 d7 5b bd 6e 66 58 bd c8 18 3c be f2 34 db bc
       -0.05367269 -0.05283206 -0.18368828 -0.026758645
000240 13 24 54 3d 6c 46 d4 bd a8 62 7e bd a1 13 80 bc
       0.051792216 -0.103649944 -0.062105805 -0.01563436
000250 a9 0b c1 bc 55 85 47 3d 6f fb 35 be 22 c9 2a 3e
       -0.02356513 0.04871114 -0.17771696 0.16678289
000260 7e 79 1d 3d c0 d4 43 3e 08 53 1f bd 7d 4d df 3d
       0.038445942 0.19124126 -0.038897544 0.109034516
000270 bb 4c e7 3d c7 22 82 3d 4c 7e 4a 3e 65 3a 29 3e
       0.11293932 0.063542895 0.19774741 0.16526182
000280 29 65 7f 3d 76 32 27 3d 0c 0e 29 bd 7e 54 a8 bd
       0.062352333 0.040819608 -0.04127316 -0.082192406
000290 61 01 35 bc d6 7e 43 3e 3c 0b 1d be 53 37 bb 3d
       -0.011047692 0.19091353 -0.15336317 0.09141412
0002a0 6a eb 1b bd 2a 0e e9 bd c4 d9 0d 3d 6d 5a 31 3d
       -0.038066305 -0.11379655 0.034631506 0.043299127
0002b0 9a c5 26 3e 2a 93 80 bd d5 02 bf bd 3b 0b 01 be
       0.16286317 -0.06278069 -0.09326712 -0.1260194
0002c0 11 2b ce bd 9d a7 ce bd 67 d3 00 3e e0 96 28 bd
       -0.10066808 -0.100905634 0.12580644 -0.04115951
0002d0 e4 94 0b 3e fc 58 31 bc 7f bb 4b 3a cb f6 5c be
       0.13631016 -0.010824438 0.00077717745 -0.21578519
0002e0 d7 8e 04 3e 0f 44 6d 3e 63 df 1d be d6 aa 92 3c
       0.12945114 0.23170494 -0.15417247 0.017903727
0002f0 97 74 7a be 6c 62 90 be 60 15 2b 3e a9 2f aa bd
       -0.24458538 -0.2820009 0.16707373 -0.08309872
000300 c8 f1 a9 bc 63 b2 7b 3e 41 78 14 3e 51 2f 3e 3e
       -0.020745173 0.24579768 0.14498998 0.18572737
000310 2c 93 cd 3d 2d f0 d6 bd 7a ed f4 bc 65 c6 d4 3c
       0.100378364 -0.10495029 -0.029898394 0.025973508
000320 7e 71 c8 3d 56 9a fa bd 02 f4 9f bd 69 d0 1f be
       0.09787272 -0.122364685 -0.07810213 -0.15606846
000330 f6 ce 49 bd 76 81 d0 bd 6e 88 a3 3d 5e c7 da bd
       -0.04926964 -0.10180943 0.07985006 -0.106825575
000340 61 14 4d 3e 7a 3b 2f be bf ed 65 be 71 39 2d be
       0.20027305 -0.17112532 -0.22453974 -0.16916443
000350 ca 13 92 3d 02 da 62 be b0 3b 39 be ae ea 6c be
       0.07132681 -0.22153476 -0.18089175 -0.23136398
000360 df dc 54 3e 59 79 ba bd f9 23 3c be 6f 25 ad bd
       0.2078738 -0.091051765 -0.18373097 -0.084544055
000370 63 a3 a2 bc 83 3a 1d 3e af 53 d0 3d 73 6b 45 be
       -0.0198533 0.15354352 0.101722114 -0.1927927
000380 d6 cd 9c bd 7b c7 68 bc 27 13 4a 3e a8 f6 33 bd
       -0.076564476 -0.014207716 0.19733869 -0.0439364
000390 01 8b bb 3d 40 f1 08 be cc 0c 1b be 85 1d 4a 3c
       0.09157372 -0.1337328 -0.151416 0.01233614
0003a0 9b 51 5f 3d 9e 3e 3e be 89 7a 14 be b7 05 0b 3e
       0.054521184 -0.18578574 -0.14499868 0.13576399
0003b0 63 a3 00 be 56 8a 5c 3e e8 0b 26 3e 4b 0c 2a be
       -0.12562327 0.21537146 0.1621548 -0.16606252
0003c0 4d f7 10 be b3 b5 ed 3d db 39 c9 bd 55 8f 66 bd
       -0.14156838 0.11606922 -0.09825488 -0.056289036
0003d0 fe 00 8c bd 1b 8f b9 3d 3d 56 18 bd 78 02 2b be
       -0.06836127 0.09060498 -0.03719162 -0.1670016
0003e0 2d f9 f7 bd ab 8c 6b be 9a 3d 6d 3e 05 c4 d6 bd
       -0.121080734 -0.2300288 0.2316803 -0.104866065
0003f0 50 da f9 bd 31 5a 00 3e 96 cc b7 3b 80 22 9f 3b
       -0.12199843 0.12534405 0.0056091053 0.0048564076

atom_encoder.atom_embedding_list.5.weight f4 [6, 128]
000000 eb b0 d5 bd 02 81 04 be 22 17 32 bd 8a 9e e2 3d
       -0.10434135 -0.12939838 -0.043479092 0.11065395
000010 1f bb 0c be 1d e9 25 3d 01 bb fe 3d cb f0 d8 3d
       -0.13743256 0.040505517 0.12438012 0.105928026
000020 7a 6d bd 3d c6 c7 54 3c 14 e5 3e 3b 5d 36 cf bd
       0.092493966 0.012987083 0.002912824 -0.10117791
000030 ff e2 10 be 30 d5 3a 3c e1 97 47 3e c9 fb 14 3d
       -0.14149092 0.011403367 0.19491531 0.036372934
000040 d6 a2 4c be fe bb 01 be 38 6d 4d 3e 4c e9 22 3e
       -0.19983992 -0.1266937 0.20061195 0.15909308
000050 73 f8 4c be 07 19 8c bd 9c 31 ee 3c b8 a5 19 3e
       -0.20016651 -0.06840711 0.02907639 0.15004623
000060 68 a5 ee 3c 53 b0 2e be 54 d1 be 3d ea e1 de bd
       0.029131606 -0.1705945 0.0931727 -0.108829334
000070 d9 01 38 3e f4 c8 0a 3e 6d 18 22 be 36 09 55 3c
       0.17969455 0.1355322 -0.1582963 0.013002684
000080 50 fe 0d be ca f4 71 3d 3a ba 43 bc 78 35 61 bd
       -0.13866544 0.05907134 -0.011946255 -0.054982632
000090 2e 2b 03 3e 31 87 e5 3c e1 79 0b 3e cb f5 23 3e
       0.1280944 0.028018566 0.13620712 0.16011731
0000a0 5a be 22 be c5 b0 00 3e d8 f4 60 3d 5d d8 e1 3d
       -0.15892926 0.12567432 0.054921 0.11027596
0000b0 fc ef 0b 3e ad 28 25 3e f5 88 4b be 0e 98 57 3e
       0.13665766 0.16128798 -0.19876464 0.21054098
0000c0 a7 ce b7 3c 52 c0 04 3e 9a b4 49 be a7 1c 3b 3d
       0.022437407 0.1296399 -0.196978 0.045681622
0000d0 70 b2 8e 3d 9b 0f 32 be 06 49 02 3e 63 cc 4d be
       0.06967628 -0.17388766 0.12723169 -0.20097499
0000e0 d6 d0 b9 3d e0 c2 c0 bd 74 49 1d be 65 c7 8a bd
       0.090730354 -0.094121695 -0.15360051 -0.06776313
0000f0 f0 37 39 3e aa ad 99 bd dc 68 45 3e b6 dd 50 3d
       0.18087745 -0.07503827 0.19278282 0.05099269
000100 db 8f 7c bd a7 a9 d6 3d ba e6 22 be 47 af 88 bc
       -0.06166063 0.10481577 -0.15908328 -0.016685141
000110 77 01 1d be 3c 9e 55 3e 9d a3 d5 3d 76 83 ed bd
       -0.1533259 0.20861143 0.104315974 -0.1159734
000120 4d 64 87 3c 04 d2 f1 3d 17 51 20 be 3f 9a c4 bb
       0.01652732 0.118076354 -0.15655933 -0.005999833
000130 e8 9d 2f be 38 4f 62 3d 61 d3 0a be bd 8f 7a 3c
       -0.1715008 0.05525133 -0.13557197 0.015293059
000140 24 e5 44 be 7b a8 57 3e 3f 42 cc bd 6c 85 21 3e
       -0.19228035 0.21060364 -0.09973573 0.15773553
000150 ff 66 11 be ff 8a 55 be f5 29 9f bd 76 fd 33 be
       -0.14199446 -0.20853804 -0.077716745 -0.17577156
000160 52 bc 0b 3c 4a e0 51 3c 5b e3 64 bd 51 38 2d 3e
       0.008528786 0.012809822 -0.055880886 0.16916014
000170 1c fc 07 be ad 5f 17 be e1 f6 d6 3c 44 a7 1a 3e
       -0.13279766 -0.14782591 0.026240768 0.1510287
000180 a6 69 8e 3d 78 70 09 3e 70 e4 07 3e 8b 7e 8c bd
       0.069537446 0.1342181 0.13270736 -0.06860074
000190 50 12 6c bd dc 37 18 3e 48 a2 50 3e 05 d5 4f be
       -0.05763465 0.14865059 0.20374405 -0.20296104
0001a0 0e c7 2a 3b ac a5 c0 3d 8b 2b 2a be cb aa 34 be
       0.0026058587 0.094065994 -0.16618173 -0.17643277
0001b0 c7 2b e5 bc 24 5f 58 3e 3a 4c 05 be 2f 82 20 bd
       -0.027974976 0.21130043 -0.1301736 -0.039186653
0001c0 8c 7c 02 3e 31 78 45 be 11 f0 3b bd f1 d1 0f bd
       0.12742823 -0.1928413 -0.045883242 -0.035112325
0001d0 03 74 37 3e bc 34 23 be 04 4a 9c 3d ed 6b 1a 3e
       0.17915349 -0.15938085 0.07631305 0.15080233
0001e0 b2 5b df bd 1e 99 bf 3d 48 04 97 bd eb e7 c3 bd
       -0.10906161 0.09355377 -0.073738635 -0.09565719
0001f0 33 64 d0 3c dc e3 e9 3c 1a f2 7f bd 26 eb 15 be
       0.025438404 0.028551035 -0.062486745 -0.14640483
000200 fa 4f 0a 3d 05 71 3d 3d 6b 7b b0 bd e7 c6 60 3e
       0.033767678 0.046250362 -0.0861729 0.21950875
000210 e3 bf 0b be b9 92 96 bd 43 76 15 be 73 34 d1 3d
       -0.13647418 -0.07352204 -0.14595895 0.10215082
000220 96 90 61 3e 29 84 95 be f4 28 23 be c7 1c 85 be
       0.22027811 -0.29202393 -0.15933591 -0.25998518
000230 7c 6b d7 3d 6e 9a 7c be 5c 97 cd bd db 1b 6c be
       0.10518548 -0.24668285 -0.10038635 -0.23057501
000240 f9 2d 63 bd dd 96 52 3d c1 7a 91 3e a4 83 24 bc
       -0.055463765 0.051413406 0.28413966 -0.010041151
000250 de bb 5f 3d 32 1a aa bd cf ed 0f be 5f 2e 95 3d
       0.054622523 -0.083057776 -0.1405556 0.07284235
000260 fc 76 ae 3c b7 2f ad bc 59 b9 3f 3e 3a 1e 10 3e
       0.02129697 -0.021140916 0.18723048 0.1407403
000270 f0 03 4c 3e 0a b7 f2 3d e0 2c 85 bd c5 ba 39 3c
       0.19923377 0.11851318 -0.065027 0.011336033
000280 cb 07 2f 3e d5 29 c6 3d c8 47 a6 bd 98 00 55 3d
       0.17092817 0.096759476 -0.0811916 0.05200252
000290 1b c5 f5 bd 39 de 9b bd 4d 55 fb 3c eb 5d 16 3e
       -0.120004855 -0.07610745 0.030680323 0.14684264
0002a0 96 08 3a bd 5e 12 84 be 1b f4 93 be 9a 00 08 bd
       -0.045418344 -0.25795263 -0.28897175 -0.0332037
0002b0 d6 3c ee bc 9a 98 8a bc 19 c0 80 3c 3c 39 c1 3b
       -0.029081743 -0.01691847 0.0157166 0.0058967154
0002c0 dc b3 2e 3e f9 4d 22 3e 07 50 b6 bd 69 8a 4e bd
       0.17060798 0.15850057 -0.08901983 -0.050424967
0002d0 94 35 5b be ac 53 b5 be a5 ea 3a 3e 81 71 f5 3c
       -0.21407157 -0.354154 0.18253572 0.02996135
0002e0 66 29 c7 bc 7a 77 b3 bc 5a dd 19 bc f1 30 fe bd
       -0.024311733 -0.021907557 -0.009391153 -0.124116786
0002f0 0c 55 e2 3d 09 09 84 3e c8 3c 8d bd 9e a2 ce bc
       0.11051378 0.25788143 -0.06896359 -0.025224026
000300 71 18 1d 3e 55 e7 2b 3e 2e 54 56 be e3 c9 58 3d
       0.15341355 0.16787465 -0.2093055 0.05292691
000310 9c af 59 3e 57 db 0b 3d eb 1e 31 be 9f ba a3 bd
       0.21258396 0.034144726 -0.1729695 -0.079945795
000320 a8 83 91 be ea 1b 29 3e d4 e9 ba 3d a9 7d 32 3e
       -0.28420758 0.16514555 0.091266304 0.17430748
000330 5f 87 55 be 3b af 63 3e 26 1a 49 bd 44 b1 d7 3c
       -0.20852421 0.22234814 -0.049097203 0.026329644
000340 7d d9 08 3e 55 34 47 3d fb 6c 8e be 9a 24 23 bc
       0.13364215 0.048633892 -0.2781752 -0.009957457
000350 1e 10 60 be 41 a8 91 3e 8a cc cc bd ae cb 75 3e
       -0.21881148 0.2844868 -0.0999995 0.24003479
000360 bb f5 60 be 79 c1 1b bd e0 20 b1 bc ef e5 50 3d
       -0.21968739 -0.038026307 -0.021622121 0.05100053
000370 8d ab 3d 3d 33 e9 3c be e7 36 d8 bc d5 45 21 3e
       0.04630618 -0.18448333 -0.026393367 0.15749295
000380 df 52 9d be 93 6d fe bc 37 8e 53 3d e7 4e d4 3d
       -0.30727288 -0.031058108 0.0516493 0.10366612
000390 01 06 8d 3d 63 ca 2b 3e 08 8f 25 3c c8 43 19 be
       0.06885911 0.16776423 0.010104902 -0.14967263
0003a0 70 eb 88 bc 72 70 21 bd af 02 8c bd bd ea 8e bd
       -0.016713828 -0.039413877 -0.06836449 -0.069783665
0003b0 0c f4 e3 bd ba ed 8c 3c 53 7c ce bd 98 8b 8b 3d
       -0.111305326 0.0172032 -0.10082307 0.06813735
0003c0 8f ed 4d 3e 05 15 1d be 71 86 83 be d3 81 4f be
       0.20110153 -0.1534005 -0.25688508 -0.20264368
0003d0 36 0b 3a bd 91 1b bf ba 72 8d 25 bc 27 55 7f be
       -0.045420848 -0.0014580359 -0.010104524 -0.24934827
0003e0 6e cc 99 3e bf 44 0e bd 18 85 14 be fc 79 3a be
       0.3003878 -0.03473353 -0.14503896 -0.18210596
0003f0 10 32 ef 3c e5 2f a4 3d 48 bc 3e be 4b 0d f0 3c
       0.029198676 0.08016948 -0.18626511 0.029303214

atom_encoder.atom_embedding_list.6.weight f4 [6, 128]
000000 33 40 56 3d 21 41 93 bd 44 43 70 3d 9b 1e 50 bd
       0.05230732 -0.07190157 0.0586579 -0.050810438
000010 ae ba bd bc 15 df 38 be c9 49 75 3d 90 69 d7 bd
       -0.023160305 -0.18053849 0.05988482 -0.10518181
000020 f1 f6 de b9 94 4f 51 be f0 bd 4d 3d 5e 6a 90 bd
       -0.00042527125 -0.20440513 0.050229967 -0.07051538
000030 7b cc cb 3d b2 5f 3d 3e 0b 3b 29 3e 20 03 0c 3e
       0.09951111 0.18493536 0.1652643 0.13673067
000040 f9 f7 04 3e 54 5a 0f be 10 95 a6 bd 9d a6 bc 3c
       0.12985219 -0.13999301 -0.081339 0.023028666
000050 cd 79 9c bb 8b 72 2f bc ee 91 f2 3d 9d 97 54 3e
       -0.004775262 -0.0107084615 0.1184424 0.20760961
000060 82 f7 5d 3c 86 22 60 be 14 bf bf 3d 00 49 2c 3e
       0.01354778 -0.2188817 0.09362617 0.16824722
000070 21 33 3a be dc 3b d2 bd ee 3d 79 be 17 3c be 3d
       -0.18183567 -0.102653235 -0.2434003 0.09288805
000080 8a 10 87 3d 08 7a 25 3e b8 b0 3f 3e b4 87 2e 3d
       0.065949515 0.16159832 0.18719757 0.042609885
000090 45 7e 4e 3d 83 9d 31 bd 4f 22 06 bc 68 88 0a 3e
       0.05041339 -0.043363106 -0.008186891 0.13528597
0000a0 4d 8d 2d 3e b4 1b 02 3e e7 0a 8d bd f7 9b 2c be
       0.16948433 0.1270588 -0.06886845 -0.16856371
0000b0 36 e8 0e be a4 51 55 3d a8 fe c6 bc b2 15 09 3e
       -0.13955769 0.05207981 -0.024291351 0.13387182
0000c0 20 47 46 be b1 ac 19 be 33 5d 84 be 82 1d 4b be
       -0.1936307 -0.15007283 -0.25852355 -0.19835475
0000d0 0b 77 23 3d e3 45 bc 3d 49 9c 06 bd 5e 2f 58 3e
       0.03990845 0.09193017 -0.03286389 0.21111819
0000e0 d6 40 63 3d c7 01 31 be 82 a1 fc bd 52 fd 51 3e
       0.055481754 -0.17285834 -0.12335493 0.2050679
0000f0 3c b4 b7 bd a2 0a 22 3e 1f 7d 01 bd 8c f9 d9 3d
       -0.08969924 0.15824369 -0.031613465 0.106433004
000100 ec a1 45 3d 47 ad 9b bd 21 73 a2 bc e2 3e ab bd
       0.048250124 -0.076014094 -0.019830288 -0.08361603
000110 e8 17 ec bd 28 d7 4d bc ad 67 e1 bb 62 8b 1e 3e
       -0.11527997 -0.012563504 -0.006878814 0.15482858
000120 e3 85 42 be 49 fa e2 3b 03 cd f1 bc f6 56 66 3d
       -0.18996386 0.006926809 -0.029516703 0.056235276
000130 08 ef 68 bd c3 46 35 3e c4 ed de bd 98 68 a9 3d
       -0.056868583 0.17702775 -0.10885194 0.08271903
000140 ff 96 a6 bd 46 8b 81 bd 55 fd 0c be c9 ef d5 bd
       -0.08134269 -0.063253924 -0.13768514 -0.10446126
000150 d9 13 44 3e bc e9 f2 bc d2 99 6b 3e 49 f0 93 bd
       0.19148196 -0.029652469 0.23007897 -0.07223565
000160 be 16 8a 3c 1b f7 87 bd 05 33 b3 bd c6 d5 70 3d
       0.016856547 -0.066389285 -0.087499656 0.05879762
000170 9a 94 43 3e 62 f9 0e 3c dc c2 05 3d 38 ea b7 3d
       0.19099656 0.00872645 0.032656536 0.089802206
000180 be d1 58 be fd 79 c7 3d 03 8a 24 bd 31 95 36 3d
       -0.2117376 0.09740064 -0.04017068 0.044575874
000190 a7 4f 8a bd 1a d3 8f 3d c7 ce 81 bc 56 a5 27 3e
       -0.06753474 0.07022686 -0.01584567 0.16371664
0001a0 d3 ec c5 bc 05 4a 4a be f1 c2 20 be b3 ad df 3d
       -0.024160778 -0.19754799 -0.15699364 0.10921802
0001b0 eb b7 74 3b dc bc 19 3e 68 1f d7 3d fc 69 8c bd
       0.003734107 0.1501345 0.10504037 -0.068561524
0001c0 50 01 dc 3c b1 e2 81 bd 4c 2a a2 3c f3 26 ef 3c
       0.026856095 -0.06342066 0.01979556 0.029193377
0001d0 25 89 7d bd 92 8c 31 3c 27 26 45 be 3b 95 69 3e
       -0.06189837 0.010836737 -0.19252835 0.22810833
0001e0 ef 9c e0 bc 47 79 2d be 69 94 7d 3c 50 8d 25 3e
       -0.027418582 -0.16940795 0.015477278 0.16167188
0001f0 cf 8c e1 3c f2 df 48 3c 4e ba 1b 3e df e7 30 3e
       0.027532963 0.012260424 0.15207788 0.17275952
000200 a1 0e 51 3e 55 1b a6 bd 54 e6 87 3d 4f b7 80 3d
       0.20415737 -0.08110682 0.066357285 0.06284963
000210 a9 a5 22 be 90 a7 b2 3d e4 75 59 be 51 c1 ad 3d
       -0.15883507 0.08723366 -0.21236378 0.08484138
000220 2c 4f 43 be 63 3a 38 be da 71 2c 3d d5 aa 3a be
       -0.1907317 -0.17991023 0.042100765 -0.1822923
000230 29 0c 12 3d 86 ba a9 bc cd 4e 98 bc 18 c8 d1 3c
       0.035656128 -0.020718824 -0.018592263 0.025608107
000240 18 a0 2f bd a0 27 e8 bd bc 04 1a be 6c 09 c1 3d
       -0.042877287 -0.11335683 -0.15040869 0.09425625
000250 ea 80 44 3e 83 a7 c5 3d 3c 03 3a 3d af c9 4a be
       0.19189802 0.09651091 0.04541324 -0.19803499
000260 d2 f2 ff bc 6f 7c 0a bd e1 fe 24 be b7 a8 fe bd
       -0.031243715 -0.033810075 -0.16112854 -0.124345236
000270 65 5d 3e bd 1f c6 4b be f1 14 26 be 1d a0 35 bd
       -0.046475787 -0.19899796 -0.16218926 -0.04434215
000280 c8 a9 1c 3e c9 94 3c 3e c2 d4 a0 3c 7b 5b 5a be
       0.15299141 0.18416132 0.0196327 -0.2132396
000290 ea 56 0b 3c ac 4b 15 bd 9a a6 91 3c 96 1f 2d 3e
       0.008504609 -0.03644912 0.017779637 0.1690658
0002a0 d1 5d b5 3d 76 b0 f1 bc bc 2d 1d be 42 3a ce bd
       0.08855785 -0.029503088 -0.15349478 -0.100697055
0002b0 b3 01 2c bd 39 14 8f 3d bd ed 16 3e 31 17 36 3e
       -0.041993808 0.06986279 0.14739127 0.17782284
0002c0 b1 0e d1 3d a0 9c 61 3e c8 d8 20 3e 6c 0b b0 bc
       0.1020788 0.22032404 0.15707695 -0.021489821
0002d0 0e 27 cf bc 28 71 12 3e 2b 16 7b bd 71 98 97 bd
       -0.025287177 0.14300978 -0.061300438 -0.07402123
0002e0 4c 28 ea bd 97 4e 31 3d 7f 7e da bd b4 45 ad 3c
       -0.11433467 0.04328784 -0.106686585 0.021151401
0002f0 19 0c aa 3b 23 cc db bd 5e 51 47 3e cf 42 7a 3d
       0.0051894304 -0.10732295 0.19464633 0.06109887
000300 6c d2 86 3c a2 22 f5 3b 3b ab b2 bd 4f 5e 75 3d
       0.016457759 0.007480935 -0.08724066 0.059904393
000310 8a 81 ca bd 83 dd 9d 3d 99 5f 34 bb 9c a8 b5 3d
       -0.09887989 0.07708266 -0.00275228 0.0887005
000320 27 3a 3a be 43 9f e9 bd 7b 12 01 bd 43 0f fa b9
       -0.18186246 -0.1140733 -0.031511765 -0.00047695087
000330 30 43 80 3d 34 6f 3d 3e c4 ad 25 be 57 0d bd 3d
       0.06262815 0.18499452 -0.16179568 0.0923106
000340 8a 32 4a 3c 6f 54 f7 bd a7 8d 40 be 74 9a de 3d
       0.012341151 -0.12076651 -0.18804036 0.10869303
000350 10 c2 be 3d 33 ca 75 3c ea 34 1d bd 0f 40 d2 3d
       0.09314358 0.015001821 -0.03838054 0.102661245
000360 dd 09 54 3e cc 9e 40 bd 58 ad 9c 3d cb 32 e3 bc
       0.20706888 -0.04702644 0.0765025 -0.02773418
000370 74 12 16 be cd 36 36 be 35 c6 1e 3d 83 64 37 3d
       -0.14655477 -0.17794342 0.038763244 0.04477359
000380 61 56 f1 3c f4 0d 07 be b7 d2 35 3e 39 72 e5 bc
       0.029460134 -0.13188916 0.17756163 -0.028008567
000390 3a 36 36 bd 50 86 3f bb 32 42 b0 bd c6 f4 c8 bd
       -0.04448531 -0.0029224344 -0.08606376 -0.09812312
0003a0 16 a1 c8 bd e5 fa 6e bd 51 a8 87 3d 33 65 9a bd
       -0.0979635 -0.05834474 0.06623901 -0.075388335
0003b0 56 4c 35 3e f3 f8 02 3e 8b 11 c3 3d ee 25 ef 3d
       0.17704901 0.12790279 0.095248304 0.116771564
0003c0 1c e4 5e 3d 96 e8 85 bd d8 22 35 be 43 db 4e 3e
       0.05441676 -0.06538503 -0.17689073 0.20200829
0003d0 6f 0a d2 3d e4 76 5a be 3b 90 c3 bd 4c d6 8e 3d
       0.10255896 -0.21334416 -0.09548994 0.06974468
0003e0 8e bd 37 3c 77 e9 8d bd 5b e4 f7 bd e9 71 87 3b
       0.011214627 -0.069292955 -0.12104102 0.004133452
0003f0 97 a0 4f be 5e ba cb 3c ec ca 19 be 1f a2 a2 bd
       -0.20276104 0.02486914 -0.15018815 -0.079410784
