logs/dict/ogbg-molhiv-GCN-256-5-128-0.0001-0.5-0.0-cls-42.pth (torch, 402148 bytes, 43 tensors)

atom_encoder.atom_embedding_list.0.weight f4 [119, 128]
00000000: 42b8 5bbd 4edf 5e3e 7e11 7abd 45a3 b0bd
00000010: ff70 38bb b9ed 3fbe 4bad 27be 469a 0d3e
00000020: bb4c a93d 58c5 7dbe 916f 6f3e 2b8f a6bd
00000030: 1e9f cebd 39ae 383e f8be 173e 436d 543e
00000040: ba13 773d ca53 33be bb12 bebd 9471 de3d
00000050: 2d9d ae3d 52f9 87bc e17c 7cbc a621 8e3e
00000060: a6ce 68bd 1d57 06bd aed1 1d3d 51f7 043e
00000070: ed30 03be de81 8f3d 866f e03c 0493 723e
00000080: 7b6e 1fbd c19d 103e a1ae 9d3d c2b3 07be
00000090: 1b2c 7e3e 57ef 323e 72a4 cb3a 09a8 0bbe
000000a0: fa47 093e 0065 313e 5ecf 0f3c c6d7 f33d
000000b0: 44d6 18be bdfb a93d 8ce0 86be 8df0 273e
000000c0: 0dbd babd ad43 3c3d 1302 b63a 4cd5 e737
000000d0: d61a b63c 1216 d2bb 47ce a9bd 7b3b 963d
000000e0: fa1e e9bb 411e b0bd d4c5 21bd 8028 0a3e
000000f0: ef5c b6bc 5255 e33d b484 153d 2691 3c3e
00000100: b1bf 08bd 83a0 22bd b8af be3d 3d90 14be
00000110: f56c fe3d a80b 11bc 6cac 1b3e f971 623d
00000120: 12de 9ebc b5dc be3d e3bc d03d 38dd 943d
00000130: 7160 dc3d 8cf9 de3d 3d20 223e 7cef a6bd
00000140: d55d 223d 035d 40be 8587 d5bc 4b8e 343e
00000150: c03e 18be 2da0 56be 35b3 e03d 1e05 1b3d
00000160: 1749 303e efba 553d e09a abbd e5f5 983d
00000170: 6f02 65be 2239 0ebd ec81 bfbd b54a 60be
00000180: be98 a1bd 6ffb 1c3c 65ee 75be 2e16 2abe
00000190: 2353 f6bc 276b d43d e60e 22be dccb 153e
000001a0: 0a9e 403e da38 1a3d 7839 27bd 4225 43ba
000001b0: 1548 a4bd 146f ff3d f0ee 933c e2ab 0ebe
000001c0: ffc4 cabd 5646 a53c 33ac 6abe 9636 e43d
000001d0: 838a 1abc 23b8 863c c670 823d 38f2 d7bd
000001e0: b064 273e 2b08 c03a fde3 253e d03f e83c
000001f0: 21da 3b3e 84e1 543d 3a35 2a3e 40ec 823e
00000200: 137c 1bbe b3d0 e1bd d92a 3d3d 9bab 11bd
00000210: f39d d8bc 4450 b6bd 0526 1039 0943 48bd
00000220: 2209 183e 3477 c33d 341b 273d d3f3 823d
00000230: 1a60 86bd eab8 2bbd f0fe bc3d 9621 093e
00000240: e731 03bd ceec 0bbe efc6 80bb 8ae3 bd3d
00000250: dc98 ef3b 2de0 19be 0dab a03c ebba acbd
00000260: d91e 833d 5ba0 033e 9f21 c23d 4cd5 01be
00000270: 7834 123d 68c6 0ebc e7b8 fd3c f2c6 9dbd
00000280: 5c95 01be 5ff2 94bd 2605 d43b 6725 b03d
00000290: 5dd5 0cbe a1c5 9f3d f59f 183e fdc4 04be
000002a0: b1d9 debd abb5 f53c b00c bebd 7c0e e03c
000002b0: 102d 10be 8a64 41bc 4ff6 103e 3cf2 ef3d
000002c0: 547d d93c 9457 8d3d 2cd1 0f3e 0a29 01be
000002d0: 2d76 ec3d 9db2 593d 37f1 05be dc04 a43d
000002e0: 6e62 b03c 24ec 0cbe 2c5b a5bd 6352 753c
000002f0: d40b 923c 7408 293d 0309 f83d cbcc 043e
00000300: a89d 723d fc9d 613c 299f 193a e908 123e
00000310: 41d3 103c 82f5 d2bd a0ae 9abd 40a3 1bbe
00000320: 0447 ddbd 3e2d 1b3e 9d77 f8bd 0aed 0ebd
00000330: 2d74 16be 8750 b43d 0165 83bd d35c 1f3e
00000340: 6861 d83d 4526 86bd ac02 84bd 0065 d4bc
00000350: a2d2 26bd 4d3f 0abe c7ef 7a3c 92cd d8bd
00000360: fbaa cbbd fa91 443d d562 ab3d 9f76 17be
00000370: cb2b 0a3d 5963 053e 7c56 733d 3acc ecbd
00000380: a8a3 18be 8991 84bc 840c e03d 6127 3dbc
00000390: 3663 16be b126 1c3e c84c edbd e053 473d
000003a0: e52a bebd f5c2 013d 80f5 04bd 248d 94bc
000003b0: a49d cebc 95c5 fe3d 49ab 95bd ab91 3fbd
000003c0: efa9 e4bd 9d4a b9bd 8c55 d9bc fa4d fbbd
000003d0: dfc8 72bd 646e 9fbc f274 e1bd cbca 043d
000003e0: 5793 9c3c e08b f13c 50e9 143e c4ec d3bd
000003f0: 95db f4bc 9ae6 7fbd 64a5 f5bd 94b3 22bd
-0.05364252 0.21764871 -0.061051838 -0.08624891 -0.0028143523 -0.18743028 -0.163747 0.13828382
0.08266588 -0.24782312 0.23382403 -0.08132776 -0.10088943 0.1803521 0.14818943 0.20744805
0.060321547 -0.17512432 -0.09280916 0.10861507 0.08526073 -0.016598377 -0.015410633 0.27760047
-0.0568377 -0.03279792 0.038530044 0.12984969 -0.12811632 0.07007192 0.027396929 0.23688895
-0.03892372 0.14122678 0.076993234 -0.13252166 0.24821512 0.17474113 0.001553668 -0.13638319
0.13406363 0.17323685 0.0087774675 0.1190639 -0.14925486 0.082999684 -0.2634319 0.16400357
-0.0911809 0.04596298 0.0013886116 2.763667e-05 0.022229593 -0.0064113224 -0.082912974 0.07335564
-0.0071142884 -0.085995205 -0.039495304 0.13492012 -0.022261111 0.11100258 0.03650351 0.18414745
-0.033385936 -0.039703857 0.093108594 -0.14508148 0.12423126 -0.008852877 0.15202492 0.055284474
-0.019393 0.0931944 0.10192277 0.07268757 0.10760582 0.10887441 0.1583261 -0.08151147
0.039640266 -0.18785481 -0.026065597 0.17632405 -0.14867687 -0.2095954 0.10971681 0.037846677
0.17215382 0.052180227 -0.083791494 0.07468776 -0.2236421 -0.034722455 -0.093509525 -0.21903498
-0.078904614 0.009581431 -0.24016722 -0.16610023 -0.03006894 0.10372 -0.15825996 0.14628547
0.18810287 0.037651874 -0.04082629 -0.00074442115 -0.08021561 0.12472358 0.01805827 -0.13932756
-0.09900855 0.02017514 -0.22917251 0.11143224 -0.009432438 0.016445225 0.06369166 -0.105442464
0.16347003 0.0014650872 0.16200252 0.02835074 0.18344928 0.05197288 0.16621867 0.2557087
-0.1518405 -0.11026134 0.04618344 -0.035564046 -0.026442504 -0.08902028 0.00013747074 -0.048892055
0.14847234 0.095442206 0.040797427 0.06394162 -0.06561299 -0.041924395 0.09228313 0.13391718
-0.032030012 -0.13664553 -0.0039299647 0.09271915 0.0073119234 -0.15026923 0.019612813 -0.08434089
0.06402368 0.1285414 0.09479069 -0.12679023 0.03569457 -0.008714296 0.030971957 -0.077039614
-0.12654632 -0.07272791 0.0064703403 0.08600884 -0.13753267 0.078013666 0.14904769 -0.1296577
-0.10881365 0.029993853 -0.09279764 0.027350657 -0.1407969 -0.011803756 0.1415646 0.117161244
0.026549019 0.0690147 0.14044636 -0.12613311 0.11545978 0.053148855 -0.13080297 0.08008739
0.02153131 -0.13761955 -0.0807403 0.014973256 0.017827906 0.041267827 0.12111094 0.12968747
0.059232384 0.013770577 0.00058602035 0.14261211 0.008839429 -0.10300733 -0.07552838 -0.15198994
-0.10804561 0.15153977 -0.121321894 -0.034894027 -0.14692755 0.08804422 -0.06415749 0.15562753
0.10565454 -0.06550268 -0.06445822 -0.025927067 -0.04072822 -0.1350071 0.015315956 -0.105860844
-0.09944721 0.047990777 0.0836846 -0.14791344 0.03373317 0.1302618 0.05940865 -0.115623906
-0.1490618 -0.016182678 0.10939887 -0.011545033 -0.14686283 0.15249135 -0.115869105 0.048663974
-0.09285525 0.031680066 -0.03246069 -0.018133707 -0.025221653 0.124400295 -0.07308061 -0.04676978
-0.11165225 -0.090474345 -0.02653005 -0.12270732 -0.059273597 -0.019461818 -0.11008634 0.03241996
0.019113226 0.029485643 0.14542127 -0.10347894 -0.029889861 -0.06247578 -0.119944364 -0.03972204

atom_encoder.atom_embedding_list.1.weight f4 [4, 128]
00000000: a121 313e cdd7 3fbd c235 4b3e e90c 5dbd
00000010: 9c12 353d 3097 403d 4541 183e 9471 423c
00000020: 1d23 2c3c ff98 99bc 4e5c 96bd 016f 053e
00000030: af21 133e 9c1f 963d 6a66 95bd 5b8e e73c
00000040: 4919 4cbd 472f bd3d 5699 ca3d a7bf 5e3e
00000050: 9be8 0a3e 1df5 33be 0a2a 24be 6e38 813d
00000060: e248 5c3e 0dad 1abe df37 a5bd 846a c93d
00000070: 30c5 bdbd aa6e 0f3e 514e 98bd 9b2d 1d3e
00000080: 6f74 803d cc73 20bd 2381 2abe 840a 033e
00000090: 04a7 5dbe 3648 07be 9322 57be 14cd 433e
000000a0: dce3 063c c114 23bd 39f8 973d d85d 4a3e
000000b0: cfce e83d 5099 283e 2871 ddbd ad6c c4bd
000000c0: e1e2 083e c71a ba3d a92a 11bd a8c4 413e
000000d0: 9231 2ebe 54a4 cd3d 2c47 05be 9c96 21be
000000e0: d44a 8e3c 7bc5 363e 8c33 003e 1f3f 9ebb
000000f0: e5cd fc3d 97ba 01be 153d 283e 61fe f83d
00000100: db2c b43d 4b1f 6a3e 1c92 85bd ec6c d0bd
00000110: 6fb8 33be 7ef1 8d3d 2f9c 42be 6799 893c
00000120: dce6 343e 9e26 00be d344 98bd 04e0 0d3d
00000130: 34f4 1dbe 4040 48bd d4be f53d 591a 043e
00000140: 89e1 66be d138 50be b1db ce3d 66d2 383d
00000150: 9003 ddbc bef1 2cbe 6559 1a3e 555f 2c3e
00000160: dd3b cbbd 1a78 023e 182e 0f3e dbae 543c
00000170: 32ac 0ebd df91 bbbd 260c 6e3e f73c 2e3e
00000180: 65ff 113e 59f5 563e ddbc 59bd 63ad c13c
00000190: c166 443e 1a9a 213e 965a b03d c33d e53b
000001a0: 9567 16bd 54dd c43c 88fc 133e 2d45 2a3e
000001b0: 2f93 b8bc c829 0abe 3e59 ad3b ca64 63bd
000001c0: a38e 4d3e fc9e 41be 4d59 cd3d 347a cc3d
000001d0: 6257 083e 20a8 403d f44d 05bd 27ea 49be
000001e0: 95e3 df3d e0d5 2dbe f1cd 5fbe f28e 19be
000001f0: 9ad1 a23d df77 353e 2273 f93b 2e6b 02be
00000200: ad06 31be afec 92bd 7d8c 41be 40e1 34bd
00000210: d806 a6bd 80ea 09be 01c7 54be 7420 04bd
00000220: 9fec 05be aefb 083d d6be ee3c 56ad d8bd
00000230: f436 0d3c 2bf2 8bbd 669f 55bd 9d8c 3a3e
00000240: 1304 4d3e 8470 24be e7e9 0fbe dc3a 8e3d
00000250: f7b7 aebd 44f5 d93d 61d7 b73d 8ae5 f53d
00000260: b4cf 25bd bffe 4ebd 9419 ba3d 2e13 4ebe
00000270: 2c7d 123e c991 29be 95e3 43bd e994 a1bd
00000280: f3db 7bbc 5bb9 4d3e f0e7 54be 90f4 56be
00000290: 8c57 c03d 0e54 d03c 8e73 3fbe aa84 04be
000002a0: 0f88 1a3e e61b 283d dac1 1bbe 4a41 293e
000002b0: c838 d63d bc92 9d3d ecf5 84bd 6730 343d
000002c0: 76f5 433d 0e09 82bc 327c 58be d867 af3d
000002d0: c4ef 03bd 7481 273e fc60 90bd 79f1 083d
000002e0: 0683 f5bd 045c e9bd 4413 463e a82b 54be
000002f0: 6346 123e 50ad c7bd 8ca1 4bbe f9b0 e8bd
00000300: 56c8 82bd 10f5 0d3e 97b0 423e 289b 503e
00000310: 0017 f5bd 84ec 973d 71e8 0d3c 9341 41bd
00000320: f47e 47bc 2a90 d0bd 512c 18be 4b47 1a3e
00000330: 4482 1dbe ec10 e23d 6240 f1bd cbcf 56bd
00000340: f3d1 8bbd f9cd 383e 5f96 40be 20bb 44ba
00000350: 7113 d2bd 9465 313e 9245 e23b e9f6 f13b
00000360: 7cf9 14be 0e9a 213e f565 033e a575 113e
00000370: 4393 ffbd bd85 26be 06c8 1e3d 7a08 78bd
00000380: 2d07 5abd 44e6 083e c5a4 a2bc dca8 f83d
00000390: 588f 2cbe 46fc 7a3d 2779 30be bb7b 97bd
000003a0: 477c cd3d 7a3f 0fbe 85e1 ee3d eaf1 003e
000003b0: b293 9f3d 3e1d 17bd 9492 113d 4dca f43c
000003c0: 6226 94bd b840 2fbe 8a7c 32bc e937 e33d
000003d0: 6190 c3bd e949 973d bdfa 8cbd 2126 a3bd
000003e0: dfa4 25be 50fa 4abe b508 a7bd 842c 98bd
000003f0: c39e 1dbe 3a3f 593e a4f9 3bbe a6d7 e03d
0.17297985 -0.046836663 0.19844726 -0.05396739 0.0442072 0.047019184 0.14868648 0.011867899
0.0105064185 -0.018749712 -0.073418245 0.13030626 0.14368318 0.07330248 -0.072949246 0.028266123
-0.0498288 0.09237533 0.09892528 0.21752797 0.13565294 -0.17573972 -0.16031662 0.06309591
0.21512178 -0.15105076 -0.08067297 0.09834769 -0.09266126 0.14007059 -0.07436813 0.15349428
0.06272208 -0.039172933 -0.16650824 0.1279698 -0.21645743 -0.1321114 -0.21009283 0.191212
0.008233037 -0.039814714 0.074203916 0.19762361 0.113675706 0.16464734 -0.108125985 -0.09591041
0.13367797 0.090871386 -0.035441075 0.18922675 -0.17011097 0.10041109 -0.13015431 -0.15780109
0.017369665 0.1784877 0.12519664 -0.004829302 0.12343959 -0.12668835 0.16429551 0.12157894
0.08797618 0.228635 -0.06522009 -0.10177025 -0.17550825 0.069308266 -0.19004892 0.01679678
0.17666191 -0.12514731 -0.07435002 0.034637466 -0.15425187 -0.0488894 0.11999288 0.12900676
-0.22546972 -0.20334174 0.101004966 0.045122527 -0.026979238 -0.16889092 0.15073164 0.16833241
-0.099235274 0.12741128 0.13982427 0.012981142 -0.034832187 -0.09158682 0.23246822 0.17015444
0.14257582 0.2099203 -0.05315863 0.023642248 0.19179823 0.15781441 0.08611028 0.006995888
-0.036719877 0.024031319 0.14451802 0.16627951 -0.02253112 -0.13492501 0.0052901795 -0.05551604
0.20073943 -0.18908304 0.100267984 0.09984246 0.13314584 0.047035336 -0.032545045 -0.19718228
0.1093208 -0.16976118 -0.21855904 -0.14995936 0.079501346 0.17721508 0.007612602 -0.12736198
-0.17287703 -0.0717405 -0.18901248 -0.044160128 -0.08106774 -0.13468361 -0.20779039 -0.032257512
-0.13078545 0.033443145 0.029143732 -0.10579936 0.008619059 -0.06833299 -0.052153967 0.18217702
0.20021085 -0.16058546 -0.1405407 0.0694482 -0.08531182 0.10642484 0.08976627 0.12006672
-0.040481284 -0.050535914 0.0908691 -0.20124504 0.14305562 -0.16559519 -0.04782446 -0.078897305
-0.015372264 0.20090239 -0.20791602 -0.2099173 0.09391698 0.025430705 -0.18696424 -0.12941232
0.15090965 0.04104223 -0.15210667 0.16528812 0.10460049 0.07694003 -0.064922184 0.043991473
0.04784151 -0.015873458 -0.21141127 0.085647285 -0.03221108 0.16357976 -0.07049748 0.03343341
-0.11987881 -0.11394504 0.19343287 -0.20719779 0.14284663 -0.097498536 -0.19885844 -0.1136188
-0.06385867 0.13863015 0.19012676 0.20371687 -0.119672775 0.07418159 0.008661375 -0.047181677
-0.012176264 -0.10183747 -0.14860655 0.15066259 -0.15381724 0.11038384 -0.11779858 -0.05244426
-0.06827154 0.18047322 -0.18807362 -0.00075046904 -0.102576144 0.17323905 0.006905266 0.0073841703
-0.14548296 0.15781423 0.12831862 0.14205034 -0.1247926 -0.16261955 0.038764976 -0.06055496
-0.0532295 0.1336909 -0.019853959 0.12141582 -0.16851556 0.061275743 -0.17233716 -0.073966466
0.1003347 -0.13989058 0.11664108 0.12592283 0.077918425 -0.036893122 0.03554018 0.02988162
-0.072338834 -0.17114532 -0.01089395 0.110946484 -0.095490225 0.07387144 -0.06883762 -0.07966257
-0.16176175 -0.19822049 -0.081559576 -0.07430366 -0.15392594 0.21215525 -0.18356949 0.10978632

atom_encoder.atom_embedding_list.2.weight f4 [12, 128]
00000000: 0cac 84be 5d77 cd3d bff7 bcbb 8982 3cbd
00000010: 4c8f 36bd 5761 9b3c 3e1d 5fbe 5c93 c1bc
00000020: 0606 a1bd b6cd c43d 99b6 ed3d 1109 dc3d
00000030: d5e8 64be 451e f9bd 4d16 933d 7e10 1b3e
00000040: 2f90 0dbc 9a9c 30bd 1e62 2fbb 38a9 2cbe
00000050: 0b08 053e 4460 1fbd 9893 273e 651c a6bd
00000060: 8a02 3d3e 3bfd 81bd ae92 fe3d 32c5 b03d
00000070: dc69 1e3d 7d5f 4b3d 6837 f3bd ce1b 73be
00000080: af0b d83d e8c3 4b3e 3d74 14be bc37 72bd
00000090: 975c 30be b88b 27be b243 353d 2cbe a4bc
000000a0: 5367 703e 5b89 533e ac1e b6bd 144c b23d
000000b0: 01b6 223e d3ca 9a3d bce5 a4bd 6781 633d
000000c0: 2a28 42be 7b8a 8fbd f406 213e d212 223d
000000d0: 2ee6 7fbe 3ab9 1a3e 26f6 c2bc 836c febd
000000e0: 1a30 c23d cb84 d53c f910 81bd f6c4 953e
000000f0: 5007 1bbe 148e 233d cdd8 d33d e552 8cbd
00000100: 1d35 293e 48ed 1ebe 1417 16be f58e 253e
00000110: a16c 0f3e 086a c6bd 3f99 433e b281 55be
00000120: 4c0e 033e 67ad 29be 5ae0 5e3c 5ca5 c0bd
00000130: 6a27 5b3e 6716 06be ba6c 26be 58c3 d0bd
00000140: 4799 8c3d 84c3 433e 1105 ce3d b0f7 a33d
00000150: 869a 64be 8ed8 053d 2198 fcbd 1614 07be
00000160: 23a8 633e cb5e 11be 5d54 063e e4df 63bd
00000170: 9c7c fb3d 4ad8 6b3e e4d9 5cba 2530 8a3d
00000180: dcc7 42be 0ccc 0ebe 3b64 74be a2dc a63d
00000190: 29f4 3cbe cc7a eebd 540f cebb 3679 f1bd
000001a0: e76b d7bd 9f9c 223e d70b 0b3c 9e38 333e
000001b0: de52 65be 3644 203d b033 843d 34cb 143e
000001c0: 2b9d 22be 6754 17be c0b5 903c ea8b 31be
000001d0: 3c94 6cbe 56a7 0c3e c8d0 f03d 3bc0 52be
000001e0: 0078 dd3b 8290 3cbe 3ab7 eb3d 9de4 953b
000001f0: c5c3 3dbe b5b0 253d 31b9 4dbd 4273 80bd
00000200: 6931 2abe 6c80 c5bc 7972 da3d aad8 eebd
00000210: 00ea 7bbd 9b32 fbbd 85f7 d5bd a1f6 463e
00000220: 88a0 043e 71c3 b9bd 787f 593e 4e6e bb3d
00000230: 6fa9 943d dfce 1fbe a55d 51bd 797c 3b3e
00000240: c393 123e 0494 cf3d 5538 debd 58a8 9abd
00000250: c7ee ea3d 5298 a33d 0b1c 4ebd 23ce bdbd
00000260: ee47 24be 1420 18be 57d8 cabd 9f48 f03d
00000270: 5db3 e4bd d66c 933d 5246 20be 9d74 0fbc
00000280: 4827 f3bd 26b7 d4bd 8337 163e 5fcf 6e3d
00000290: a298 3d3e fdb9 593d 8952 173d 9074 3f3e
000002a0: 4a7c 1fbe cf68 ec3d 6d61 4a3c d9ab 483c
000002b0: 8bdc 0abe 646c b5bc 70e8 07be 0591 f83d
000002c0: cf40 eebd cae8 bebc 4176 3a3e fb8c b4bc
000002d0: a327 1dbe fce0 3a3d e6d6 673d 5cd7 0dbe
000002e0: 7752 32be 57d8 63be cc53 b1bd 3028 7c3b
000002f0: 147d 31be 321a 16be bd6c 423d f51f 42be
00000300: 9e23 313c 69a9 2a3d 3a60 503e 98bf ef3b
00000310: 95ef 4a3d 4f67 283e d57c 1b3d 4013 213e
00000320: 2e25 51bc bf1e 523e 1857 09be 01a1 2d3e
00000330: 4495 2b3d 0494 e53a f384 523e cf93 f53d
00000340: 92aa 5f3d 2014 72bd a3ae 473e badd 663c
00000350: ba24 433d 9c11 6fbb d82d a7bd 3f3a 00be
00000360: 8b68 073e 2064 373d a06e 423d e641 a83b
00000370: 6bf4 95bd 1132 3dbc d880 01be 2dd7 bb3c
00000380: 4933 ae3d 1ef6 4bbe 47a9 463e a83f 9fbd
00000390: 7207 263e 4716 3a3e 2c4c 803d 8d7e 3d3e
000003a0: e982 24be c91f 52be 9de5 b13c b26d e5bd
000003b0: 5175 c8bd dd7c eabc f025 09be 4efd ba3b
000003c0: 3925 b8bd d767 473d 8bd6 863c 6c7c 1bbe
000003d0: f5d2 c2bd d26e 7dbc 6d17 f33d 962c 503e
000003e0: 2347 643d f55f b7b9 17a4 893c fb79 5a3e
000003f0: f503 f8bd e49d e5bd 4095 5b3d 00f5 0cbe
-0.2591251 0.10032532 -0.0057668383 -0.046022926 -0.044570252 0.018967314 -0.21788499 -0.023629837
-0.07862477 0.09609549 0.11607093 0.10743917 -0.22354443 -0.121639766 0.07181988 0.1514301
-0.008640333 -0.043118097 -0.0026761363 -0.16861427 0.1299135 -0.038910165 0.16364896 -0.081108846
0.18458 -0.06347128 0.12430321 0.08631362 0.038675174 0.04965161 -0.11875802 -0.23741075
0.105491035 0.19898951 -0.14497466 -0.059135184 -0.1722282 -0.16361892 0.044254012 -0.020110212
0.23476915 0.20657866 -0.08892569 0.08705917 0.15889741 0.07558217 -0.08051631 0.05554333
-0.18960634 -0.07008835 0.15725309 0.03956873 -0.2499015 0.15109721 -0.023799013 -0.12423041
0.09481831 0.026064297 -0.063020654 0.29251832 -0.15139508 0.039930418 0.10344086 -0.068517484
0.16524167 -0.15520203 -0.14657241 0.16167815 0.14006282 -0.096881926 0.19101427 -0.20850256
0.12798423 -0.16570054 0.013603294 -0.0940654 0.21401754 -0.13094483 -0.16252413 -0.10193509
0.06865173 0.19117552 0.1005956 0.08006227 -0.22324571 0.032677226 -0.12333704 -0.13191256
0.22232108 -0.14196317 0.1311812 -0.05563344 0.12279627 0.23031726 -0.0008424802 0.06747464
-0.19021553 -0.13945025 -0.2386636 0.08147551 -0.18452515 -0.116445154 -0.0062884483 -0.11790697
-0.105186276 0.15880059 0.00848671 0.17502066 -0.22394893 0.03912755 0.06455171 0.14530641
-0.15880267 -0.1477829 0.01766479 -0.17338529 -0.23103422 0.13735709 0.11758572 -0.20581143
0.00675869 -0.184145 0.11509557 0.004574372 -0.18531711 0.040451724 -0.05022544 -0.06271984
-0.16620411 -0.024109088 0.10666365 -0.11662419 -0.061502457 -0.122655116 -0.10447601 0.19430019
0.12951863 -0.090704806 0.21240032 0.09151898 0.072588794 -0.15606259 -0.051114697 0.18309201
0.14314179 0.101356536 -0.10850588 -0.0755164 0.114713244 0.07988037 -0.050319713 -0.09267833
-0.16043064 -0.14855987 -0.09904545 0.117326014 -0.11167023 0.07198493 -0.15651825 -0.00875583
-0.11872727 -0.10386495 0.14669614 0.058303233 0.18515256 0.053155888 0.036943946 0.18696809
-0.15574756 0.11543428 0.01235233 0.012248003 -0.13560693 -0.022146411 -0.13272262 0.12137035
-0.11633455 -0.023304362 0.18209173 -0.022039881 -0.15347151 0.045624718 0.056601427 -0.13851684
-0.1741427 -0.22250496 -0.08658561 0.0038476102 -0.1733287 -0.1465843 0.047466982 -0.18957503
0.010811714 0.04166547 0.20349208 0.007316541 0.04954489 0.16445659 0.037960846 0.1573
-0.012765212 0.20519541 -0.1341213 0.1695595 0.041890398 0.0017515426 0.20558529 0.11991083
0.054606028 -0.059101224 0.19500212 0.01409095 0.047642447 -0.0036479002 -0.08163041 -0.12522219
0.13223474 0.04477322 0.04746878 0.005134809 -0.0732201 -0.011547581 -0.12646806 0.022929752
0.085058756 -0.19918105 0.19400512 -0.07775813 0.16213778 0.1817256 0.06264529 0.18505307
-0.16065563 -0.20519938 0.021715933 -0.11202563 -0.09788001 -0.028623993 -0.13393378 0.005706466
-0.08991475 0.048683014 0.016459724 -0.15184182 -0.09512893 -0.015468316 0.118697025 0.20329508
0.055731904 -0.00034975974 0.016801877 0.21335594 -0.1211013 -0.11211756 0.053609133 -0.13765335

atom_encoder.atom_embedding_list.3.weight f4 [12, 128]
00000000: 4d4f 8d3e 72af ed3d c817 013b 0f64 4abe
00000010: b830 b53e cb6e 953d 41df 3b3d bcf5 8f3d
00000020: c2ba 59bd 5a24 47be bdd2 8abd 5b5e 753e
00000030: 2f36 673d 7226 c93d 9f6e 003e af80 a2be
00000040: c44e 573d c61d acbd 4a8e 203e ca3b 963c
00000050: 626d ae3d 63ff 8abc 5320 b7bc a14f 45be
00000060: 561c 57be b98b d83d 164a 293e 9f5d 4dbd
00000070: d055 8cbd 166c fcbc 5a52 123b 0b90 283e
00000080: 35e1 bb3e 5010 9ebe 9b04 88bd c4c5 0d3e
00000090: ab55 0e3e 55dd 11be 9879 793e 877a 65bd
000000a0: 5ff6 f7bd 173f cd3c c053 6fbc 60f5 7e3d
000000b0: 8555 2d3d 6809 963e b383 f5bd 622d 9abc
000000c0: eb1f 473d 2194 10bd 0adc 41be 09d7 c43d
000000d0: 8868 82be 8d1e 653d d589 35be c645 b63d
000000e0: 8004 943d 5424 b5bd 4be5 cc3d d30c 773c
000000f0: 7eea 47ba c627 113e de84 473d 5942 0d3e
00000100: a87f 1fbe ca51 03bd d9fc 223e cee2 cb3d
00000110: 0b43 b53d f99b d53d de51 023e 0292 2fbe
00000120: c2ef e9bd 8eb1 dd3d 3276 6d3c 2595 36bd
00000130: 895e da3d bd2d 56bd ec08 2e3d 64f0 e6bd
00000140: c811 dd3c 363f 19be 7d53 2abe ac65 82be
00000150: 544e 543c c9d9 b9bd 4285 353e 8d35 ce3b
00000160: 92cf 99bd b0db 86bd d59a 143d 4e5a 39be
00000170: 7f55 8dbd 17af 723e e12e b9bd 0d42 8fbe
00000180: 732d 6fbd 9776 963d d7d0 fa3d 793e 883c
00000190: f2e4 1a3e 9d63 2f3e 8d35 9fbe 2ff4 463d
000001a0: e581 563d 8e1a 22be 6453 6d3d 4cc9 0fbe
000001b0: 1a0b b93d 6b4b 823d 95ef 123e d9e2 6f3e
000001c0: 0308 a6bd bf0b 9b3c 64e6 353d 4f83 0ebd
000001d0: f8a0 853d e41c 1ebd c20d 0a3d b59a 03be
000001e0: 746a fc3c 8d30 8fbd ea0f 813d 29e7 59bd
000001f0: ec69 113e ba55 8cbe 9678 713e d5ca 193d
00000200: 8bdb 673e c31a 763d f33e babd 9c75 2b3e
00000210: 2f55 d3bc 617e 3f3e d554 40bd 3b9e cdbc
00000220: dc82 f53c 3956 5f3e 9bc2 35be 8717 083e
00000230: 9e45 36bd 6173 1ebe 6d42 cd3d 593a 62be
00000240: 9262 e3bd 1599 23be 8d24 083e 2077 eb3d
00000250: d2da d4bd 7e57 acbd 0198 0f3e 844d c13d
00000260: dcb6 81bc 020f 07be 55dd f53d 4a07 b9bc
00000270: 1201 b63d bc74 a03d a204 0a3e 2d31 8ebd
00000280: 34fb 563d 45bb b5bb f7ce e6bd ebcc 5b3e
00000290: 1abb 813d a676 b93d 9bd4 833d bb31 05be
000002a0: 46c5 45be 0f8a fe3d 52f4 d6bd ece6 493c
000002b0: eeed 663e 3d76 23be dd99 ef3d 84d9 2f3d
000002c0: 75f4 4b3e 1305 14be e03e 50be f8d8 03be
000002d0: 77ef d1bd 52be 34be 87fd a6bc 803f f0bc
000002e0: 38c1 a1bd 2290 3e3d 886f 14be 8521 8dbd
000002f0: 4136 38be 926b 893a c6d5 4ebe 1892 f5bd
00000300: 83d4 cd3d 0285 41be 43fd cc3d c92e 1bbe
00000310: c359 0f3e e6b8 293e 3a30 963d 1fa0 473d
00000320: 7ce6 0dbe 7b3f 08be ba85 853e a627 6e3b
00000330: f3d6 383e d074 0dbe 35b1 ce3d 0873 9fbd
00000340: 7929 ef3d 1ab6 5fbe 58fc d8bc 4979 62be
00000350: 7cdf 133e 6272 d7bd 5894 d73c 495f 763e
00000360: 8518 013e ab0e 87bd 61cb bcbd 8fd3 d9bd
00000370: cab9 1d3e 8bba 85bd 0b8b 683d 049f 8cbe
00000380: ecd4 3d3d 90eb 003d a56a 9cbd 3c9b 043e
00000390: 2dd2 b73d a276 a3bd b883 27bc 6a00 38be
000003a0: cfbe 453d 65a5 05be 90a2 553d 7b95 143e
000003b0: 1e13 1c3e 27b0 a0bc 6293 a43d b981 063e
000003c0: e096 303e 6824 1f3e af4d 453e 60a1 c8bd
000003d0: b497 dc3c 6da4 6cbe e30d 293e b3bb 6b3d
000003e0: ce4f 053e d8c2 a63d 72b1 47be abde 903a
000003f0: de51 f73d 066d 5a3e deb1 a6bd cdeb 0abd
0.27599564 0.11605729 0.0019698013 -0.19764732 0.35388732 0.07296523 0.04586721 0.07029292
-0.05315662 -0.19447461 -0.067784764 0.23961775 0.056448158 0.09821786 0.12542199 -0.31738803
0.05256535 -0.08404116 0.15679279 0.018339057 0.08516957 -0.016967481 -0.02235428 -0.19268657
-0.21006903 0.10573525 0.16532168 -0.050138112 -0.06852305 -0.030813258 0.0022326917 0.16461198
0.36695257 -0.3087182 -0.066415034 0.13844973 0.13899867 -0.14244588 0.2436279 -0.056025054
-0.121075384 0.025054498 -0.01460737 0.062245727 0.042317886 0.2930405 -0.1198801 -0.018820468
0.048614424 -0.035297517 -0.18931594 0.09611327 -0.25470376 0.05593734 -0.1772836 0.08900027
0.07227421 -0.0884482 0.10004672 0.015078741 -0.00076261896 0.14175329 0.048710696 0.13794841
-0.1557604 -0.032060422 0.15916766 0.09955369 0.08850678 0.1043014 0.12726542 -0.17145541
-0.11422683 0.108248815 0.014493512 -0.04457583 0.106625624 -0.052289713 0.042488977 -0.112763196
0.026986018 -0.1496552 -0.16633411 -0.25468194 0.012958128 -0.09074742 0.17726615 0.006293005
-0.07510294 -0.06584871 0.03628047 -0.18100855 -0.06901073 0.23699604 -0.090421446 -0.2798008
-0.058392953 0.07346838 0.12246864 0.016631352 0.15126398 0.17127843 -0.31095544 0.048572715
0.05236997 -0.15830442 0.057940856 -0.14041632 0.090353206 0.06362041 0.14349206 0.2342638
-0.08106997 0.0189265 0.04440917 -0.034793194 0.06524843 -0.03860177 0.033704527 -0.12851985
0.03081248 -0.06991682 0.063018635 -0.053198967 0.14200562 -0.27409154 0.23581156 0.03754695
0.22642343 0.060084116 -0.09094038 0.16744083 -0.025797455 0.18700553 -0.046955902 -0.025099864
0.029969625 0.21810235 -0.17750017 0.13290225 -0.044499986 -0.15473701 0.10022435 -0.2209257
-0.11102785 -0.15976365 0.13295193 0.11497331 -0.10393299 -0.08415125 0.14022829 0.09438613
-0.015834264 -0.13189319 0.12005106 -0.022586484 0.08886923 0.07834765 0.1347833 -0.06942973
0.05248566 -0.005546006 -0.11269944 0.21464889 0.06334515 0.090558335 0.06437036 -0.13007252
-0.19313535 0.12428676 -0.10495819 0.0123231225 0.225517 -0.15963073 0.11699269 0.04293205
0.19917472 -0.1445506 -0.20336485 -0.12875736 -0.102507524 -0.17650726 -0.020384563 -0.029327154
-0.07898182 0.046524175 -0.14495671 -0.06891159 -0.17989446 0.0010484329 -0.20198736 -0.11990756
0.10050299 -0.18898395 0.10009243 -0.15154566 0.13999085 0.1657444 0.07333417 0.048736688
-0.13857454 -0.13305466 0.26078588 0.003633955 0.18050747 -0.13814092 0.10092393 -0.07785612
0.11677832 -0.2184681 -0.026487514 -0.22116579 0.14440721 -0.10519864 0.026315853 0.24059786
0.1260701 -0.065945946 -0.09218479 -0.10636055 0.15402904 -0.06529721 0.056773227 -0.2746507
0.046345636 0.03147465 -0.07637528 0.12949842 0.08975635 -0.07981612 -0.010224275 -0.17968908
0.048277672 -0.13051374 0.052156985 0.14510147 0.15241668 -0.019615246 0.080359235 0.13135423
0.17245054 0.15541232 0.19267915 -0.09796405 0.026927806 -0.23109598 0.16509204 0.05755205
0.13018724 0.08142632 -0.19501284 0.0011052688 0.12076162 0.21330652 -0.08139394 -0.033916283

atom_encoder.atom_embedding_list.4.weight f4 [10, 128]
00000000: 6824 00be 2caf 66bd 8078 c8bd de39 c43d
00000010: 6376 8dbd b1f1 bbbd c75a e4bc 0d45 de3d
00000020: 312c 19be 88da 18be e156 193e 65b8 1a3d
00000030: a32f 46bd 2058 41be 9aca 91bc 6843 e83d
00000040: 6ec9 e5bd f986 82bd 83c6 06be 3861 bfbc
00000050: 0bba 2b3d 96b3 b73d 59c8 f5bd b51c 36be
00000060: 6d38 763d 4f5a 13be 208d d53d dbc6 fbbd
00000070: ebbd 1cbe fba8 11bd b375 b73d 5f7c 0bbe
00000080: 5cf6 efbc 5ef6 b1bd 04b8 b7bd a7f5 1cbe
00000090: 459f a93d f28d b8bd 6fbe 39be 2569 38be
000000a0: 2031 373e 56ad fe3b d7dd febb 8267 3c3e
000000b0: 758e 163e ce70 8bbd a179 253e 640e d2bc
000000c0: 0927 1f3e 5652 05be e51b 543d 910f 29be
000000d0: ac87 bbbd 3c83 c2bc 49e9 15be 56f4 063c
000000e0: 690e aebb 56f5 5b3e 2aa3 2c3d 5f0b 1d3e
000000f0: 31ca fa3d baf0 fc3d 13e5 d63d fb7a 743d
00000100: e3ad 1c3e 452e 3c3e f743 5cbd 809f f33d
00000110: 8a01 a03d 0c4e f23d 85ec c6bd 1249 7c3c
00000120: c6aa c93c 4758 943d 3230 093d f810 033e
00000130: 1e20 c0bd ba7a 3bbd 6e66 38be db76 103e
00000140: dc04 43be fa5f 803d 56bd 1dbe 3e53 753d
00000150: 3bb5 dfbd 8ea6 033e 3050 2cbe b41c ff3d
00000160: 46d2 6cbd d511 38be 3538 88bd cf9e babd
00000170: 7a6e 803d 599c 373e d295 623d 94f3 05bb
00000180: c58f 863c 3da1 1abe 496e d8bd 1530 313e
00000190: fbcb 203e 7b15 b2bc c8bc 953d 76fe 1a3e
000001a0: 96a1 07be c3f1 903b 9ea6 1abe 33b4 2b3d
000001b0: a38b 4e3c 6afa 15bd 9b22 2a3e 5094 14be
000001c0: e792 163e b7e8 60bd fbb3 3b3e 0329 13bc
000001d0: 4c29 13bd 8009 0c3d d5c4 b83d 7ca1 c73b
000001e0: 471e 49bd 2ce6 8fbd 2a2e 5bbc 74f4 12be
000001f0: d2e3 4dbd 7e6c a33c 52a8 5fbd f5c0 083e
00000200: e967 14be cb1b 6a3c c021 ebbc 4744 dcbd
00000210: 2bd0 133e e3e0 07be 9c0d 253d ce39 513d
00000220: 40e4 243e 6b06 d33d 3a34 ea3d 972b 10be
00000230: 566b 2fbd 9281 8a3d b746 0a3d 1e77 293e
00000240: c21c 0f3e 6345 0b3e a7dd acbd 2469 b23d
00000250: 3aa0 96bd dd57 203d 9f55 133e 4de7 513e
00000260: 4fdf 3bbe 3e96 b93d 99f6 263e 3a08 2fbe
00000270: 8f1b ff3d fb92 1abe 01ee 11be 8194 8c3d
00000280: d528 86bd ff41 173e e2d3 9fbd 6a0d 3dbe
00000290: c493 07be 1956 85bd e419 24be 9b6c 0cbe
000002a0: 290e 16be cb55 ccbd 11a7 87bd 54d7 cf3d
000002b0: d317 ed3d 757f 24be 5484 1fbd 2dc0 e4bd
000002c0: 5675 c83d 040c 51be 00df 1dbe 6029 7f3d
000002d0: d3d4 b4bd 6494 f0bd 0a4e 993b b689 8bbd
000002e0: 216c aa3d 0f7a 3a3e 5551 a0bd 4ff4 3c3e
000002f0: 15c2 013e 07a4 373e 8216 cf3d c681 243e
00000300: b082 eabd 62e2 303e 6678 f53d d240 ee3d
00000310: aab2 92bc f780 ddbd d6d7 1a3e 59fd f73d
00000320: 1a71 ba3d 8cbc 453e 6db1 ba3d 34e6 07bc
00000330: b771 ec3d 38c7 743d 6b87 843b 0b19 9cbd
00000340: 1868 343e 7fe5 a43d a908 73bd dec3 3abe
00000350: 4ac4 073d a76e ba3d 2f5b 2b3c 4eb9 cf3d
00000360: 1ce9 41be a588 173e 8f39 95bd cfd1 16be
00000370: 6cc1 bdbd 8b71 2f3e 8dac 34bc be25 38be
00000380: a758 09be 89ec cebd 6a6a 97bd 5831 843d
00000390: 9999 59bd 6e3a 92bd fc24 94bd a644 b5bd
000003a0: 8279 673d b440 51be ee8f 18bd 2348 3b3e
000003b0: 8d48 09bd f113 e9bc a977 75bc 7e1b d03d
000003c0: 284b 333e 167b 54be 3ea2 18be 3742 293d
000003d0: 9694 26be 9985 2e3e 28d5 0c3e b2a9 e53d
000003e0: f9ef 42be 6ce5 bb3d 4fc8 26bc 5175 923d
000003f0: 5c7a c5bd a8e1 1abe aa30 293e b1c5 b5bd
-0.12513888 -0.0563194 -0.097886086 0.0958135 -0.06907346 -0.09176958 -0.027875317 0.10853014
-0.14958264 -0.14927113 0.14974548 0.03777351 -0.048385274 -0.18881273 -0.017796803 0.11340982
-0.1122006 -0.063734 -0.13161664 -0.023361787 0.04192547 0.089698 -0.12001104 -0.17784388
0.060112406 -0.14389919 0.10427308 -0.12293788 -0.15306823 -0.035561543 0.08957996 -0.13621663
-0.029292278 -0.08689569 -0.08970645 -0.15328084 0.082823314 -0.09011449 -0.18139051 -0.1800886
0.17889833 0.007772128 -0.00777791 0.1839886 0.1470278 -0.06808625 0.16159679 -0.025641628
0.15542234 -0.1301969 0.051784415 -0.16509844 -0.09156737 -0.023744218 -0.14639772 0.008236965
-0.0053117764 0.21480307 0.042147793 0.15336369 0.12245596 0.123506024 0.10492911 0.059687596
0.15300708 0.18377025 -0.053775754 0.118956566 0.078127936 0.118312925 -0.09713081 0.015398281
0.024617564 0.072434 0.03349323 0.12799442 -0.09381126 -0.045771338 -0.18007824 0.1410784
-0.19044822 0.06268306 -0.15404257 0.05989384 -0.10923239 0.12856504 -0.16827464 0.124566466
-0.05781772 -0.17975552 -0.06651346 -0.091123216 0.06271072 0.17930736 0.05531866 -0.0020439373
0.016425977 -0.1510057 -0.1056791 0.17303498 0.15702812 -0.021738758 0.07311398 0.15136132
-0.13245234 0.0044233515 -0.15102622 0.0419199 0.012606534 -0.036615767 0.16614763 -0.14509702
0.14704476 -0.054909434 0.18330376 -0.008981946 -0.035928056 0.034188747 0.09021918 0.0060922485
-0.04910114 -0.07026324 -0.013377706 -0.14351064 -0.050266095 0.019949194 -0.054603882 0.13354857
-0.14492764 0.014288853 -0.028702617 -0.1075521 0.14434879 -0.13269381 0.040296182 0.051080517
0.16102695 0.103039585 0.11435743 -0.14079128 -0.042826973 0.06762995 0.033758845 0.16549346
0.13975814 0.13600688 -0.08440714 0.0871146 -0.073547795 0.039146293 0.1438813 0.2049839
-0.18346904 0.090618595 0.16305007 -0.17092982 0.12456428 -0.15095131 -0.14250948 0.06864262
-0.06550757 0.1477127 -0.07804085 -0.18462148 -0.13239962 -0.065105624 -0.16025501 -0.13713305
-0.14653839 -0.09977301 -0.06623662 0.101484925 0.1157681 -0.16064246 -0.038944557 -0.11169467
0.09788005 -0.2041474 -0.15417099 0.062295318 -0.088296555 -0.11747053 0.0046784924 -0.06813376
0.08321405 0.18210624 -0.07828013 0.18452571 0.12671693 0.17933665 0.10111715 0.1606513
-0.11450708 0.17273858 0.11985855 0.11633457 -0.01790746 -0.10815614 0.15121397 0.12108869
0.09103604 0.19310206 0.091158725 -0.008294631 0.11545127 0.059760302 0.0040444634 -0.07621964
0.17617834 0.080515854 -0.05933443 -0.1823878 0.03314618 0.091031365 0.010458752 0.10142766
-0.1893658 0.1479822 -0.07286369 -0.14728473 -0.09265408 0.17133157 -0.011027467 -0.17983148
-0.13412724 -0.10103709 -0.07393344 0.06454724 -0.053124998 -0.07140051 -0.07233617 -0.08850984
0.056512363 -0.20434839 -0.037246637 0.18289237 -0.033516455 -0.028451892 -0.0149821425 0.10161494
0.17509139 -0.20750079 -0.1490564 0.041322913 -0.16267619 0.17043151 0.13753188 0.112140074
-0.19036855 0.09174618 -0.010179593 0.071512826 -0.09642479 -0.15125144 0.1652247 -0.08875597

atom_encoder.atom_embedding_list.5.weight f4 [6, 128]
00000000: e2f8 19bd dea6 7b3d 6ddc b33c 4570 0c3c
00000010: e83a 253d ee21 333e 8a50 1c3e d7cc 633d
00000020: 258a 89bd 2ab6 073e 02c0 e4bc 4988 ae3d
00000030: 9d85 c83d e10f 03be 0403 c5bc 0226 8a3d
00000040: a54a 573e 57fe 813d 5e60 d73d 559d 38bd
00000050: 2362 54be 5a63 5c3d fa6c be3c 1690 423a
00000060: 17f5 5e3d dc8a 803d 8352 343c 4a08 b1bd
00000070: 8124 4dbe 776c 2fbc 7278 653e 9fd8 723d
00000080: 393d 6a3d e1f4 873b 7d44 e3bc bcf5 0d3e
00000090: 37ff c2bd b3b9 80bd 2efb 28be 3510 57be
000000a0: 5167 043e b158 ccbc 89b6 38be cefc 1c3e
000000b0: b9ef 363c fd7b 60bd b33c 92bc 3a89 bebd
000000c0: 4057 30be fef6 41bb b2ef 66bd 7da8 363e
000000d0: 8ea6 a6bd d84f 93bd 730d 76bc d00f dbbd
000000e0: 0962 ca3d a404 f4bd ebaa f0bd b9f2 56bd
000000f0: b0eb 1c3e b0fb 2ebd 559d 03be 52e1 173d
00000100: b093 4e3d 1dc8 3d3d 7a57 343e 90e7 cd3d
00000110: e774 e9bd e56a f53d 1e13 263e a279 b93d
00000120: b6b7 60be 3639 58bd 38dd 0fbe 58ae fdbd
00000130: 6986 4dbe 7d2e 243d 119f e2bd 7f5a 9f3d
00000140: 585a e3bd cba2 253e 7a22 12be 7dc1 173e
00000150: e567 433e ed4f f6bd 4592 413e 7008 4fbe
00000160: e2a2 713d 7028 fcbd 61a3 3b3e de83 8bbc
00000170: f968 49be b91d 7d3d 9bcd 85bd 23f5 cabd
00000180: d852 143e 6dcc 413e 5169 433e 3d3a 8e3d
00000190: 9572 663e cac5 c83d 83ca 683e db2b 093e
000001a0: 1b8e 29bc 8c41 fe3d 59a7 e53d 26ae e13d
000001b0: fec5 dbbb 06e4 0abe 954a 3b3e 4b63 5dbe
000001c0: d99e 22be 2bf9 29bd ed58 47bd 4b05 073e
000001d0: 7b90 283d 0a16 1abe 4596 2e3e 1197 4a3d
000001e0: e190 41be 52f4 5e3e 849e 58be 2813 a0bd
000001f0: 4b33 393e 0ea5 933d fe7d df3d 3f76 b0bd
00000200: a4b6 4bbe 5967 8fbd 34be d83d 18fd 143e
00000210: b89b ae3d a7a2 94bd 8714 f03d a4b2 2a3e
00000220: cc5c 46be 90b3 9abd 491b 23be 9e2c 3bbe
00000230: 5328 bb3d f189 2c3e 3d4b 16bd 47e0 5fbd
00000240: 1c2e c1bb f9b7 3bbe b61f 1c3e d75f a3bc
00000250: 7176 023e 3b23 463e ffaa 123e 2310 983d
00000260: 5369 37bd 7326 8abd d73f 573e 42d6 10bd
00000270: b88e 473e b4fc 2abe 1c2d 49be ec10 433e
00000280: 9062 e63d caab 43be 53ef 853d 76a3 05be
00000290: a000 0b3d f34d ca3c 83b5 d3bd f938 04bb
000002a0: 0c73 cbbd c87b 063e a003 07be 227a 583e
000002b0: 1c96 e1bd d350 353e 0cab 423e 10b5 923d
000002c0: 44e3 8a3d ec4e 3cbe 0b71 a2bc 825e de3d
000002d0: a671 adbd d3d0 6abd 3225 50bd 829c 6cbd
000002e0: ab77 8fbd 485d c03d 1beb 5a3d 2266 9fbd
000002f0: df00 d9bd f05f 19be 9307 55be da77 4ebd
00000300: 3fd1 f9bc ddc3 a53d 1e2f e6bd f1b8 963d
00000310: d965 87bd d513 b13d 6c02 313e 2295 183e
00000320: 31f7 4b3e 0698 863d a009 593c 79b2 d83d
00000330: c745 43be 1c1e 323e a210 c4bd ccd1 57be
00000340: 661f de3d 93c7 0dbe 9da7 043d c3a5 b7bd
00000350: ac1e 5cbd 72d3 19bc dd89 1d3e 7ea7 56be
00000360: a234 d5bd 5ef3 c43d 42df 3c3e d3bd 4b3e
00000370: 4434 38be af43 b3bd f7d4 69bd bf61 7cbd
00000380: d1bd 013d 5fd0 b03d 4d7f 13bc f039 363d
00000390: cb31 383e 2018 44be 9f1a c73d e396 c9bd
000003a0: 7ace 0c3c 114d 1a3e c8f8 9a3d f5d4 c13c
000003b0: 25e6 ebbd b1b3 6d3d b7d2 b6bb dd15 563e
000003c0: b024 303e 86a7 5abd 8136 fe3d 4bd4 883d
000003d0: 6d6d fc3d 9f17 7fbd 4346 47bc 5251 7c3d
000003e0: 05a5 203d 83ca 2fbe 703b 5f3d 750c 523e
000003f0: 652c eabd 1a63 1c3d 394e 12bd ddf1 01be
-0.03759087 0.061438434 0.021955693 0.008571689 0.04033938 0.17493412 0.15265098 0.055615272
-0.06715802 0.13253084 -0.027923588 0.08522088 0.0979111 -0.12799026 -0.02404929 0.06745531
0.21024568 0.063473396 0.105164275 -0.04507192 -0.20740561 0.053805687 0.023245323 0.0007421983
0.054432955 0.06276485 0.011006 -0.08644159 -0.20033456 -0.010707012 0.22409227 0.059288617
0.057187293 0.004149065 -0.027742619 0.13863271 -0.095213346 -0.06285419 -0.16502067 -0.21002276
0.12930037 -0.024944635 -0.18038382 0.15330812 0.011165553 -0.054805744 -0.01785121 -0.09303518
-0.17220783 -0.0029596682 -0.056380935 0.1783771 -0.081372365 -0.07192963 -0.015017855 -0.10696375
0.0988198 -0.11914948 -0.1175135 -0.052477572 0.15324283 -0.042720497 -0.12852986 0.037080117
0.050433815 0.04633342 0.17611495 0.10053933 -0.113992505 0.11983279 0.1621823 0.09056403
-0.2194508 -0.052788936 -0.14049232 -0.12386769 -0.20070805 0.040083397 -0.11065496 0.07780933
-0.11101216 0.16175382 -0.14270964 0.14819904 0.19082601 -0.120269634 0.18903454 -0.20218062
0.058993228 -0.123124 0.18324043 -0.017030653 -0.1966895 0.061795924 -0.06533357 -0.09910037
0.14484727 0.18925638 0.19083144 0.06944702 0.22504647 0.0980335 0.22733502 0.13395636
-0.010348822 0.12414846 0.1121356 0.11019544 -0.006706952 -0.13563547 0.1829017 -0.21619909
-0.15880908 -0.04149739 -0.04866879 0.13185613 0.041153412 -0.1504747 0.17049511 0.049460474
-0.18902923 0.21772888 -0.21154219 -0.07816154 0.18085973 0.07209216 0.10912703 -0.08616304
-0.1989389 -0.07002134 0.10583153 0.14549673 0.08525795 -0.07257586 0.11722665 0.16669708
-0.19371337 -0.0755378 -0.15928377 -0.18278739 0.091385506 0.16849495 -0.036692847 -0.054657247
-0.0058953892 -0.18331899 0.15246472 -0.019943161 0.12740494 0.19349377 0.14323042 0.07424953
-0.04477818 -0.06745615 0.21020447 -0.035360582 0.19488037 -0.16697961 -0.19646114 0.19049424
0.11249268 -0.19108501 0.06539788 -0.13050637 0.033936143 0.024695372 -0.10337355 -0.002017556
-0.09934053 0.13133156 -0.13184977 0.2114034 -0.11014959 0.17706613 0.19010562 0.07163441
0.06781629 -0.18389481 -0.019829294 0.1085787 -0.08468942 -0.057328057 -0.050816722 -0.057766445
-0.07005247 0.09392792 0.05344687 -0.07783152 -0.10595869 -0.14978004 -0.2080367 -0.050407268
-0.030495284 0.080939986 -0.11239456 0.073594935 -0.06611223 0.08646361 0.1728608 0.1490064
0.19918515 0.06571965 0.013246924 0.10580916 -0.19069587 0.17394298 -0.09573485 -0.21076125
0.108458325 -0.13845663 0.03238641 -0.089671634 -0.05374019 -0.009388791 0.15384622 -0.2096233
-0.104104295 0.09616731 0.18444541 0.19896631 -0.17988688 -0.08753144 -0.057087865 -0.061616655
0.031675164 0.08633494 -0.009002519 0.044488847 0.17987745 -0.19149828 0.097218744 -0.098432325
0.00859415 0.15068461 0.075669825 0.023661116 -0.11518506 0.058032695 -0.0055793184 0.20906778
0.17201495 -0.05338242 0.124127395 0.06681117 0.12325559 -0.062278386 -0.012162748 0.06160099
0.039219875 -0.17167096 0.054500043 0.20512564 -0.11434249 0.038180448 -0.03571913 -0.1268992

atom_encoder.atom_embedding_list.6.weight f4 [6, 128]
00000000: 6dc2 95bd bc86 563e 838f 183e dc41 08be
00000010: c2cd 563e fe51 053d 3ce2 16bd 2bc3 2cbc
00000020: 1041 91bc d5ee 21be 8bc0 233d 3f5f 483e
00000030: cc0d dfbb fb3d 72be 1a07 f43c 6155 b03d
00000040: 8557 23be 8784 1cbe 263e 26be 839c 97bc
00000050: 8c43 333e 15b7 663b e77b e93d 6d8c cbbd
00000060: ed92 4a3e 02c0 173e 1a32 c6bc 396f 293e
00000070: 3735 26bd c152 4e3e 9a0c 83bb 9a38 a1bd
00000080: 75b5 713e ac95 f1bd d809 1a3e 2d77 4ebd
00000090: ded1 c8bb 9447 0e3d eb1d 28bb a0dc 553e
000000a0: dd96 33be 1c3c 9bbd 5515 283b 7a20 c13c
000000b0: efe9 363d 3c3f 513e 4dae 553e 9d07 19bd
000000c0: 1138 4bbd 1dc4 83bd a4d1 3fbe 0332 35be
000000d0: 9212 cc3d d6e5 39be 95af 843d 70d1 ecbd
000000e0: 414c 483c 439c 47be 9df5 a0bd a9fb 223c
000000f0: 6551 38be e226 92bd 3f8a abbd e69d b13d
00000100: 0649 3b3d f5c7 8dbc 252c bfbd 8e1b 803c
00000110: adb0 00be fe16 90bd 6815 92bc 5811 54be
00000120: ac2f b83d 514e 0e3e abb9 2abd 3593 603d
00000130: d897 1fbd 88d5 83bc 58b1 26be 8972 713e
00000140: 70b5 e9bc ade1 18be 85f8 c23d 975d 793e
00000150: 70c5 4e3e f4dc 94bd f6d2 243d b05e 45bd
00000160: 8b2f 06bd db2c 68be 082e 0c3d 3cd3 533e
00000170: 691b d03c 6976 38be 4c55 5dbc 077f 163e
00000180: d4fc f1bc d4a8 0d3e 29d9 1fbe 8f07 7a3e
00000190: 643d 46be f8dd 413e c0f8 c2bd 9bc1 d03d
000001a0: 3029 963e 47cc a13d 8ff9 b3bc 16d9 8d3e
000001b0: e8a9 c83d 832f 9f3d 5deb 5d3c 6b7c 253e
000001c0: c4c7 663e a315 a83d eaec c93d 8f54 5f3e
000001d0: c7c0 ec3d 9ea4 fdbd 934b 223e 49af ddbd
000001e0: 9198 bd3c c072 30be ff46 f53d c626 d3bd
000001f0: 59ab 43bc e7b4 93bc c2fe 963e 7ca1 823d
00000200: 768c cabd 2742 3a3d 5446 a0bd 7a3b 3b3e
00000210: 250a 243e efea 113e 1de2 09be a0f3 903d
00000220: a1ca 42bd dc36 afbd f908 f53d c80d 063d
00000230: c56f 8fbc aa5b 383e 7e79 abbd 68e2 1b3e
00000240: 3a2c 223d c45b 493e fade 643d c50a 06bd
00000250: 21d4 fa3d 4ded adbd 970a 34be 654c 08be
00000260: b40b 663d 5ab2 1abd 35f1 373e 4add 1a3e
00000270: f6af 38be 6d9f 393e 4f17 fdbd aec7 ebbc
00000280: 2fef 25be 3fe6 b8bc 9031 213e 2cc7 073e
00000290: 9f50 fc3b 1a82 583e d00d 663e cbb9 f1bd
000002a0: 8fd0 ff3c bfe6 f33b c4aa 813c 3030 293e
000002b0: 1187 dfbd ef3b c03b 2173 a93d 8328 02bd
000002c0: 3bb3 a13d 4e76 433d 59b0 dc3d 2b4f 43bd
000002d0: 4c4b 133e 6a6e 193d 79ed 80bd 0c49 18be
000002e0: 6398 203e f200 fe3d 1140 503e 6d1d 4ebe
000002f0: e492 40bd fba4 43bd a6da 473e e255 3c3e
00000300: d37c 2cbd 2c40 593e 8ba1 ff3d 0eaa 0fbe
00000310: d1cd 83bd b39a 173e 9689 c53b eb3a 52be
00000320: beaa 813d 975d 563e 865f d03d 2305 45be
00000330: 33c3 7d3c 3c3d b13d e9f3 9fbc 7021 35bd
00000340: eee8 3ebe 45d8 e5bb db08 f4bd b08c 0dbe
00000350: 8079 753b f5d7 903d dc0b 18be 4cf7 c5bd
00000360: e919 4b3d d9a8 2fbe 3a9d 41be 7253 06be
00000370: bf60 3abe 096c 3e3e 605f 483e e2eb a03d
00000380: 0f93 cb3d 8890 f43d 4c19 fa3d 1f47 b8bd
00000390: 6496 32be f707 9a3b da07 c4bd a81c 083e
000003a0: f567 583d edd8 dfbd abe1 c4bd 138d 183b
000003b0: 8926 c0bd e10b 063d a3b6 45be a1b8 13be
000003c0: 2c52 683d de24 23bc c9c3 7cbd 68f7 923d
000003d0: 626d 5cbd a17a 283e 2f34 34be 945b b53d
000003e0: 6843 a2bb 4207 053e bbe3 31be b1fa 553d
000003f0: 5072 2fbd 49c5 c9bd d58a 053d 9aa6 3a3c
-0.073124744 0.20949835 0.14898495 -0.13306373 0.20976928 0.032548897 -0.036836848 -0.010544579
-0.01773122 -0.15813763 0.039978545 0.19567584 -0.0068070646 -0.23656456 0.029788543 0.08610035
-0.15951355 -0.1528493 -0.16234645 -0.018507248 0.17506236 0.003520434 0.114005856 -0.099388935
0.1978261 0.14819339 -0.024193812 0.16546334 -0.040578093 0.20148756 -0.003999305 -0.07872124
0.23604377 -0.11796126 0.15042818 -0.050406624 -0.0061285337 0.03473623 -0.0025652598 0.20884943
-0.17538019 -0.07579824 0.002564748 0.023575056 0.04465669 0.20434278 0.20867272 -0.037360776
-0.049614016 -0.0643389 -0.18732315 -0.17694859 0.099644795 -0.18154082 0.06478802 -0.115633845
0.012225212 -0.19493203 -0.07859347 0.009947696 -0.179998 -0.071363226 -0.08375978 0.08672695
0.045723937 -0.017307261 -0.09334592 0.01563814 -0.12567396 -0.070356354 -0.017832473 -0.20709741
0.08993468 0.13897063 -0.041680973 0.054827888 -0.03896317 -0.01609303 -0.16278589 0.23578848
-0.028528899 -0.14929838 0.095200576 0.24352108 0.20192504 -0.07268706 0.04024025 -0.048186004
-0.032760184 -0.22673361 0.034223586 0.20686048 0.025403695 -0.1801392 -0.013509106 0.14696895
-0.029539503 0.13833934 -0.15610184 0.24416946 -0.19359356 0.1893233 -0.095201015 0.10193177
0.293283 0.07900291 -0.021969585 0.27704686 0.09798032 0.07772734 0.0135448845 0.16160743
0.22537142 0.08207252 0.09859641 0.218096 0.11560207 -0.12384914 0.15849142 -0.108244486
0.023144038 -0.17231274 0.11976432 -0.1031013 -0.011942708 -0.018030597 0.2949124 0.06378457
-0.09890072 0.045473244 -0.07825914 0.18284407 0.16019495 0.14249776 -0.13465162 0.07077718
-0.047556523 -0.085553855 0.11964602 0.032727987 -0.01750935 0.18003717 -0.08372782 0.15223086
0.03959296 0.19663912 0.05587671 -0.032725114 0.12247492 -0.08492527 -0.17582165 -0.13310392
0.056163505 -0.037767746 0.17963107 0.15123478 -0.18035874 0.18127222 -0.123579614 -0.028781738
-0.16204523 -0.022570727 0.15741563 0.13259572 0.0077000405 0.2114338 0.22466207 -0.11803015
0.031227378 0.0074432786 0.015828498 0.16522288 -0.10914434 0.0058665196 0.08273912 -0.031776916
0.078955136 0.047720246 0.10775823 -0.047682922 0.14384192 0.037458815 -0.06295294 -0.14871615
0.15683131 0.12402524 0.2033694 -0.20128413 -0.047015086 -0.04776476 0.19517002 0.18392137
-0.04211123 0.21215886 0.12481984 -0.14029714 -0.06435741 0.14805107 0.0060283644 -0.20530288
0.063313946 0.20934139 0.1017447 -0.19240241 0.015488434 0.08654258 -0.019525485 -0.04422134
-0.18643543 -0.0070143067 -0.119157515 -0.138232 0.0037456453 0.070724405 -0.14848274 -0.09666309
0.049585257 -0.17154254 -0.18907633 -0.1311777 -0.18200968 0.185959 0.19567633 0.07857491
0.099401586 0.1194163 0.12211856 -0.0899794 -0.17440182 0.0047006565 -0.0957181 0.13292181
0.052833516 -0.10930047 -0.09613355 0.0023277446 -0.0938235 0.032726172 -0.19307952 -0.14425899
0.05671899 -0.00995752 -0.061710153 0.07176095 -0.053815253 0.16453029 -0.17598031 0.08855358
-0.004951883 0.1299105 -0.17372029 0.05224103 -0.042833626 -0.09852082 0.032603104 0.01139226

atom_encoder.atom_embedding_list.7.weight f4 [2, 128]
00000000: 449d 593d 24a7 42bd fea9 38bd de30 2fbe
00000010: 6e69 df3d c297 07be 9236 3c3e 1184 01bd
00000020: a538 9e3d 3590 3dbe 233d 37bc 51bc 8e3d
00000030: 2297 8ebd 4794 32be 8e97 6fbd 2e84 f2bd
00000040: a013 8b3c cac4 edbd b3ef b53c 109e d2bd
00000050: 3742 90bd feec 033d fa0e d8bd 58a9 423d
00000060: 5858 d7bd c96b f7bc ca9a 3e3e a590 aebd
00000070: 97af 27be a97e eebd fb58 d3bd 8e64 2ebd
00000080: 657a 1c3e 0032 65bd 223e 0c3e af43 093e
00000090: 833d 7c3d 2abc a53d 9dc9 3e3d eecd 3bbe
000000a0: f89b e23d bc49 bfbd 40ec 2bbe 4b02 3c3e
000000b0: 0cd7 18be ea42 49bd 8bb9 49be c406 2fbe
000000c0: da16 a73d 06d3 993b 9754 0e3e b898 a8bd
000000d0: 5560 cebd 40dd 9bbd f261 473e ea52 fa3d
000000e0: ed46 5cbe e58d 26bc 8a26 d6bd 12fd 0b3d
000000f0: cd5b bdbd eebe 3dbe afa0 3abe e84d 87bd
00000100: ebbf 33be 938d 4abe fedc 57be 4a87 8bbd
00000110: def9 c5bd d494 883d 6b5d 433e 9afc ed3d
00000120: 510f 2cbe c129 693c 0684 c1bd c344 acbc
00000130: c790 873d 70f5 6fbd 30f8 463e 12d0 bfbd
00000140: fd0c 1bbe d9c0 98bd c506 3abe 9ad7 dfbb
00000150: 858e 15be 434e 1b3e 65a4 5abe cbe4 12be
00000160: 631e 0bbe 0d37 a3bd f454 a73b 5958 7cbe
00000170: 31c4 953d 7389 283d 8127 b5bc 98e6 04bc
00000180: 75eb f93d 0408 bfbd 9739 eabd 8789 993d
00000190: 45ed 093e d13a 373e ff8a 06be 7c91 31be
000001a0: 9bb8 13be 37f6 cebd 5191 2dbe eb55 f33c
000001b0: b6c0 8f3d e612 a53d 3d23 c13c d937 cfbd
000001c0: 953a 1e3e eb4e 4a3e 1c3a b7bd 44aa 453e
000001d0: 2eb6 803d 0a9d 023d c3ba f63d 824e c4bd
000001e0: f850 a43d 714a 7cbd 73f3 1a3d 4277 3f3e
000001f0: a8d8 28bc 10e1 4ebe eb2a d5bd 4b04 8dbd
00000200: ccd7 be3d 1333 c03c aace 80bd feae 2b3e
00000210: 98a5 2d3e 9a75 eebd ef98 e6bd 6393 933d
00000220: 3232 c03d cf03 ae3c c235 2d3e 6599 ffbc
00000230: ca04 17bd 3d46 fabd c686 343e 3904 03be
00000240: 9d7a 0d3e a9fe 3abe 4b05 393e 511a 3f3d
00000250: 2120 21be 3bbd abbd 7806 403d 96cf 453e
00000260: d77d 50bd 8148 61be cf79 55be 3afe 1fbe
00000270: 4f6d ce3d 48ce 1b3e 1507 3fbe 98d9 0f3e
00000280: 8cb0 e63d fa81 373e 77fc 25be acf7 1dbe
00000290: bafa 3ebe 355d e9bd ae53 bd3d c337 ad3d
000002a0: a454 58bd c3b2 08be 64f5 a33d 4d6e 643d
000002b0: d244 f13c 5371 1dbd 42e3 423e da81 973b
000002c0: a1f9 2abe dd84 9cbd a5f8 393d b3a2 b23d
000002d0: fd2a 8bbc 61e4 2cbd 4db8 3bbb ac7a 11be
000002e0: 9261 2e3e efb5 14be aa5f 4b3d 6f23 133e
000002f0: 19b0 21be b092 2abc 9770 00bd aeab dfbc
00000300: 7ffa 633d 8c91 fbbd cfc2 8ebb 4312 02be
00000310: 0589 e03d 66f0 92bd de98 c13d b762 4a3d
00000320: bc56 e93d 3efe 06be f52e 54be 31b3 ae3d
00000330: 6d5c 35be 0184 4dbc a223 ebbd b511 1abe
00000340: d3b8 54bd 1b8c 80be 1a86 983b 88e7 9ebc
00000350: 34c6 8bbd 72b1 aebd b739 8e3d 63ef 1fbc
00000360: c9ba b53a 5673 ce3c c0d0 9e3d eb37 53bd
00000370: 5f95 273e 4f79 f03d f5cd 20bd 4102 23be
00000380: 5f78 2d3e 4478 af3d 5df2 38be 452a 24bd
00000390: 4af3 713e 4567 da3d 9774 0a3e c504 e6bd
000003a0: 26e2 4c3d e583 10be 83cd adbd 6edb f23d
000003b0: 15bf 8fbd 416a 56be 1a7a 17be efd2 b3bb
000003c0: f614 cbbd 51d7 be3d 3067 a1bd 8e70 b93c
000003d0: 044a 0dbe 70f3 8abd 9b56 133d 8bee cabd
000003e0: 2105 dcbd f384 7bbd 00be d33d 11be 143e
000003f0: 3c0e 793d f730 503d 8bc2 a6bd 257f 0bbe
0.053128496 -0.04752268 -0.045083992 -0.17108485 0.10908781 -0.13241485 0.18380192 -0.03162009
0.07725648 -0.18512042 -0.01118401 0.06969512 -0.0696242 -0.17439376 -0.058494143 -0.118416175
0.016977131 -0.116098 0.022209024 -0.10284054 -0.070438795 0.032208435 -0.105497316 0.04752478
-0.10514897 -0.030202763 0.18613735 -0.085236825 -0.16375576 -0.11645252 -0.10319706 -0.042576365
0.15281065 -0.055955887 0.13695577 0.13404725 0.0615821 0.0809253 0.046578992 -0.18340275
0.11064905 -0.093402356 -0.16789341 0.1836025 -0.14925784 -0.04913608 -0.19699685 -0.17092425
0.081586555 0.0046943454 0.13899456 -0.08232254 -0.100769676 -0.076105595 0.19470957 0.12222846
-0.21511431 -0.010165666 -0.104565695 0.034176894 -0.09246025 -0.18529865 -0.18225358 -0.06606656
-0.1755368 -0.19780569 -0.21080396 -0.06812914 -0.09666799 0.06669012 0.19078605 0.116204455
-0.16802718 0.014231146 -0.094490096 -0.021028882 0.06619411 -0.058583677 0.19430614 -0.09365858
-0.15141673 -0.07458658 -0.18166645 -0.0068311216 -0.14605148 0.15166573 -0.21351774 -0.1434509
-0.1358581 -0.079694845 0.0051065627 -0.24643077 0.07312811 0.041146707 -0.022113563 -0.008111618
0.12203113 -0.09327701 -0.11436766 0.074969344 0.13469417 0.1789353 -0.1313896 -0.17340654
-0.1442589 -0.101055555 -0.16949965 0.029704055 0.070191786 0.08060245 0.023576373 -0.10118074
0.15452035 0.19756667 -0.0894663 0.19303232 0.06284748 0.031888045 0.12047341 -0.09585287
0.08023256 -0.06159443 0.037829828 0.18697837 -0.010305561 -0.20203042 -0.104085766 -0.068855844
0.09318504 0.023461854 -0.06289418 0.16765973 0.169577 -0.116435245 -0.112596385 0.07205846
0.09384574 0.02124205 0.16915038 -0.031201074 -0.0368698 -0.12220428 0.17629537 -0.1279458
0.13816305 -0.18261208 0.18068425 0.046655957 -0.15734912 -0.08385702 0.04688117 0.19317469
-0.05090126 -0.22000314 -0.20847248 -0.15624323 0.10079443 0.15215409 -0.18655045 0.14047849
0.112641424 0.17920676 -0.16209589 -0.1542651 -0.18650332 -0.11394731 0.09244476 0.08457901
-0.052815095 -0.13349442 0.08005789 0.055769254 0.029451761 -0.038438153 0.19032004 0.004623634
-0.16696788 -0.07642529 0.04540314 0.08722439 -0.016988272 -0.042209987 -0.0028643787 -0.14206952
0.17029408 -0.14522527 0.04965178 0.14368986 -0.15789832 -0.01041095 -0.031357374 -0.027303543
0.055658814 -0.1228362 -0.004356719 -0.12702279 0.109636344 -0.071747586 0.09452985 0.049410548
0.113934964 -0.13182923 -0.20721038 0.08530272 -0.17711039 -0.012543679 -0.11481406 -0.15045817
-0.051934075 -0.25106892 0.004654658 -0.019397512 -0.068249136 -0.08529939 0.06944602 -0.009761664
0.001386487 0.02520148 0.0775466 -0.051567 0.16365574 0.11741888 -0.039258916 -0.15918829
0.16940449 0.08567861 -0.18061204 -0.040079374 0.23627964 0.10664228 0.13521038 -0.112313785
0.05002036 -0.14112814 -0.08486464 0.11858259 -0.07018868 -0.2093897 -0.14792672 -0.0054877917
-0.09916107 0.09318412 -0.078810096 0.022636678 -0.13797766 -0.06784713 0.035971265 -0.0990878
-0.10743166 -0.061406087 0.10338974 0.1452563 0.06080459 0.050827947 -0.08142575 -0.1362272
