logs/dict/ogbg-molbbbp-GCN-64-5-128-0.0001-0.5-0.0-cls-48.pth (torch, 402148 bytes, 43 tensors)

atom_encoder.atom_embedding_list.0.weight f4 [119, 128]
000000 fe 3e 7b 3d 69 31 49 3c 98 73 96 3e a4 f5 aa 3d
       0.06133937 0.012279847 0.29385066 0.083476335
000010 2c fb 3d be 1d ac fb 3d e1 64 de 3e 17 3f 2e be
       -0.18552846 0.122886874 0.4343634 -0.17016254
000020 aa 9d 93 3d e3 0d 25 3e 78 00 d8 bd 27 eb 81 3e
       0.072078064 0.16118579 -0.105469644 0.2537472
000030 07 4c a2 3e ce 82 01 bc 3f 81 de bd af c8 29 3e
       0.3169863 -0.007904721 -0.108644955 0.16580461
000040 b6 cb d5 39 a0 3f c0 3d c3 d3 cd bd 51 56 06 3d
       0.00040778302 0.093871355 -0.10050156 0.03279716
000050 a4 82 b6 bc 24 1c 82 bd 58 1f 3e 3e b6 86 94 3e
       -0.022279091 -0.06353024 0.18566644 0.29009026
000060 39 10 8d bd 3e 42 6d be 4d e4 bc bc fd 27 ac 3d
       -0.0688786 -0.231698 -0.023058081 0.08406065
000070 31 ae 7d 3e cd 5b 96 3c 43 a5 c5 3d ce 1c e0 bd
       0.2477348 0.01835432 0.09650662 -0.10942994
000080 77 3f db bc 8a 26 e9 3d ca 8b c0 3c 3a 45 54 3e
       -0.02676366 0.11384304 0.023504157 0.20729533
000090 fc 93 80 bd 82 cf 7d 3e df e1 5f be 80 27 1c 3e
       -0.06278226 0.24786189 -0.21863507 0.15249443
0000a0 f9 2c 90 bd f8 f0 67 bc 3a c3 d6 3c 37 f5 9c 3d
       -0.07039828 -0.0141565725 0.026216138 0.076639585
0000b0 09 b6 13 3e 7e 6c e0 3d b3 05 79 bc 06 48 3b 3e
       0.1442491 0.10958193 -0.015199113 0.18289194
0000c0 a6 00 a8 3e ce 6a 2b 3d 73 37 94 be 90 8a 43 3d
       0.32812995 0.041849904 -0.28948554 0.047739565
0000d0 7b 38 1e 3e e0 25 3b 3d 5e 12 d3 bd 58 b1 39 3e
       0.15451233 0.045690417 -0.10306238 0.18134058
0000e0 ba c2 03 be a1 b5 78 be 21 a8 88 be 94 b1 a0 be
       -0.12867251 -0.24288036 -0.26690772 -0.3138548
0000f0 1c c8 4c 3e 1f 93 b7 bd 67 d7 fd bd da 3a c0 bd
       0.1999821 -0.08963608 -0.123946 -0.09386225
000100 c7 ac 21 be 50 e2 83 bd e8 c4 ef 3d c2 59 bf 3d
       -0.15788566 -0.0643965 0.11707479 0.09343292
000110 dd 27 e7 3d b9 c2 63 3e 20 56 f1 3d 69 c5 86 bb
       0.112869 0.2224225 0.11784005 -0.0041128886
000120 7a 68 cc bd a5 e2 dd 3d 58 52 2a 3e 16 de 93 bd
       -0.09980865 0.10834245 0.16632974 -0.07220094
000130 16 9e 77 3c bf 24 47 3c 0f af db bd 91 3c 0f be
       0.015113374 0.012154757 -0.10726749 -0.13987948
000140 b5 51 c8 bd 21 b3 9b 3d 7c 97 84 bd 48 b5 90 3c
       -0.097812094 0.076025255 -0.06474206 0.017664567
000150 32 80 02 bd 2a e1 4b 3d b4 ff ac 3d 3f df 54 bd
       -0.031860538 0.04977528 0.08447209 -0.051970717
000160 80 53 67 bd b4 c2 e0 3d 71 23 24 be 87 f9 9c bd
       -0.056476116 0.10974637 -0.16029145 -0.07664781
000170 36 cd 3a 3e 20 04 2d be 7a b3 86 be e5 53 aa 3b
       0.18242344 -0.16896105 -0.26308805 0.0051979893
000180 e2 ed 7d 3d 88 80 8c 3e 52 0e b2 3d 2e 5b 67 bd
       0.06199444 0.27441812 0.08694138 -0.05648344
000190 d1 f2 d6 bd d0 61 ac 3d 19 14 91 3d d4 81 fa bd
       -0.10495532 0.08417094 0.070839114 -0.12231794
0001a0 15 26 12 bc fb 06 05 bc 93 c0 a6 bd 9e db 47 be
       -0.008920212 -0.00811934 -0.08142199 -0.19517371
0001b0 59 4b 88 be 55 df 25 be e9 06 fd bc eb ad 6e 3e
       -0.26619986 -0.16198476 -0.030887084 0.23308532
0001c0 62 a5 7b be 24 92 a3 3c 89 f3 88 be cb 47 bf 3d
       -0.24574807 0.019967146 -0.26748303 0.09339865
0001d0 76 d5 17 3e d9 97 44 bd 4e 67 8f bd 45 5a 25 3e
       0.14827523 -0.047996376 -0.07002126 0.16147716
0001e0 a5 7d 3c be 1b c1 3e be b3 90 60 bd ea b4 19 3e
       -0.18407305 -0.18628351 -0.054825496 0.1501042
0001f0 3a c7 06 be f1 92 24 be 8a 1e 45 be 47 7c 1a be
       -0.13161936 -0.16071679 -0.19249931 -0.1508647
000200 04 c5 f1 bd 65 be 75 bc 65 e6 67 3d 8c 45 12 3e
       -0.11805156 -0.014999007 0.056616206 0.14284343
000210 27 e1 f9 3d 42 2b 9e 3b bb a1 ab 3b 04 7b f9 bd
       0.122011475 0.004826934 0.0052377856 -0.121816665
000220 d3 03 04 bd 3f 5b e4 bd 5d e8 0a 3e 3e 16 94 3d
       -0.03223021 -0.11150216 0.13565202 0.07230805
000230 46 53 b0 bc 10 07 a6 3d ec d4 47 3d 4f 0f 86 bc
       -0.021524083 0.08106816 0.048787042 -0.016364722
000240 9b 4a 99 3c 48 7b 0a bd 6f 1f dc bd f4 9f 23 3d
       0.018712332 -0.033808976 -0.10748183 0.039947465
000250 e2 ea 4b 3d 4e c3 51 bc 79 e6 de 3a f8 42 13 3e
       0.04978455 -0.012802912 0.0017005942 0.14381015
000260 e0 d0 6e bd 19 e8 08 bd 1b 94 12 3e bc 66 3e 3c
       -0.058304667 -0.03342447 0.1431431 0.0116211735
000270 d1 05 af bd ec 68 18 3e df 47 af bd ce c7 98 3d
       -0.08546031 0.14883775 -0.0855863 0.07459985
000280 08 37 fc 3d 84 ad 0e be b7 18 e6 3d 92 32 a1 3c
       0.12315184 -0.13933378 0.11235183 0.019677434
000290 cb 40 63 bd 8f aa 05 be 6f f7 64 bd 60 5e e1 bd
       -0.055481713 -0.13053344 -0.055900034 -0.11004329
0002a0 dd be dc 3d a5 6f 49 3c 8b 12 06 3d e9 b4 d7 3d
       0.10778592 0.012294685 0.032732528 0.10532553
0002b0 15 84 db 3d 6b bf 88 3b f7 7c 15 3e 5f f7 d1 bd
       0.10718552 0.0041732094 0.14598452 -0.102522604
0002c0 c5 f7 fe 3d 29 dd 1d be cb 2a f6 3c 20 fe de bc
       0.12449602 -0.15416397 0.030049702 -0.027220786
0002d0 31 31 81 3d c1 70 13 be 6b 50 10 3e c9 1c 19 bc
       0.06308211 -0.14398481 0.14093177 -0.009345242
0002e0 e0 a3 e4 3d b8 1f 13 3e f1 9f 33 3d 32 49 ff 3d
       0.11164069 0.14367568 0.043853704 0.12465133
0002f0 91 8d f6 bc 11 83 83 3d ce a8 0e be 8b aa 0f be
       -0.030096801 0.06421483 -0.13931581 -0.140299
000300 4b 78 1c be 56 4c c2 bc 90 4a 30 3d 2d a9 1b be
       -0.15280263 -0.02371804 0.04303986 -0.15201254
000310 da f9 02 be 52 1b c4 bd 70 29 1f be 14 db be bd
       -0.12790623 -0.095755234 -0.15543151 -0.093191296
000320 71 78 cb 3d 90 9e 48 3c 4f c9 81 bc b6 2a a3 bd
       0.09935082 0.0122448355 -0.015843062 -0.07967131
000330 1a 94 a0 bc bc 5a 11 3d d7 8b 9e bd 3e 40 85 3d
       -0.01960187 0.03548692 -0.07741516 0.06506394
000340 33 fc d0 bb cc fe 38 3b 20 00 34 3d f7 41 bb 3b
       -0.0063777207 0.0028228043 0.04394543 0.0057146507
000350 80 52 09 3e 72 c6 20 bd 94 e6 bb bd c2 14 0f be
       0.13410378 -0.039251752 -0.09174839 -0.13972762
000360 63 ad 25 bd b1 91 01 be 89 3e 48 3d b8 b5 fd bd
       -0.040448558 -0.12653233 0.048887763 -0.12388176
000370 b9 7c a9 3c 81 2f d8 3d c9 ba 8e bd 9a be 88 3c
       0.020689355 0.10555936 -0.0696922 0.016692448
000380 31 9f 12 3d fe 04 30 3c e7 13 0e be bb 7e b2 3d
       0.035796348 0.010743378 -0.1387478 0.08715578
000390 9b 97 17 3e 57 69 24 bc da 94 f2 3d 08 65 d3 3d
       0.14803927 -0.010034881 0.118447974 0.103220046
0003a0 83 c9 72 3d fa a5 17 3e 56 fa ab bc 58 33 f4 3d
       0.059274208 0.14809409 -0.020993393 0.119238555
0003b0 dd 3f c5 bd a6 da ad 3d 03 c7 0e 3e 9d 14 db bd
       -0.096313216 0.084889695 0.13943104 -0.10697291
0003c0 ff 55 35 3d ae 95 e0 bd bf 7f be 3d 6d 44 30 3d
       0.044271465 -0.10966049 0.093017094 0.043034006
0003d0 42 ac 95 bd b0 b1 38 3d f8 61 0b bd 29 40 b2 bd
       -0.07308246 0.04509133 -0.034028977 -0.08703644
0003e0 09 39 e0 bc be 67 3a 3d 00 40 08 3e 7d de b1 bb
       -0.027370946 0.045509093 0.13305664 -0.005428134
0003f0 2b f5 c4 3d ce 85 e2 bd 4b 31 d9 bd 7b 31 86 bd
       0.096170746 -0.110606775 -0.10605105 -0.065524064

atom_encoder.atom_embedding_list.1.weight f4 [4, 128]
000000 2d 43 5a be 14 fd 29 be 33 93 49 3d 93 1f d2 bd
       -0.21314688 -0.16600448 0.049212646 -0.102599286
000010 2f 97 13 3e ab 65 7f bd 43 78 2f be 58 9f 55 3e
       0.1441314 -0.062352818 -0.1713572 0.20861566
000020 2f b5 60 3d 93 65 2c 3d 75 b0 af bd 31 33 41 3e
       0.05486029 0.042089056 -0.085785784 0.18867184
000030 24 59 a3 bd b9 88 7c 3d 7a 82 8a 3d 7d ff 1d 3e
       -0.079759866 0.061653826 0.06763168 0.15429492
000040 74 38 1d 3e 7f d6 00 be c3 1c 11 3e 41 ad 33 3e
       0.15353566 -0.12581824 0.14171128 0.1754656
000050 97 21 86 3d 9d 48 05 be f7 f1 52 3e c9 5b 95 bd
       0.065493755 -0.13015981 0.20600115 -0.07292897
000060 32 01 76 bd 50 0b b1 bd c1 cb f8 3d 54 5c 57 be
       -0.060059734 -0.08644736 0.12148238 -0.21031314
000070 c3 8a 10 3e 60 39 e1 bd e5 09 58 bd 6b 2e d3 bd
       0.14115433 -0.109972715 -0.05274381 -0.10311588
000080 bf b3 76 bd 58 a5 4c 3e 93 6e 96 3d cf 0d e8 3d
       -0.060230013 0.19984949 0.07345309 0.11330759
000090 31 93 67 bd 56 8f 01 be 84 55 2a 3d c5 69 63 bc
       -0.056536857 -0.12652335 0.04158546 -0.013880198
0000a0 f6 39 f6 3d 58 90 26 3e c2 05 1b 3e 18 21 c1 3d
       0.12022774 0.16266 0.15138915 0.0943014
0000b0 d5 a6 35 be f9 c1 66 bd db 9d d5 3c 05 fb ef bd
       -0.17739423 -0.05633733 0.026076248 -0.117178
0000c0 e5 61 15 3e c6 b4 26 3c 6c 22 1a bd fb 9d 60 3d
       0.14588125 0.010174936 -0.037630484 0.054838162
0000d0 0e 74 51 bd e3 1e 30 be 8f 46 6a 3e 9a 33 27 bd
       -0.05113607 -0.17199282 0.22878478 -0.040820695
0000e0 d0 02 24 3e d7 86 8a 3d b1 0a 09 be 52 7f 77 bd
       0.16016698 0.06764 -0.13382985 -0.060424156
0000f0 90 1e 15 3c 45 1a 07 3e 0c d0 1b 3e e8 41 91 bd
       0.009101525 0.13193615 0.15216082 -0.07092649
000100 12 c6 6c be 4e 0a e3 3d 61 ff 48 3e bb d8 06 be
       -0.23122433 0.1108595 0.1962867 -0.13168614
000110 85 d8 5f bc 43 78 2c 3e f9 0f 75 be f7 81 27 3e
       -0.013662462 0.16842751 -0.23931874 0.16358171
000120 5e b3 55 3e 47 5d db 3d d0 b0 28 3d d6 90 e8 bd
       0.20869204 0.107111506 0.041184247 -0.1135575
000130 3a 85 a5 bb a4 3d 0a 3e ff 54 0b 3e 4a 1a 22 be
       -0.0050512822 0.13500077 0.13606642 -0.15830341
000140 f8 8b f0 bd 32 fd 1e 3e 40 6a 22 3e a8 7e 24 be
       -0.11745447 0.15526274 0.15860844 -0.1606394
000150 44 ec 05 be 69 a7 cb bd ef 6e 2e be 0b b3 d9 bd
       -0.1307841 -0.0994404 -0.17034505 -0.10629853
000160 db 6c 48 bd 7d ab 74 bb b5 53 29 be 82 f7 bd bc
       -0.048931938 -0.003733366 -0.16535838 -0.02318931
000170 ea 05 16 be ab 30 b4 3d 9f 7a 41 3e dc 20 84 3d
       -0.14650694 0.08798345 0.18894432 0.0645158
000180 26 36 73 bd d8 0d b4 3d f0 e6 f1 bd 2f d8 10 3d
       -0.05937781 0.08791703 -0.11811626 0.03536242
000190 d3 39 3a 3e 70 c7 65 3d 91 80 14 be 13 f6 1d be
       0.1818612 0.0560984 -0.14502169 -0.15425901
0001a0 5c 89 ef bd 6b a4 4b be 29 69 3f be ae e5 d9 3d
       -0.11696121 -0.19886939 -0.18692459 0.10639511
0001b0 f4 79 44 3c f6 7c ae 3d ae 2d db 3d 3b c6 d1 bd
       0.0119919665 0.08519928 0.10702072 -0.102428876
0001c0 af 52 9e bd af 59 52 3d 91 f4 fd bd aa 1e 00 3e
       -0.077306144 0.05135506 -0.12400163 0.12511697
0001d0 2e 19 d7 3d 91 da 0a 3e a0 07 61 3d f0 7f a7 bd
       0.105028495 0.13559939 0.054938912 -0.08178699
0001e0 9a 34 43 3e 53 f4 f2 3d 76 3f eb bd 06 10 f1 3d
       0.19063035 0.118630074 -0.114867136 0.11770634
0001f0 02 ca 37 3e ac 43 66 be 1c 4a 12 3e 7c 7e 39 be
       0.17948154 -0.22486752 0.14286083 -0.18114656
000200 9b 45 5a be dc a0 03 3e 5a d2 3c bd fd 54 27 3d
       -0.21315615 0.12854332 -0.046099044 0.040852536
000210 a9 17 fc bd cb a9 6d 3c cf c8 27 be 53 27 0d be
       -0.123092 0.014505814 -0.16385196 -0.13784532
000220 b8 a3 65 bc 67 cb 02 be 28 31 f6 3d 33 36 14 be
       -0.014016084 -0.12772904 0.120210946 -0.144738
000230 ff 80 04 3d 58 c4 4b 3d 68 01 15 3e 91 e8 5b 3e
       0.032349583 0.049747795 0.14551318 0.21475436
000240 02 ff 02 3e d3 15 08 3e ec 89 e9 3d 18 57 44 bc
       0.1279259 0.13289575 0.1140326 -0.011983655
000250 da 1f 41 bb 3a 69 08 bd 11 4f 29 be 07 a7 38 be
       -0.0029468448 -0.033303477 -0.16534068 -0.18032466
000260 5e 95 1a 3e 2e cd 29 3e d2 08 08 3e 5b f9 98 3d
       0.15096042 0.16582176 0.13284615 0.07469436
000270 ba 58 0a be e0 c3 1e 3d b1 43 6d bd b0 df a9 bd
       -0.13510409 0.03876102 -0.057925884 -0.08294618
000280 be f0 00 3e 30 be 98 bd 43 fe 11 3e 96 35 33 3e
       0.12591836 -0.074581504 0.1425715 0.1750091
000290 90 04 2c be 9b f1 b0 3d 52 c9 9a bd be 3d 08 be
       -0.16798615 0.086398326 -0.0755793 -0.13304803
0002a0 42 fa e5 3d 8b f8 b3 3d 74 a2 e9 bb d7 d9 9a 3c
       0.112293735 0.0878764 -0.0071299616 0.018902702
0002b0 70 60 9a bd 48 47 88 bd b7 6c ee 3d 5d 78 43 bc
       -0.07537925 -0.06654221 0.116418295 -0.011930552
0002c0 f1 ea fa bb 47 71 1b 3e d4 47 81 3c 74 c8 7d 3e
       -0.0076574017 0.1517993 0.01578132 0.24783498
0002d0 e7 c3 21 be f5 7f e5 bd b9 81 d2 3d c8 ad a3 bd
       -0.15797387 -0.112060465 0.10278649 -0.079921305
0002e0 1f d7 45 bc c5 79 02 3e 46 a3 0d 3e 13 43 97 3c
       -0.012075215 0.12741764 0.13831815 0.0184646
0002f0 f4 86 85 bd 94 e1 df 3c e6 47 3a 3e 59 48 2c be
       -0.06519881 0.027329244 0.1819149 -0.16824473
000300 02 35 be 3c cb b6 1d 3d 1a a8 51 bc e1 8b 04 be
       0.023218635 0.038504403 -0.012796426 -0.12943985
000310 74 e5 12 3d ba 10 99 3d b3 93 f7 3d 6f 01 8b 3d
       0.035863355 0.074738935 0.12088718 0.06787383
000320 13 f2 37 3d f7 ce 43 3e 26 f8 83 3e e8 ba c6 bd
       0.044908594 0.1912192 0.2577526 -0.09703618
000330 99 e3 7d 3c 40 ce 41 3e 32 b4 5f 3d 2a 1a 72 be
       0.015496158 0.18926334 0.054615207 -0.23642793
000340 dc 19 e4 3d 3d 61 cf bc 9c ac 3b be 47 15 e1 3d
       0.11137745 -0.025314922 -0.18327564 0.109903865
000350 ba a4 84 be be 46 4b be 10 76 6d be e8 44 12 bc
       -0.25906926 -0.19851205 -0.23189569 -0.008927561
000360 6d a2 52 3d 2d c7 8f bc 01 2e 95 3c 3d 7b 40 3e
       0.051424433 -0.01755103 0.018210413 0.18797012
000370 5b aa 73 bd cd b0 50 3e 7f 81 0c 3e 35 12 15 be
       -0.059488636 0.20379944 0.13721274 -0.14557727
000380 22 ca 19 bd 21 c0 e0 bc d4 e0 35 bc e1 70 1e 3e
       -0.037546284 -0.027435364 -0.0111009665 0.15472747
000390 1e ce ba 3b d6 a7 b0 3d 58 8d 6a 3d 87 f7 e1 3d
       0.0057008406 0.08625762 0.057263702 0.1103354
0003a0 51 60 d1 bd f7 d8 46 3d ed c5 7d bc 39 08 9b bd
       -0.10223449 0.048546758 -0.015489084 -0.07569928
0003b0 fa ad 51 be d0 48 26 3e da af 06 3e d3 92 98 3c
       -0.20476523 0.16238713 0.1315302 0.018624699
0003c0 38 f8 af 3b 87 c4 57 be e7 4d bf 3d d4 68 ef bd
       0.005370166 -0.21071063 0.093410306 -0.11689916
0003d0 bb e9 c2 3d e6 0b 63 be cd 17 0c be d0 23 c1 bd
       0.09517237 -0.22172508 -0.13680954 -0.09430659
0003e0 1f 74 61 bd a6 57 06 be 11 d9 4a 3e 4f 17 11 3e
       -0.055042382 -0.13119373 0.19809367 0.14169048
0003f0 79 35 8a 3d a0 05 0b 3d 57 cf 2e bd 89 ac 88 3d
       0.0674848 0.03394091 -0.042678203 0.066735335

atom_encoder.atom_embedding_list.2.weight f4 [12, 128]
000000 c6 9b db 3d f2 d5 0c bd a1 92 00 be 1e 81 20 be
       0.10723071 -0.03438372 -0.12555934 -0.15674254
000010 fd c8 a4 bd 0d e1 bf 3e 61 b8 c5 3c 3f 44 64 bd
       -0.08046148 0.37476388 0.02413577 -0.055729147
000020 ce 74 0c bd 81 d5 be bd b0 f3 21 be 24 29 2c 3e
       -0.03429108 -0.093180664 -0.15815616 0.16812569
000030 bc ec ab 3d 23 e1 a0 3e 66 86 90 3e 15 33 16 3e
       0.08394763 0.31421766 0.28227538 0.14667924
000040 90 f9 04 3e 83 4b 02 3e fa b8 76 3e c8 81 7c 3c
       0.12985826 0.12724118 0.24094 0.015411802
000050 ea 9b 7d 3e 1c 40 4d bc cf 24 ae 3d 50 06 83 be
       0.24766508 -0.012527492 0.085031144 -0.25590754
000060 06 0e a3 3e 01 2e 82 3e 61 3e 86 be 92 e0 2a 3e
       0.31846637 0.25425723 -0.26219466 0.1668723
000070 1d e9 20 3d 4a b4 98 be d9 7d d4 3d a3 fc 6f be
       0.039284814 -0.2982505 0.10375566 -0.23436217
000080 26 2f e0 bb 35 1f 98 be 68 fd fe 3d 4f 99 20 3d
       -0.006841558 -0.2971131 0.12450677 0.039208706
000090 b9 c7 92 3d 87 37 21 be 1e 07 ef bd b1 53 aa be
       0.07167 -0.15743838 -0.11671279 -0.33266976
0000a0 14 c5 52 3e 20 2f 2d be 34 3d 08 be 73 b4 0f 3e
       0.20582992 -0.16912508 -0.13304597 0.1403368
0000b0 cd 54 8c bd 0c b9 67 bc ea ff 5d be 5c 68 95 be
       -0.06852112 -0.01414324 -0.21679655 -0.29181182
0000c0 cf 0d 1f 3e c6 2b 06 bd 17 46 33 3e 1a 90 fe 3d
       0.15532611 -0.03275659 0.17507206 0.12429829
0000d0 3d 24 81 bc 31 f5 ec bd 9f 33 72 bd 0b 50 a9 be
       -0.01576435 -0.11570204 -0.05913126 -0.3306888
0000e0 17 e0 4e bd de 9e 2a be 9c 44 d5 bd be 97 07 3e
       -0.050506677 -0.16662166 -0.10413477 0.13241479
0000f0 42 8e 63 3d bd 4e 0c 3e 01 41 79 3e 09 16 eb 3d
       0.05555559 0.13701911 0.24341203 0.11478812
000100 9a f7 59 3e 32 4e 6d bd d0 39 17 3e 9b 70 58 bd
       0.21285859 -0.0579359 0.14768147 -0.052841764
000110 83 0c 8a bd dc 92 49 be 0b 28 ce bc 23 a7 44 3d
       -0.06740668 -0.19684929 -0.025165578 0.048010956
000120 49 5a 01 3e 06 08 9a 3b d1 3e 5b 3e 74 f0 7d be
       0.12632097 0.0047006635 0.21410681 -0.24798757
000130 7b 99 72 3e 24 fa 86 bd a1 f4 7b bd 5c 0d 31 3d
       0.2369136 -0.06590679 -0.061512593 0.04322563
000140 d5 33 8c bc bb 92 34 3e c8 92 c8 bd d0 ac 01 3e
       -0.01711456 0.17634098 -0.09793621 0.12663579
000150 a8 4b 77 be 33 f3 7c bd 02 98 8b 3c fb 29 b0 3e
       -0.24149954 -0.06175537 0.017040256 0.3440703
000160 a4 b1 54 be b9 2a 77 be 84 27 35 3e e7 dd 73 be
       -0.2077089 -0.24137391 0.17690855 -0.23815118
000170 37 a8 10 3d 69 a5 cc 3d 12 35 17 be 5e 9e 64 3b
       0.035316672 0.09992487 -0.14766338 0.0034884433
000180 67 77 a8 3d 16 56 d7 3c b4 2b 8e bd ee 04 9b bd
       0.08225899 0.026286166 -0.069419295 -0.075693
000190 fe f4 6a bd be 02 49 3d dd f1 ce 3d 50 e9 a7 bd
       -0.05736255 0.04907488 0.101047255 -0.08198798
0001a0 23 a7 ff 3d 1b ad 01 3e a8 4b 37 be f7 b3 96 3d
       0.12483051 0.12663691 -0.17899954 0.07358544
0001b0 24 24 97 bd ca 1b 6a bd ed 63 99 3d 0a 2a 73 3d
       -0.0737994 -0.057155408 0.074897625 0.059366263
0001c0 4e c8 86 3e 06 14 fe bd d5 6f bb bd a3 2a 78 3e
       0.26324695 -0.12406163 -0.0915219 0.24235015
0001d0 ba f0 05 be 28 be 67 be 8f 19 85 3e b3 84 48 bd
       -0.13080111 -0.22631133 0.25996062 -0.048954677
0001e0 36 ff 13 3e e3 89 c1 3d 96 b6 05 bd c7 d4 b9 bd
       0.14452824 0.09450128 -0.03264483 -0.09073787
0001f0 9a b6 9e be 6d ef 6b 3e 35 24 af be 7c c9 0f 3e
       -0.3099869 0.23040552 -0.3420731 0.14041704
000200 c7 9c bd 3d be c1 61 bd 8c 3d 06 be 6e 99 52 3d
       0.092584185 -0.055116408 -0.13109416 0.051415853
000210 e1 a8 fd 3d 25 bf 8c 3b ca 8d 1d 3e 5b 0b 1c be
       0.12385727 0.004295247 0.1538612 -0.15238707
000220 1c ca 6e bd 9a a9 2f 3e 7c 47 87 bd 9c 37 46 3e
       -0.058298215 0.17154542 -0.066054314 0.19357151
000230 3c 3e 6d be 33 87 7b bd d9 60 54 bd db 76 1f 3e
       -0.23168272 -0.061408233 -0.051850174 0.15572684
000240 e7 18 dc bd 91 c7 db bc 8c 29 27 3e 19 57 36 3e
       -0.10746937 -0.02682856 0.16324443 0.17806663
000250 66 be 25 be 09 44 a1 3c c6 be 55 3d f9 78 7e 3d
       -0.16185912 0.019685762 0.05218389 0.062127087
000260 7a e5 c9 bd 4e f0 00 bd fd 76 33 be 92 b1 c7 bd
       -0.09858222 -0.031479172 -0.17525859 -0.09750666
000270 3d 75 2c 3d c6 f9 0d 3e 20 78 bb bd d3 d9 dc 3b
       0.042103995 0.13864812 -0.091537714 0.006739834
000280 8b 85 27 3e 49 3c 29 bd d5 03 8a bc 71 3d d4 bd
       0.16359536 -0.041317258 -0.01684753 -0.103632815
000290 b2 b9 4b 3e ec 27 ad bb 93 c4 b4 3b 01 27 31 3e
       0.19895056 -0.0052843 0.0055165975 0.17300035
0002a0 1d 26 e8 bb ff 1a bc bd 2c 14 ea bd 25 ac 3c be
       -0.0070846216 -0.091848366 -0.11429629 -0.18425043
0002b0 8c 12 37 3e a3 59 06 3e 4c f5 28 3d ea f6 ef bd
       0.17878169 0.13120131 0.04124956 -0.11717017
0002c0 22 3b d6 3d e1 e4 1d be ff bf 81 bd 7e b1 26 be
       0.104604974 -0.15419342 -0.063354485 -0.16278645
0002d0 82 4d dd 3c 0b 76 86 bd 93 97 4d 3e 25 25 39 3e
       0.027014498 -0.06565484 0.20077352 0.18080576
0002e0 17 3a 08 be d5 06 43 bd bf c9 40 3e 1d d1 5c bd
       -0.1330341 -0.047613937 0.1882696 -0.053910363
0002f0 2a ea 56 3e 6b b2 58 3e b1 02 bb 3d ca 40 c6 bc
       0.20987764 0.21161811 0.09131373 -0.024200816
000300 0c 80 0e be 31 04 d8 3d b8 de 01 be 30 a7 2c be
       -0.13916034 0.105476744 -0.12682617 -0.16860652
000310 78 a8 80 bd 06 7d 1f be de 5b a0 bd 5f 1a a9 bd
       -0.06282133 -0.15575036 -0.07830022 -0.08256983
000320 7e de a1 3d 01 e9 1a 3e 7f b5 da 3c cd 9e 1d be
       0.07903765 0.15127946 0.026697872 -0.15392609
000330 22 fe b2 bc 8c 1e 1d be 27 5a 1b be 3f 8d d8 3c
       -0.021849696 -0.15343684 -0.15171109 0.026434539
000340 4a ee ec 3d 92 54 72 3d 54 a2 a7 3d 12 04 49 3d
       0.115688875 0.059162684 0.081852585 0.049076147
000350 d5 c3 d8 3d 91 ec 21 be 86 88 e1 3d 5a 1f 29 3e
       0.10584227 -0.15812899 0.11012368 0.16515866
000360 dd fd ab bd 00 1f 2f be 3f 9b 03 be ac e4 d6 3d
       -0.0839803 -0.1710167 -0.1285219 0.104928344
000370 6c 36 2b 3e 5b b4 80 3d fd 72 1e 3e a0 e9 06 3e
       0.16719979 0.062844 0.15473552 0.13175058
000380 53 4a e5 3c dd 17 cc bd 63 61 03 3e 92 83 b4 3d
       0.027989542 -0.09965489 0.12830119 0.088141575
000390 d2 eb e6 bd 5e ea 97 3d c8 5e 38 be 79 53 49 3e
       -0.11275448 0.07417749 -0.18004906 0.19660749
0003a0 5a e2 50 3e 52 c1 41 be f7 10 33 3e af 43 e7 3d
       0.20398846 -0.18921402 0.1748694 0.112922065
0003b0 3c 8e 2f be b3 65 e4 bd 07 93 90 3d db b6 ce 3d
       -0.17144102 -0.1115221 0.07059293 0.10093471
0003c0 07 a1 58 bc 34 4a 33 be dd 4f be bd 33 18 9f bb
       -0.013221986 -0.17508775 -0.092925765 -0.0048551797
0003d0 f3 55 38 3e 0e 2b 76 3d 8a 96 26 be 5d 9f 43 3e
       0.18001537 0.060099654 -0.16268364 0.19103761
0003e0 09 d9 75 be 41 71 f6 3d f5 7c 15 3e 21 83 46 bd
       -0.24008574 0.1203332 0.14598449 -0.048464898
0003f0 01 66 1a 3e d6 24 39 be b0 c7 5e bd cf 1c 17 be
       0.15077974 -0.18080458 -0.054389656 -0.14757083

atom_encoder.atom_embedding_list.3.weight f4 [12, 128]
000000 f1 92 e9 bc a1 53 92 3d 5c 5f d1 3d 64 d7 d3 3c
       -0.02851245 0.07144857 0.102232665 0.025859542
000010 ba bb b1 bd 2f 26 41 be 02 21 27 3e 60 54 cf bc
       -0.08678384 -0.18862222 0.16321185 -0.025308788
000020 c2 ad d8 bd 18 ed 02 3e 06 64 2e be 23 db 39 be
       -0.10580017 0.12785757 -0.17030343 -0.1815
000030 6d 9f 0c bd 54 3f 07 be c7 1b 13 3b 3b b6 b8 3d
       -0.034331728 -0.13207752 0.0022446977 0.09019133
000040 80 a6 9b 3d c7 96 45 be 06 f8 b1 3d 05 9b 1d bd
       0.07600117 -0.19295798 0.08689885 -0.038477916
000050 97 bc 15 bb 9f 9e 4b 3c 14 75 97 3c 59 48 0c be
       -0.0022848004 0.012427955 0.018488444 -0.13699473
000060 17 e0 ef bd eb 45 34 3e 55 40 3a 3d 2a 64 4a 3e
       -0.117126636 0.17604797 0.045471508 0.19764772
000070 9b df 4c bb 5f 6d e3 3d 75 0b b9 3d 06 a3 36 be
       -0.003126121 0.11104845 0.090353884 -0.17835626
000080 3e f3 48 3e a2 a1 8d bd 2d c0 e9 3d 71 76 ec bd
       0.1962404 -0.06915595 0.11413608 -0.115460284
000090 43 ae 45 be 4f 80 49 3e ea bb 99 bd f1 54 39 be
       -0.19304757 0.19677852 -0.07506545 -0.18098809
0000a0 c6 5c 24 be b0 0e c6 3d 5b 34 09 3d ed fe 2e 3d
       -0.16051015 0.0967077 0.033497196 0.042723585
0000b0 39 d1 e8 bd cb 35 08 3e 7a 14 50 be d3 8f 15 be
       -0.11368031 0.1330177 -0.20320311 -0.14605646
0000c0 90 53 e8 bc b8 0b c9 bd fc 5e 4f bd d9 89 9a bd
       -0.028360158 -0.09816688 -0.050627694 -0.075458236
0000d0 1a 8a 4c be 24 55 00 3e 4a 72 06 bd ee 95 03 be
       -0.19974557 0.12532479 -0.03282384 -0.12850162
0000e0 9b 1e 19 3d 03 69 0d 3c e4 af d1 bc ab 33 35 3e
       0.037382703 0.008630994 -0.025596566 0.17695491
0000f0 05 b0 cf 3d 2d 62 c7 3d 9d 5d b1 3d 5b 3e b6 bd
       0.10140995 0.097355224 0.086604334 -0.08898612
000100 ad 94 1e be d9 82 01 3e 00 09 f4 3c 06 3e 03 bd
       -0.15486403 0.1264757 0.029789448 -0.032041572
000110 17 d7 3e bc 88 ec 1b 3e b9 c7 32 3e 62 1f c4 bd
       -0.011647961 0.15226948 0.17459 -0.09576298
000120 db f3 8a bd 88 4a 3a 3e 07 27 2e 3e 73 4d 23 bc
       -0.06784793 0.18192494 0.17007075 -0.009967196
000130 06 d4 2c 3e 1e a6 1d 3e cf 3b db bc ce fc 0e bb
       0.16877756 0.153954 -0.026761917 -0.0021818164
000140 d1 45 98 bd e8 2c b5 bd 88 42 29 3e 9b 23 18 be
       -0.074351914 -0.08846456 0.16529286 -0.14857332
000150 be 69 52 3d 93 5e 1b 3e 69 58 2a be 1d ac b4 bd
       0.051370375 0.15172796 -0.16635288 -0.088218905
000160 95 77 d6 3d 56 6d c6 bd 81 af 0d bb 21 b5 16 3e
       0.10472027 -0.09688823 -0.00216195 0.14717533
000170 0c 05 ea 3d eb 5f 2c be 5e 1c 13 3e a8 ab 83 bd
       0.11426744 -0.16833465 0.1436629 -0.06429225
000180 07 26 40 be ff 03 88 3d f7 c0 12 be 55 b8 20 be
       -0.18764506 0.06641387 -0.14331423 -0.15695317
000190 4f 4c 17 3e 50 be ae 3c 0f 2c f1 3d 51 51 4e 3e
       0.14775203 0.021330982 0.11775982 0.20148207
0001a0 5f cc 22 bd dd e1 29 bc c8 90 a3 3d f9 92 0d be
       -0.039745685 -0.010368791 0.07986599 -0.13825597
0001b0 47 dc 37 3e 7a 53 2f 3e a4 ac 53 3b aa af 04 be
       0.17955123 0.17121688 0.0032298947 -0.12957636
0001c0 54 e1 27 be 4f 23 b5 bd e6 15 32 bd f5 94 f6 bd
       -0.1639455 -0.08844625 -0.043477915 -0.1204013
0001d0 1b f8 00 be 66 e6 13 3d 07 36 53 3e fb c0 dc 3d
       -0.12594645 0.036108397 0.20626079 0.107789956
0001e0 e6 7e 3e 3c a0 f7 3b be 0e 85 d4 bd 96 ed ad 3b
       0.011626935 -0.1835618 -0.10376941 0.0053078635
0001f0 b9 0e 34 be d5 b2 00 3e df cd 84 3d 72 58 2c 3e
       -0.17583741 0.12568219 0.06484579 0.16830614
000200 bf 2e 2d 3e fd cf ce 3d 7b eb 0f 3e 9e 09 6f bd
       0.16912363 0.10098264 0.14054672 -0.05835878
000210 e8 1e 1b 3e 99 eb e9 3d d4 3f 26 3e e1 f7 5e 3d
       0.15148509 0.1142189 0.16235286 0.054435614
000220 5b 2c fc 3d 69 5b 03 be 3d 14 da ba c6 3a c4 bc
       0.12313148 -0.12827839 -0.0016638112 -0.023953807
000230 d5 43 18 3e 00 f7 12 3e 93 67 18 3e 86 6b bd 3d
       0.14869626 0.14352036 0.1488326 0.09249024
000240 70 74 2c be 15 8c 51 be cd 0f 0b bd a1 97 01 3d
       -0.16841292 -0.20463593 -0.033950616 0.031638745
000250 fa 5c 41 be c2 bb 50 3e 00 c8 b4 3d a9 27 c6 3d
       -0.18883124 0.20384124 0.088272095 0.09675533
000260 2e 62 b1 3b e5 83 81 3d 42 5e 4a ba 13 03 f9 3d
       0.0054133153 0.06323985 -0.0007719734 0.121587895
000270 70 e9 c7 bc 69 59 3f 3e 82 be 83 3c a5 08 e1 3d
       -0.024403304 0.18686451 0.016082052 0.10987977
000280 50 2c 45 be e9 04 f4 bd fa f3 dd 3d b5 79 5b 3d
       -0.19255185 -0.11914999 0.108375505 0.053582866
000290 70 09 52 3e 10 7d be 3d 64 a2 46 3e a4 98 14 bd
       0.20511413 0.093011975 0.19397885 -0.036278382
0002a0 5a 4f 43 3e 27 8a b0 bd 17 9b 3b 3d c6 b2 39 3e
       0.19073239 -0.086201005 0.045802202 0.18134603
0002b0 89 46 eb 3d 66 80 c7 3d e8 04 b6 bd 1d 26 83 3d
       0.11488063 0.09741287 -0.088876545 0.06403754
0002c0 a3 5a b6 3d 22 45 7c bc 6d 7c b9 bd d5 57 32 3e
       0.08904006 -0.015397342 -0.090569355 0.17416318
0002d0 9a 38 c0 3d c4 16 43 3e 4a a6 3f bd de a0 65 bd
       0.09385796 0.19051653 -0.046789445 -0.056061618
0002e0 49 3f e3 3d 03 ce 3a bd b1 d8 1a be 75 2d b6 bd
       0.11096055 -0.045606624 -0.15121724 -0.08895389
0002f0 ba 9c fc 3d 8c 78 1c bd 30 10 9d 39 9d d6 4e bd
       0.12334581 -0.0382009 0.00029957434 -0.05049764
000300 0d bb 13 bd 1a 9b 31 3e 3b 7f bd 3d ee e6 23 bd
       -0.036067057 0.17344323 0.09252783 -0.040015154
000310 bb bf ef 3d 9c 98 d0 3d a9 15 50 3e 0a f2 05 be
       0.117064916 0.10185358 0.20320763 -0.13080612
000320 ca 62 02 be 44 35 22 be 0f 06 36 bc 9b 8f 42 3e
       -0.12732998 -0.15840632 -0.011109843 0.19000094
000330 0b ec ea ba 16 a2 8b 3d 2d d6 61 bd 6b 4c ec 3d
       -0.001792313 0.06818025 -0.055135895 0.11538013
000340 3a f7 d4 3d d3 21 3d be fa 14 4f 3e d7 05 5d 3d
       0.10398717 -0.18469934 0.20222846 0.053960647
000350 3f 54 37 be ff 8e 43 3e fb 33 28 3e 66 f7 03 3e
       -0.17903231 0.19097517 0.16426079 0.12887344
000360 e1 e1 48 be d2 f9 38 3e d1 ad 1d be 76 0a e2 bd
       -0.19617416 0.18064049 -0.15398337 -0.110371515
000370 42 16 f1 bd a5 59 df 3d 99 71 0c 3e 1c b2 fd bc
       -0.117718235 0.1090577 0.13715209 -0.030968718
000380 57 14 9a bc d7 15 ec 3d 07 ce 14 3d 5b dd 88 3c
       -0.018808527 0.11527603 0.036329295 0.016707113
000390 ad 5b 02 3d 23 ac 88 3d 31 fc 03 be 38 e7 ff 3d
       0.03182571 0.066734575 -0.12889172 0.12495273
0003a0 b4 08 69 bd ef 8c ad 3d ae 01 b5 3c 0c fe 8c 3d
       -0.056893066 0.084741466 0.022095527 0.06884393
0003b0 7e 88 1d bd 86 64 4f 3e 72 15 cd bd 6a 62 03 be
       -0.038460247 0.2025319 -0.10013856 -0.1283051
0003c0 70 c9 26 3e d4 88 0c be c8 b8 37 be 00 f0 0a 3e
       0.1628778 -0.13724071 -0.17941582 0.13568115
0003d0 37 4d e2 3c f1 e8 31 be 7f 3c 27 be 6b 72 41 bb
       0.02762471 -0.17374016 -0.16331671 -0.0029517661
0003e0 2a eb 0e 3e 9a 4b 08 be 50 84 20 3e 59 1e 41 3e
       0.13956895 -0.1331009 0.15675473 0.18859233
0003f0 39 0a bf bc 9f dd 05 be f4 51 0f be a4 9a 45 be
       -0.023320304 -0.13072823 -0.13996106 -0.19297272

atom_encoder.atom_embedding_list.4.weight f4 [10, 128]
000000 bc 6e 01 3e cc c2 8b 3c 57 55 f1 3c c4 6d f9 bd
       0.12639898 0.01706066 0.029459639 -0.12179139
000010 67 a6 39 3e 37 af aa 3d 26 ce 82 3d c8 0c 33 3c
       0.18129884 0.08334201 0.06386976 0.01092834
000020 5c 0f ff bd 2c f0 c9 3d 81 0b f8 3d 76 ba 0e 3d
       -0.124541014 0.09860262 0.12111569 0.03484579
000030 b9 6c ea bd e8 88 de bc e3 cb f4 bc c2 21 58 3d
       -0.114465185 -0.027164891 -0.029882377 0.05276657
000040 2d 2d 21 3e 30 2e 3e be 26 dc 9c bc e1 fd 28 3e
       0.1573989 -0.18572307 -0.019147944 0.16503097
000050 cf a1 fa bd 91 ca 07 be 66 89 3c 3e c6 ba c2 bd
       -0.12237894 -0.13260867 0.18411788 -0.095082805
000060 67 c6 b0 bd fc 1d fd bd 1f d5 72 3d c5 da fa 3d
       -0.08631592 -0.12359235 0.05928528 0.12248758
000070 02 92 1f 3e ea e7 cb 3d 9c 46 4b be b0 aa 22 be
       0.15583041 0.099563435 -0.19851154 -0.15885425
000080 fe 48 30 be a4 8d 29 be af 70 34 3e 0a 4a 86 bd
       -0.17215344 -0.16557938 0.1762111 -0.065570906
000090 7f d7 16 3d f0 51 08 3e bf 1b 4a 3e 27 74 33 be
       0.036826607 0.13312507 0.19737147 -0.17524777
0000a0 1b 5c 46 be 6a 1c fe 3d ae db 33 be 97 da 09 be
       -0.19371073 0.12407763 -0.1756427 -0.13462292
0000b0 b4 38 df 3d 39 90 5e bc 57 c2 06 3e cc 93 1f 3e
       0.10899487 -0.01358419 0.13160072 0.15583724
0000c0 84 81 ea 3d b7 2c 3b be 72 9d ad 3d b9 ef cc 3d
       0.114504844 -0.18278776 0.08477296 0.10006661
0000d0 91 40 25 be 86 ec e9 bd 46 9b 0a 3e 91 bb 53 3e
       -0.16137911 -0.114220664 0.13535795 0.2067702
0000e0 66 b4 7d 3d 83 22 75 3d e9 d9 bb bd 40 2e 30 3e
       0.06193962 0.059847366 -0.091724224 0.17205143
0000f0 2c bf 3f bd ba 95 b2 3d b5 14 ea 3d 7a 08 31 be
       -0.046813175 0.08719964 0.11429731 -0.1728839
000100 7f 77 06 3c fa 96 06 3d a2 cf 42 be 1b 8c 48 3e
       0.008207201 0.032858826 -0.19024518 0.19584696
000110 eb 4f 27 bd cb 82 ff 39 38 a3 00 3e 21 8b 0a be
       -0.0408477 0.00048734838 0.12562263 -0.13529636
000120 15 43 50 be df c5 d7 bd 3c 45 a5 bc b3 54 0e 3e
       -0.2033809 -0.10535788 -0.020174615 0.13899498
000130 d4 63 43 3d c5 30 4e be 97 78 24 be 7e 4f 07 3e
       0.047702625 -0.20135792 -0.16061626 0.13213918
000140 59 4a b8 3d c8 ab 05 bc a8 c7 33 3e 49 4d 20 be
       0.08998556 -0.008158632 0.17556632 -0.15654482
000150 6e e4 84 3d c3 8a 20 bd 61 46 2f 3e cf da fa bd
       0.06488882 -0.039194833 0.17116691 -0.12248766
000160 d7 31 fc 3d 7d 7c de bd 6d d5 ba bd 4c 28 75 3d
       0.12314194 -0.10863588 -0.09122739 0.059852883
000170 15 71 50 3e e1 d5 4c 3c a4 fa 57 3c 8c 28 20 3e
       0.20355637 0.012502165 0.013182316 0.15640467
000180 cc bd 14 be d9 00 0e be b7 11 f7 3d 78 f5 e8 bd
       -0.14525527 -0.13867511 0.12063926 -0.113749444
000190 84 e3 e1 bb 70 f8 a0 bd 35 27 1b be 8a 0d 70 bd
       -0.006893577 -0.07859886 -0.15151675 -0.05860666
0001a0 9c 87 e4 bb d6 80 c6 bd 18 23 ef bd 36 12 e7 bd
       -0.0069741737 -0.09692542 -0.116766155 -0.1128277
0001b0 94 01 c3 bd 4d 26 36 3e 42 3f d8 3d 2b bf ae bc
       -0.095217854 0.17788048 0.105589405 -0.02133139
0001c0 b7 ca f7 bb 98 b7 1b 3e 5a 14 07 be c9 86 1e 3c
       -0.0075620073 0.15206754 -0.13191357 0.00967569
0001d0 78 ce 66 3d 7d 72 87 3d a1 e0 3e 3e d7 ad 4e be
       0.056349248 0.06613634 0.18640377 -0.20183502
0001e0 78 29 93 bd 36 bc 28 bc d4 25 cb 3d 62 03 2f 3e
       -0.07185644 -0.010298779 0.099193245 0.17091134
0001f0 b8 7c 13 be 16 bd ce 3c e1 9a a0 bc ad 97 a7 bc
       -0.14403045 0.025236648 -0.019605102 -0.020458067
000200 ac 38 38 3e b7 8c 54 be 45 9e e9 bd 15 e0 4d be
       0.17990369 -0.20756803 -0.11407141 -0.20105012
000210 5c 59 0b 3e 9c 3c 85 3d 95 14 16 39 d1 5a dd 3d
       0.13608307 0.06505701 0.00014312782 0.108083375
000220 ea bb 38 3e 04 b4 ef 3b 7c 6c 48 be e0 3f 9c 3d
       0.18040434 0.0073151607 -0.19572634 0.07629371
000230 d7 9b bf bd 25 d0 61 3d 01 35 17 3c 7d c5 3d 3d
       -0.09355896 0.055130143 0.009228946 0.046330918
000240 75 f6 08 3e cd 51 08 3e 62 13 0e 3e ad 15 39 3e
       0.13375266 0.13312455 0.13874581 0.18074675
000250 c6 dc 0b 3e 80 36 0c be 06 43 c3 bd 29 81 e5 bd
       0.13658437 -0.13692665 -0.09534268 -0.11206276
000260 55 65 ef 3d b2 0c 7e bc 44 0d 7c be f4 e6 2c 3e
       0.116892494 -0.0155059565 -0.24614435 0.16884977
000270 89 54 59 3d 2e c3 c7 3d 99 f8 90 3d db ef 35 3d
       0.053059135 0.097540244 0.07078666 0.044418197
000280 88 2c 10 3d 69 7b 81 bd 0c aa f4 bd 4f ae aa bd
       0.03519872 -0.06322367 -0.11946496 -0.08334028
000290 25 2b 40 3e d4 8a ff 3d 55 7c 5f be 17 79 de bc
       0.18766458 0.12477651 -0.21824773 -0.02715735
0002a0 9f 95 14 bd cb 49 6a 3d 00 ac 18 be 07 cf be bd
       -0.036275502 0.05719928 -0.14909363 -0.09316831
0002b0 3e 1f ca 3d fa 6c 4c 3e ba 4d b3 bd 62 a6 61 be
       0.0986924 0.19963446 -0.087550595 -0.22036126
0002c0 c3 de 32 3e 45 dd 0c 3e 27 7a 2c be fa b9 6f 3c
       0.1746779 0.13756283 -0.16843472 0.014631743
0002d0 dd 4a 66 be 36 a5 87 be 39 8a 15 3e d1 dd b6 3d
       -0.22489496 -0.26493233 0.14603509 0.08929027
0002e0 dc b2 15 bc 30 ff 81 be b0 ec 34 be b9 86 ef 3d
       -0.009136882 -0.25390005 -0.17668414 0.11695618
0002f0 cc 7d ae 3d cb 05 b2 bd fe 3b e0 3d d3 21 c5 3d
       0.085200876 -0.08692511 0.109489426 0.09625592
000300 f4 f3 fb 3d 1f 41 ae 3d 63 99 e2 3d 04 96 1a 3e
       0.1230239 0.085085146 0.110644124 0.15096289
000310 71 e4 34 3e e2 46 82 3c 32 bb d9 3d 12 f2 5b be
       0.17665268 0.01590294 0.10631408 -0.21479061
000320 eb c1 18 be 07 4d f6 3d 29 7d 04 bd 8e 1c 1e be
       -0.14917724 0.120264105 -0.032345925 -0.1544058
000330 9f 68 12 3e dd 02 8e 3d 2f 34 56 3d 18 15 4d 3c
       0.14297722 0.0693414 0.05229586 0.012517236
000340 76 05 22 bd c1 df 37 be b3 a5 95 bd 9c 44 4c be
       -0.03955599 -0.17956449 -0.07306995 -0.19948047
000350 ba bb d3 bc eb 25 96 3d 17 52 10 3e 2a e2 b8 bd
       -0.025846351 0.07331451 0.14093815 -0.09027512
000360 5a df 73 be 18 e5 d9 3d 47 2d 45 3d f0 51 8b bd
       -0.2381567 0.10639399 0.048138883 -0.06802738
000370 75 13 1c 3e 3b e9 34 be 53 04 11 3e ed a4 04 be
       0.15241797 -0.17667095 0.14161806 -0.12953539
000380 57 89 9f 3d 53 45 a0 3d c4 ac 33 3e 42 86 b4 3d
       0.07789867 0.078257225 0.17546374 0.0881467
000390 bb cb 23 3e e5 8c fe 3d d4 8d 01 be 1a b9 2a 3e
       0.15995686 0.12429217 -0.1265176 0.16672173
0003a0 7b c5 0d be 59 52 99 3b d0 87 67 be ab bb 56 3e
       -0.13844864 0.004679006 -0.22610402 0.20970027
0003b0 27 fe 64 be f9 2f 64 3e dc 2f 70 3d da 80 3e be
       -0.22362576 0.22283925 0.058639392 -0.1860384
0003c0 a2 e5 7d 3d 89 9c 67 be 1b cf 1f 3d da ad 67 3e
       0.061986573 -0.22618307 0.03901587 0.22624913
0003d0 b3 a2 26 3e 82 9e e5 3d af f6 1b 3e 3a a5 12 be
       0.16273002 0.112118736 0.15230821 -0.14320841
0003e0 24 cf ed 3d de 3b 08 bd b7 4f 3c be 33 1c d4 3d
       0.116117746 -0.03326022 -0.18389784 0.10356941
0003f0 66 ca 64 be 55 9b 47 3e 3c 1c 29 3e 7f 82 67 bd
       -0.22342834 0.19492848 0.16514677 -0.056520935

atom_encoder.atom_embedding_list.5.weight f4 [6, 128]
000000 05 ec e3 3d a8 11 a2 3d 12 42 27 bd b5 e4 cd 3d
       0.111290015 0.07913524 -0.040834494 0.10053388
000010 21 77 c5 3d 75 62 55 be fe c0 a5 bd 98 0e 70 bd
       0.09641863 -0.2083834 -0.08093451 -0.058607668
000020 8f 3f 14 bd 22 7f c7 bd 38 10 b1 3d 3e 2c 51 3e
       -0.036193427 -0.097410455 0.086456716 0.20427033
000030 de 74 da 3d 96 82 b0 bd c2 ff 27 bd 35 2c 13 3d
       0.10666822 -0.08618657 -0.041015394 0.03593083
000040 28 29 7d bd ad 7d 12 3e 81 68 56 3d 8b 2b 17 be
       -0.061806828 0.14305754 0.052345756 -0.14762704
000050 92 f3 e9 bc 5f dd 2f bc fc a9 33 3e 20 39 5a 3d
       -0.028558526 -0.010733931 0.17545313 0.053277135
000060 67 00 67 3d b2 fb bb bd 52 b7 3c 3d 31 5c e0 3d
       0.056396868 -0.091788664 0.046073265 0.10955084
000070 6f fe 4a 3e 15 0b b4 3d 75 bc 03 3e 7e 66 fd bc
       0.19823621 0.08791176 0.1286486 -0.030932661
000080 74 fa 2a bd d6 32 35 3e 12 ee 1f 3e 46 3f b3 bd
       -0.041742757 0.17695174 0.1561816 -0.08752303
000090 08 67 82 bd 1f b2 4e be 38 f5 16 3e 19 72 0b be
       -0.06367308 -0.20185135 0.14741981 -0.13617744
0000a0 a6 0c 44 3e 94 9c 5a 3e f8 2e 04 3e dd aa c2 3c
       0.1914545 0.21348792 0.12908542 0.023763115
0000b0 90 83 29 bc 8e 39 4c 3e 59 3b 0c 3e a8 17 ff bd
       -0.010346308 0.1994383 0.13694514 -0.12455684
0000c0 d8 88 39 3e 03 1a 3e be a4 67 4d be 89 e9 57 bc
       0.18118608 -0.1856461 -0.20059067 -0.013178238
0000d0 76 9c b9 3d 95 a8 18 be 53 d9 40 be 7e aa e9 3d
       0.09063046 -0.14908059 -0.18832903 0.11409472
0000e0 5d e0 2a 3d 23 42 0b 3e ee 10 12 be c8 27 b8 3d
       0.041717876 0.13599448 -0.1426427 0.08991963
0000f0 97 8c f1 3d 39 e8 6c 3d e0 3e 4d be 9b 1b fa 3d
       0.117943935 0.057838652 -0.20043516 0.122122966
000100 d1 a9 4a 3e 21 d7 e8 bc 30 15 41 be b4 2f 10 be
       0.19791342 -0.028422894 -0.18855739 -0.14080697
000110 66 45 de 3d b4 f6 2b 3e a8 31 3f be e5 c2 b5 bd
       0.108530805 0.16793329 -0.18671286 -0.08875064
000120 18 af 81 3d 89 22 4d bd 5a a9 39 be 6e 05 13 be
       0.063322246 -0.050081763 -0.18131009 -0.1435754
000130 85 e7 db 3c 1c 9f e7 3d 2c 0c f4 3d 70 28 d9 bd
       0.026843796 0.113096446 0.11916384 -0.10603416
000140 05 bd 0c be fb ea f8 3d 88 8b e3 3d e4 1c dc bd
       -0.1374398 0.12154194 0.11110598 -0.10747698
000150 cb 87 89 bd 76 c5 f0 3d cf 99 db 3c 05 92 0e 3d
       -0.067153536 0.11756413 0.02680674 0.034807224
000160 ed 95 33 3e 98 25 58 3d ba b2 34 be 33 6a 46 3e
       0.17537661 0.052770227 -0.17646304 0.1937645
000170 52 70 23 3e 01 fd 25 be 3d db 67 3d 42 89 46 bc
       0.15960816 -0.16209795 0.056605566 -0.012117686
000180 f0 46 9b 3d dd d2 47 be a6 a8 1c 3e 9e 3d 12 be
       0.0758189 -0.19514032 0.1529871 -0.14281318
000190 1c 49 90 3d 96 6f 42 3e c8 b5 7d bc fb a7 7c bd
       0.070451945 0.18987879 -0.015485235 -0.061683636
0001a0 48 68 34 be c2 ea d5 bd 87 d8 4b be 5c cf 2d be
       -0.17617905 -0.10445167 -0.19906817 -0.16973633
0001b0 70 09 4d 3d 01 1f d2 bc 3c a1 be bc 08 8d 3d be
       0.05005783 -0.02564955 -0.023270242 -0.1851083
0001c0 13 66 38 be de 26 a6 bd 15 d7 0c 3e f9 49 ab 3c
       -0.18007688 -0.08112882 0.13753922 0.020909296
0001d0 72 51 40 3e 01 d0 0a be d4 2a 04 3e c6 bc 9c bd
       0.18781069 -0.1355591 0.12906963 -0.07653193
0001e0 05 2d dc 3d 23 53 92 bd 5a 40 b7 3d c9 73 49 3e
       0.10750774 -0.07144763 0.08947821 0.19673075
0001f0 b7 d3 0f be d3 9f d3 3d 4a c3 40 be 3e c4 2e be
       -0.14045607 0.103332184 -0.18824497 -0.17067048
000200 c0 06 d2 3d b3 20 db bd 77 fd 25 be d8 fb 86 be
       0.10255194 -0.10699596 -0.1620997 -0.26364017
000210 c3 b4 1d 3e 63 43 82 3e 06 45 15 bc 02 c0 90 bd
       0.15400986 0.25442037 -0.009110695 -0.070678726
000220 73 22 da 3e 69 96 be 3d 2b 7d 7e bd 8d 33 85 bd
       0.42604408 0.09306032 -0.06213109 -0.06503973
000230 0f ef b5 3e b7 e8 00 be b5 1f 22 be a5 98 51 be
       0.3553395 -0.12588774 -0.15832408 -0.20468386
000240 f1 e1 bd be 3d e5 9b 3e f7 4c ca be f2 bf bf bd
       -0.37086442 0.30448332 -0.39511845 -0.093627825
000250 c7 a3 bc 3e 03 79 0b 3d 69 61 70 3e f5 0d 8c bd
       0.36843702 0.034050953 0.23474659 -0.068385996
000260 ed f5 fa bd 5c 98 6c 3e d9 37 c7 3b 24 c0 44 3b
       -0.12253938 0.23104995 0.0060796556 0.0030021751
000270 a2 80 a8 3d ad 2e 44 3e 18 f7 0c 3e 53 0f 55 bd
       0.0822766 0.1915843 0.13766134 -0.052016567
000280 18 31 57 bc 98 d9 5d 3e 05 a4 a9 bc b8 81 b5 3e
       -0.013134263 0.21665037 -0.020708093 0.3545053
000290 93 eb 40 bd c1 96 16 be 9d f8 b9 be 4e 32 c6 3d
       -0.04709966 -0.14705946 -0.3632249 0.096775636
0002a0 ea 52 41 3e b0 cb 32 be bd 63 55 3e f6 02 b5 bd
       0.18879285 -0.17460513 0.20838828 -0.088384554
0002b0 47 fb 16 be 6d 4d d3 bd ea b0 8f bd 9e 7a d7 be
       -0.14744292 -0.10317502 -0.070161656 -0.42085737
0002c0 71 5e 44 bd 8e 85 46 3e 3d 63 99 3d e5 9d c5 3b
       -0.04794163 0.19386885 0.07489631 0.0060307854
0002d0 20 19 9c 3e 7d af c7 3d da 27 45 be 0e e1 97 bc
       0.3048792 0.097502686 -0.19253483 -0.018539932
0002e0 18 5f d0 3e d2 7a 4b be 9c 2e 9d bd 65 30 17 ba
       0.4069755 -0.19871071 -0.07674906 -0.0005767404
0002f0 99 c4 b6 3e 3d 08 b5 3e 3e 68 f0 bd 5e ee 14 be
       0.35696867 0.35357848 -0.117386326 -0.14544055
000300 64 88 20 be dc 25 f4 3d e5 79 a4 3e 1b 5f 90 3d
       -0.15677029 0.119212836 0.32124248 0.0704939
000310 48 4b d1 bd b0 a7 4a bd ae 6d 81 3e 50 fd 00 3f
       -0.10219437 -0.049476326 0.2527899 0.50386524
000320 d8 b4 09 3e 05 46 ad be 3a bd 50 be de 20 13 be
       0.13447893 -0.33842483 -0.20384684 -0.14368007
000330 32 8d ce be e9 83 31 be 1b f8 8c 3e c5 10 dd bd
       -0.40342098 -0.17335476 0.2753304 -0.10794214
000340 f4 87 52 be 14 d6 ab 3e 17 03 21 3e 12 f1 a3 3e
       -0.20559675 0.33561766 0.15723835 0.3201986
000350 33 f3 b7 bd 12 bf 60 3c fc c4 4a be f9 7a 93 bc
       -0.089819334 0.01371743 -0.19801706 -0.018002974
000360 0b f1 2b 3e bd 20 a4 bc d1 7b 80 3d 64 44 07 be
       0.1679117 -0.020035142 0.06273616 -0.13209683
000370 e2 ca ce 3e ef 70 97 3d 86 c3 33 3e 25 0d 96 be
       0.40389162 0.07394587 0.17555055 -0.29306903
000380 69 9e b6 be 2a 02 8d 3e 1c 0c a1 be 43 85 b6 3d
       -0.35667732 0.27540714 -0.3145455 0.089121364
000390 6c cf 07 bc bd 5f 5c be 91 10 d2 bc 8d bd 80 3d
       -0.008289199 -0.21520896 -0.025642665 0.06286154
0003a0 7a e1 83 be 31 38 84 bd 43 63 75 be 2e ac d9 be
       -0.25757962 -0.0645603 -0.23963647 -0.42514175
0003b0 88 3b 71 3e fa ad 31 3e 38 26 8d 3e 09 2f d6 3d
       0.23557866 0.17351523 0.2756822 0.1045819
0003c0 df 21 a9 3d 83 a6 38 be cb 4a 90 3d 83 88 87 be
       0.082584135 -0.18032269 0.070455156 -0.26471338
0003d0 28 49 7f 3d 12 b2 8b be a6 43 25 3e dc fb 86 3e
       0.062325627 -0.27284294 0.16139087 0.26364028
0003e0 a7 eb 80 3e e6 4f 72 be bb f1 d8 be 65 f4 ab be
       0.25179788 -0.23663291 -0.42371926 -0.33584896
0003f0 c9 7e 48 3e 82 0e 2b be b6 85 98 be ea b3 c9 be
       0.19579615 -0.16704753 -0.29789513 -0.39395076

atom_encoder.atom_embedding_list.6.weight f4 [6, 128]
000000 38 42 d1 bc a4 8d 50 3e a8 da 99 3e 43 7c dd 3c
       -0.02554427 0.20366532 0.30049634 0.027036792
000010 c7 86 e6 bd 57 e4 bd bd bf a6 04 3e ba ef 85 bd
       -0.112561755 -0.09272068 0.12954234 -0.06539865
000020 94 2b 51 be 86 a9 18 bd 70 b4 ae bd 02 79 5e 3e
       -0.2042678 -0.037271045 -0.085305095 0.21725848
000030 ad 27 4a be e0 91 91 3d ee 90 0f be d1 b2 55 3e
       -0.19741698 0.071079016 -0.1402013 0.20868994
000040 89 98 dd bd ff 0e be bd 3d 53 d3 3d 45 cf c3 bd
       -0.108201094 -0.09280204 0.10318611 -0.09561018
000050 6b 7a 5c be b8 37 4c 3e 9a 57 81 bd d2 e7 8b 3d
       -0.21531074 0.1994313 -0.06315537 0.068313256
000060 92 d1 22 3e ca 5f 2d be 6d 59 cb 3d d4 b8 12 3e
       0.15900257 -0.16931072 0.09929166 0.14328319
000070 92 cd 68 3e 34 a0 85 bd 07 1e 44 bd 64 e7 09 bd
       0.22734669 -0.06524697 -0.0478802 -0.033667937
000080 b6 e4 66 3c 06 fc b7 3d 49 9f 4b be d7 da f8 3c
       0.014092615 0.089836165 -0.19884981 0.030377788
000090 5d 72 20 3e d5 a6 df 3d d2 c6 93 b8 73 26 85 bd
       0.15668626 0.109204926 -7.0465394e-05 -0.06501474
0000a0 92 54 64 be 55 08 da 3c cc 4e 09 3e b9 f0 65 bc
       -0.22297886 0.026615301 0.13408965 -0.014034444
0000b0 fc 41 47 3c eb dc d3 bd 07 28 6b 3e af a8 c3 bd
       0.012161728 -0.10344871 0.22964488 -0.09553658
0000c0 ca 4f 89 3d 38 1a e8 bd 95 ab cf bd 9d cd d8 3d
       0.06704672 -0.11333126 -0.101401486 0.105860926
0000d0 c9 96 a0 3e 9e 48 bb bd 79 be d7 3d 37 8e 8d 3c
       0.3136504 -0.0914471 0.10534377 0.017279727
0000e0 87 24 06 3e bb e9 35 bd d5 f4 4e 3d ac 60 7a be
       0.13099872 -0.044412356 0.05052646 -0.2445094
0000f0 66 ab 7e 3e 4e cb df 3d 34 ca 04 be 36 20 0d 3e
       0.24870071 0.10927449 -0.1296776 0.13781819
000100 a0 66 86 3d 60 e3 fd bd d8 88 12 be 69 38 45 be
       0.06562543 -0.12396884 -0.14310014 -0.192598
000110 f8 48 c6 bd 44 b0 3a 3b 0d 42 0a 3e 70 a1 8b bd
       -0.096818864 0.002848641 0.13501759 -0.06817901
000120 74 3e 42 3e 35 dd cf bd e4 ec ab 3d a2 f9 a8 bc
       0.18969136 -0.10149614 0.08394793 -0.020626847
000130 d6 9e da bd 8f 64 2d 3e 2c de 21 be 60 f0 cf bb
       -0.10674827 0.16932891 -0.15807408 -0.0063457936
000140 48 78 a4 3d b3 28 f5 3d a0 49 af bd 0f d2 f3 bd
       0.08030754 0.119706534 -0.08558965 -0.119053
000150 e2 9f 86 bd 84 b1 86 3e 8d 2f 89 3d 2c d6 48 be
       -0.06573464 0.2630731 0.06698523 -0.1961295
000160 d8 7f 59 3e f5 a9 ec 3d 59 63 bd 3d 72 b8 21 3e
       0.21240175 0.11555854 0.09247465 0.15793017
000170 2c b8 f7 3c 60 10 68 3e d5 92 17 bb 87 2b c6 bd
       0.030239187 0.22662497 -0.002312829 -0.09676271
000180 16 ae 0c 3d 94 6b 96 3d 19 1a cb 3d 52 3a 32 3e
       0.03434571 0.07344738 0.09917087 0.1740506
000190 43 6f 86 bd 58 f4 80 be 13 c7 9b 3c 36 d8 a9 bd
       -0.0656419 -0.2518642 0.019015824 -0.08293192
0001a0 a5 fc 0a 3e 1f af a7 bc d0 56 76 3b d4 3c b6 3d
       0.13572939 -0.020469246 0.0037588365 0.08898321
0001b0 76 bd 85 bd 90 ce 64 3c 71 92 15 3e 20 b4 0f 3d
       -0.065302774 0.013965264 0.14606644 0.03508389
0001c0 88 43 a2 3d 63 f2 11 be 1c c6 99 3b ac 13 19 be
       0.07923037 -0.1425262 0.004692806 -0.1494891
0001d0 d3 cc a3 bd 59 85 60 3e cd 53 0e be 7d ec 1f 3d
       -0.079980515 0.21925868 -0.13899155 0.039043892
0001e0 86 d6 ae 3d 12 5a c2 bc ec 27 8e 3d 32 89 8d bd
       0.08537011 -0.02372459 0.06941208 -0.069109336
0001f0 b9 83 47 3d 24 e0 be 3c bc 4c 04 be 94 3c 03 3e
       0.048709605 0.023300238 -0.12919897 0.12816077
000200 b9 c2 5e be 30 2f 4f 3e 71 b9 42 be 30 69 24 bd
       -0.21753968 0.20232844 -0.19016053 -0.040139377
000210 07 0f ab 3d a1 b1 12 3e 56 83 87 bc 27 a9 ef 3c
       0.083524756 0.14325573 -0.016542118 0.029255463
000220 67 c7 a7 bd f0 39 22 be 0e 32 2e bd 98 12 a0 3d
       -0.0819233 -0.15842414 -0.042528205 0.078160465
000230 8f da 39 3e 31 78 1e 3e f0 5d cd bc a7 6a 2d 3d
       0.1814978 0.15475537 -0.025069207 0.04233804
000240 ea b2 28 be 2a b7 23 be a4 8f f8 3d 27 4c e5 3c
       -0.164745 -0.1598784 0.12136772 0.027990414
000250 b1 c1 0b be 33 0b 17 3e a0 eb 3a bd 83 43 c4 bd
       -0.13648106 0.14750366 -0.045634866 -0.09583189
000260 11 2e 2a be 67 48 35 3e b4 05 fe 3d 1e e8 58 3b
       -0.16619135 0.177034 0.124034315 0.0033097337
000270 d2 b2 43 3d 74 ae 67 3c a9 3f 6e bd a7 d2 09 3e
       0.04777796 0.014140714 -0.05816618 0.13459264
000280 80 08 0b 3d 3a 4f 14 3e 11 f8 bf 3c e9 29 7a bd
       0.033943653 0.14483348 0.023433717 -0.061075125
000290 ab dc 8c 3c fe d7 03 3e b7 44 bd bd 2c fa 52 be
       0.017195066 0.12875363 -0.09241622 -0.20603245
0002a0 e3 15 5a 3e 0a 43 c5 bd 1f 4a 2d be 77 fb 50 3e
       0.21297412 -0.09631927 -0.16922806 0.20408426
0002b0 3f 05 1c 3d 87 dc fd bd 9d 6f ba bd 6c de 73 bd
       0.03809094 -0.12395578 -0.0910332 -0.05953829
0002c0 07 bf 29 be 9d 28 0b 3d 27 b7 e8 3d 94 4c 6e bc
       -0.16576777 0.03397428 0.113630585 -0.014544625
0002d0 37 cb 4b 3e 9f 95 7e 3d bb 01 af 3c e3 ef 1d 3e
       0.19901739 0.06215441 0.02136313 0.15423541
0002e0 82 8b 2b bd c5 0a 01 3e 58 a7 42 be e2 75 a1 3d
       -0.041881092 0.12601765 -0.19009149 0.078838125
0002f0 b4 b1 c3 bd 75 68 53 3e ac 75 38 3e 3f 7e 94 3c
       -0.095553786 0.20645316 0.18013638 0.018126605
000300 c6 74 f0 bc a6 52 a1 3d 50 5e 35 be a6 9c 46 3e
       -0.029352557 0.07877092 -0.17711759 0.19395694
000310 13 36 f6 3c 3f 8d 98 bd 46 d1 d3 3d a0 39 1a be
       0.030055081 -0.074488156 0.1034265 -0.15061045
000320 1f 6d 36 be 59 48 43 3e 73 40 19 38 a9 fc 4f 3e
       -0.17815064 0.19070567 3.6538066e-05 0.20311226
000330 fc d7 af bc e6 a9 b6 bc 89 51 29 3e da e6 51 be
       -0.021465294 -0.02229781 0.1653501 -0.20498219
000340 53 d8 bd 3c 95 a6 4c bc 82 61 5a bd a9 6f b8 3d
       0.02317444 -0.012490888 -0.053315647 0.090056725
000350 db 78 87 bc 46 d8 3e 3e 00 99 f6 3c de 57 76 bd
       -0.01653712 0.1863719 0.030102253 -0.06014239
000360 60 40 83 3d 69 76 d4 3d 95 7b 42 3c 30 6e 1c be
       0.06408763 0.103741474 0.011870285 -0.15276408
000370 29 15 f1 bc 56 9d 13 3e 91 f9 4a 3c 55 cd 5b be
       -0.029429035 0.14415488 0.012388603 -0.21465047
000380 71 34 4b 3e 65 60 06 be 81 db b6 bc 07 bb d4 3d
       0.19844224 -0.13122709 -0.022321464 0.10387235
000390 db 90 06 3e d5 a8 4d 3d be 01 a5 3d 35 b2 26 3d
       0.13141195 0.05020984 0.08056973 0.040697295
0003a0 e7 be 3e be e6 90 c7 3d f9 c3 19 be 51 b7 99 bc
       -0.18627511 0.09744434 -0.15016164 -0.01876417
0003b0 10 b6 9b 3d 55 bc 5c 3c f2 b8 80 bd 21 a4 20 be
       0.07603085 0.013472636 -0.062852755 -0.1568761
0003c0 66 28 a3 3c 36 3e 8f bd b1 cd 3b be 98 6b 46 3d
       0.019916724 -0.06994288 -0.18340184 0.048442453
0003d0 c6 45 0e 3e ed f2 53 be 0e f0 01 3d 8a 67 0b be
       0.13893804 -0.20698138 0.031723075 -0.13613716
0003e0 cd fd ac 3d 26 e4 99 bd db 1d 5d 3d 48 b5 07 be
       0.08446846 -0.07514219 0.05398355 -0.13252747
0003f0 90 e9 08 3d 74 cb 0c be 3b 75 1d 3e 95 37 ef bd
       0.033425868 -0.13749486 0.15376751 -0.11680523
