logs/dict/ogbg-molbbbp-GCN-64-5-128-0.0001-0.5-0.0-cls-43.pth (torch, 402148 bytes, 43 tensors)

atom_encoder.atom_embedding_list.0.weight f4 [119, 128]
00000000: c2b7 75ba e43d fe3d 404d 29be 4bce c03c
00000010: 1883 013e 5ab7 a3be ff75 163a c49e 763e
00000020: f0fe e2bd 006d 053e d035 dfbc 679a 203e
00000030: 99d0 873e 6bed 473e 7982 8cbd d214 d6bd
00000040: 20a9 d33d 620e bbbd 310f 0e3d 5c89 26be
00000050: 159f 373d 581a 643d 6119 38be fa99 bd3d
00000060: 27d6 313e cb75 8abd 9aa4 813c 514a 63be
00000070: a711 7cbd 8248 9bbd c6d2 cf3b 14b9 87bd
00000080: 3b9c 43bb e0fd 48be f5c0 c5bd ddfc 103d
00000090: 4c7c 6fbe 40e9 1dbd 116b eabd 1e11 213d
000000a0: 2453 a53e 64d5 353c a0ba 3c3d d984 f1bd
000000b0: 9427 d43d a8ef 573e a2e2 eb3d 1c52 473e
000000c0: 83e8 99be 6a04 533e 8969 5e3e 453b bd3e
000000d0: 35b3 613e 3c63 18bd 88b2 b2bd d24a a8be
000000e0: b061 1fbe bfe4 18be 81b9 0a3e a404 31be
000000f0: 5af8 453e c19e 073e 83d6 173e b62a a6bc
00000100: 27e8 d43b d0bd 15be 8a1a 813d 8600 293e
00000110: 48b9 c93d a782 e03d ae0b 283e b663 94be
00000120: 3ea7 e83d d757 71bc c744 bcbd 1cdb 9b3e
00000130: 34ce 7d3e 6ee4 42be 6299 843e 820e 88be
00000140: 2611 cebb a22f c03d 1224 88be cfe2 01be
00000150: 1430 b2be 70ef 91be 2737 833e db96 bbbe
00000160: 57aa 8d3e 1533 e93d 3e35 033e e694 b73c
00000170: 0e69 4dbe 84e5 1fbd 601c cb3c 6f91 2bbe
00000180: 9c63 cbbe 8721 b4be 450b 3dbe 18f2 74be
00000190: c636 a0bd ec8c 36be 9af6 2e3e d048 2bbe
000001a0: 965b a3be 9916 91bc d57d e7bc c12d 15bd
000001b0: 755e 123e c958 563c 17b2 903d 7322 8e3c
000001c0: e12b bdbe 7291 f13c 3e60 8cbe 3813 73be
000001d0: 0b05 043e 77ec 8f3e 65df c23d bb59 2d3c
000001e0: 9be2 14be 6ccc 41be a3ac 213d 0dd1 8d3d
000001f0: f865 113e 93bd 3fbe b788 8c3e 9178 83be
00000200: 5c58 77bd 978a 5b3d f063 a13d 55af 12be
00000210: 97ea 0e3e 92d1 903d b723 0ebe 5192 b03d
00000220: dcd3 ebbd 83a8 19bb 2a05 803c 634c bf3b
00000230: d653 10be c62a 92bd c441 86bc e20c d8bc
00000240: ffa3 86bd b501 3c3d 1fe5 c13b 435c 56bd
00000250: 9e6c a83d b46b 09be 3b02 4abc 7b1c e9bd
00000260: 2d19 11be 5377 033e def6 9b3d 418c 6bbc
00000270: af6a de3d b4dd df3d 56b8 05be 59f5 60bd
00000280: 81ef fd3d e67b 92bd 9aab 543c f585 0a3e
00000290: 2ee1 913d 8100 5e3d 17ec 083d a109 843c
000002a0: dcaa e0bd 5739 733d 52a1 00be db7e 933d
000002b0: d509 2ebd bfd7 92bd ca38 9ebd 4ce8 04be
000002c0: 243f d1bc d65b 79bd fb47 37bc ff16 d3bc
000002d0: 6436 8fbc f764 a9bd 67ea c53d c8ae 083e
000002e0: 2502 9fbc bcf8 123e 715d 9c3d 08a2 63bc
000002f0: 3fa7 6d3d 9d0f 0c3d 17b3 c5bd 7e8d a63c
00000300: ac16 86bd 8ba8 ea3b e01c b33d ea1f 0a3e
00000310: d86b 03be 4169 333d 0a22 0d3d b808 ca3d
00000320: d67a 0e3d c4e8 7abd 46c1 a63d 94c1 f13d
00000330: 8ed5 573d a3f6 fa3d 02ed 5c3d 5204 a1bd
00000340: 1e88 82bd 772e 9b3b 2ea2 b83c c92a 00be
00000350: 591a 013e 6e66 a1bd 3881 943c 8c44 d5bd
00000360: 6182 8b3d 0782 8f3d cc0d c03d 204c 72bd
00000370: 2107 a0bc ddde a9bd e216 ebbd 83d3 d239
00000380: 05c0 e6bc 34e2 143e 847a 13be a94c c8bd
00000390: 0276 b93d 37a3 6dbd e1a0 df3c 5766 b1bd
000003a0: c52b 123e e872 e23d e160 b93d b844 c2bd
000003b0: 1031 81bd 22ca 273d 4626 383d e172 903d
000003c0: 5789 26bd ef8d fb3d 20aa eebc 0e43 bd3d
000003d0: 81d2 abbd f4fc 253d 4e72 fa3d 8569 b53d
000003e0: 5cbb 673d 585b 45bd 6852 44bd 8fe0 0b3e
000003f0: dd74 ba3d 0711 2d3d fe4c e73c e484 59bd
-0.00093733903 0.124141484 -0.16533375 0.023535868 0.12647665 -0.31975824 0.00057396287 0.24084002
-0.11083782 0.13029861 -0.02724734 0.156839 0.26526335 0.19524162 -0.06860823 -0.1045319
0.103349924 -0.09133603 0.034682456 -0.16263336 0.044829447 0.055689186 -0.17978431 0.09257884
0.17366849 -0.067607485 0.015825558 -0.22196318 -0.061540272 -0.07582189 0.006342265 -0.06627098
-0.002984776 -0.19628096 -0.09655944 0.0353974 -0.23387259 -0.038552523 -0.114462025 0.039322965
0.32289994 0.01109824 0.046076417 -0.11792917 0.103591114 0.21087515 0.11517836 0.19464916
-0.30060205 0.20607153 0.21719946 0.36959282 0.22041018 -0.037204012 -0.087254584 -0.32869583
-0.15564609 -0.1493101 0.13547327 -0.17286927 0.1933302 0.13244154 0.14827923 -0.020284038
0.0064974013 -0.14623189 0.0630389 0.16504106 0.09849793 0.1096242 0.16410705 -0.28982323
0.11360024 -0.014730415 -0.09192806 0.30440605 0.24785691 -0.19032452 0.25898272 -0.2657357
-0.0062886653 0.09384085 -0.2659002 -0.12684177 -0.34802306 -0.2850299 0.25628015 -0.3663853
0.2766902 0.11386696 0.12813279 0.022409867 -0.20059606 -0.039037243 0.024793804 -0.16754697
-0.39724433 -0.3518183 -0.1846133 -0.23920476 -0.07822947 -0.17827195 0.17086259 -0.16726995
-0.31905812 -0.01771097 -0.028258244 -0.036420587 0.14293845 0.0130826915 0.07065218 0.017350411
-0.3694754 0.029488299 -0.27417177 -0.237378 0.12892549 0.28110096 0.095152654 0.010580475
-0.14539568 -0.18925637 0.03947128 0.06924639 0.14199054 -0.1872466 0.27448055 -0.25677922
-0.060387 0.053598966 0.0788039 -0.14324696 0.13956676 0.07071222 -0.13880812 0.08621658
-0.11515018 -0.0023446388 0.015627462 0.0058379634 -0.14094481 -0.07137065 -0.016388781 -0.02637333
-0.065742485 0.045900065 0.005917206 -0.05233408 0.08223842 -0.13419992 -0.012329633 -0.11382385
-0.1416976 0.12838487 0.076154456 -0.014376701 0.10860192 0.109309584 -0.130586 -0.05492148
0.12399197 -0.07152538 0.012980366 0.13527663 0.07123028 0.0541997 0.033428278 0.016117873
-0.10970089 0.059380855 -0.12561539 0.0720193 -0.042489845 -0.071700566 -0.077256754 -0.12979239
-0.025542803 -0.060878597 -0.011186595 -0.025767801 -0.01748199 -0.08271211 0.09663849 0.13347924
-0.019410202 0.14352697 0.0763501 -0.013893612 0.058020826 0.034194577 -0.09653299 0.02033114
-0.06547293 0.007161205 0.08745742 0.13488737 -0.12834108 0.04380155 0.03445629 0.09864944
0.034785114 -0.06125714 0.08142333 0.118045 0.052693896 0.122540735 0.053936966 -0.07862152
-0.063736185 0.0047357637 0.02253827 -0.12516321 0.12607707 -0.07880865 0.018128023 -0.10413465
0.06811977 0.070072226 0.093776315 -0.05915463 -0.01953465 -0.08294461 -0.11478974 0.0004021191
-0.028167734 0.14539415 -0.14402205 -0.09780247 0.09055711 -0.058016982 0.027298393 -0.08662098
0.14274509 0.11057073 0.09051681 -0.09485763 -0.06308186 0.040964253 0.044958375 0.070531614
-0.04065832 0.12282931 -0.029133856 0.09241305 -0.0838976 0.040524438 0.12228833 0.08858017
0.056575164 -0.048182815 -0.04793015 0.13659881 0.09104321 0.042252567 0.028234955 -0.05310525

atom_encoder.atom_embedding_list.1.weight f4 [4, 128]
00000000: 51bb 0ebe 0f49 22bd dba1 ea3c 4ff7 9c3d
00000010: 69ec 21bd 5cdb 61be c1bc d83d 1ad8 5fbe
00000020: 9119 febd 6ab0 313e 701f 02be f775 eb3d
00000030: d3ca 2a3e ad96 1bbe 5a69 23be ee4a b23d
00000040: 53a2 203e 109a 493e b382 e33a 6e84 61be
00000050: ba42 1c3e 7757 233e b66b ef3d ac98 bdbc
00000060: 354c 21be 8120 08be b935 063e 8078 003e
00000070: f728 0b3e c109 3b3e 0804 513e e422 afbd
00000080: 60e2 57be 738e 023e cfac 3cbe 3ac5 70be
00000090: 95f5 643e 584c 0dbe 3f2a 003e be7a d83c
000000a0: 3213 4dbe e1fb a03c 41cd 393d dcd8 82bd
000000b0: 43c3 17be 6038 203e 10e1 083c 269b 3ebd
000000c0: 154b 893d beb4 bcbc 0b10 17be e26b 723d
000000d0: 7f57 f73d f46e 40be 9425 2b3e 9796 4f3e
000000e0: e013 593e bd36 3d3c 0c2b 863d 349f 143e
000000f0: 242f 72bd c93c 23be fea7 463e 5330 edbc
00000100: 2737 483e 6a9c 71be 01aa 203e e5d0 6f3e
00000110: 0caf e0bc 9047 48be 2ed6 5a3e 5180 8bbb
00000120: ec2c 9bbb 6005 98bd 5f75 ee3d 59e9 9a3b
00000130: 8a3e dbbd 05b6 763e 285e 5c3c b91a 313d
00000140: 8d91 383d 1953 6c3b c229 56bd 5108 b1bd
00000150: 0048 a7bd 67db 4c3e b18e 503e 6a57 4fbe
00000160: 7736 9fbb 38ac 953d b422 ac3c 1a35 903d
00000170: 6f68 ea3d 026e 083d e236 40be 54eb d7bc
00000180: 29b9 dabc 5a71 2f3e c2e7 dd3d 2a4e d3bd
00000190: 6284 28bd 2f61 48be 24fd e3bd 6e0e 0d3e
000001a0: 9b43 5abe f0bd cd3d 6965 01be 734f 41bd
000001b0: aba5 143e 8e0a 713d 6c96 2c3e 9167 683e
000001c0: bebe 453e 0538 293e aca8 0dbe cdf1 3b3e
000001d0: 2c10 dd3d 1026 e3bd 83ae febd 50e4 41be
000001e0: 5cae b7bd 9520 d9bd c43f 2e3c 0a82 15be
000001f0: e5c7 003e 8f8a 113e e32b de3d be8a 0d3e
00000200: de37 7abd 8bb6 96bd 78b5 633d 96ac 18be
00000210: 32a4 33be 34de 84bb 8dd0 50be 5c09 163e
00000220: c8ed 3c3e dc50 7fbe dcf4 0ebd 97cb 983d
00000230: a057 4d3e f8fa 213e b1b6 273e 0b33 1d3e
00000240: ed2d 543e df25 3fbe cf2c 53be 4c20 a63d
00000250: dcd9 e7bc 3d6a 2bbe 0166 1bbe af6a 973d
00000260: 8a50 413e 0bb0 0e3e 78cb d53c d70e dd3d
00000270: 445e 32be fcd2 2fbe 0f1f 17be 390c c63d
00000280: f493 163e d4dc 14be 8cff eb3d c8f1 353e
00000290: 20a5 10bd 2b8b a7bd 0f18 ebbd b562 3ebc
000002a0: 49ef 2b3e b53a 1cbe be0f bb3d a623 e93d
000002b0: 82d1 3f3d 9901 33bd 6903 7bbe 455d 273e
000002c0: 8d6c c03c 244c c43c 623c 443e ca3a 513e
000002d0: 0d8b 833c 8db6 0d3e 5ec9 03bd 063b 2abd
000002e0: 0e8c 373e eef0 233e 5fa9 083e 089b ad3d
000002f0: 2b11 d43c 3a4c 99bd 9d9e edbd 6e23 1d3e
00000300: c2db d03d ca99 3f3e ba73 1b3e 4784 9e3d
00000310: 2f2b c03b 9775 c7bd cf2a 17be fd3f f83d
00000320: 5ddd 223d 8d46 1d3d a04f ccbd 1cac f2bd
00000330: 884e 7e3e da7b 94be 731d ebbd a923 e6bd
00000340: e6c2 393e cd6e 123e 2f39 fe3c 1657 c3bd
00000350: e805 31be 1f41 29be 4fba 9d3d 9207 133e
00000360: 1cc2 203d a3f6 c8bd cd50 253e 9d4a 68bd
00000370: 8d27 443e 3fca 0cbe 34b2 f83c 4fe8 133e
00000380: cd6e 46be 5f1c 273d 9991 9e3a 5959 303e
00000390: 7f17 63bd 66d4 7c3e 9eaa c03c c3a4 b2bd
000003a0: b37f 21be 43f2 e13b 58e1 d03c e7c3 9abd
000003b0: 6d93 5fbd de62 3fbe c625 253e 0fc3 3dbe
000003c0: b341 033e 8e14 5e3e 5d26 71bd b425 25be
000003d0: f398 213e 9d82 503e 74f0 7fbe 05b7 1a3d
000003e0: 3abc 033e 4f13 9ebc 6aac 6abe 0c23 84bd
000003f0: c60c 15be 7e37 c33d 99e6 a33d a7b8 bc3d
-0.13938643 -0.039620455 0.028641632 0.07664358 -0.0395321 -0.22056335 0.10582877 -0.2185978
-0.1240722 0.17352453 -0.12707305 0.114971094 0.16678934 -0.15194197 -0.15958157 0.08705698
0.15686922 0.19687676 0.0017357677 -0.22023174 0.15259829 0.15951334 0.11690466 -0.023144089
-0.15751727 -0.1329365 0.13106431 0.12545967 0.13589846 0.1826544 0.20411694 -0.08551577
-0.21082449 0.12749653 -0.18425296 -0.23512736 0.22359307 -0.13798654 0.12516116 0.026425716
-0.20026854 0.019651355 0.04536176 -0.06389019 -0.1482058 0.15646505 0.00835444 -0.04653468
0.06703774 -0.023035403 -0.14752214 0.059184916 0.120772354 -0.18792325 0.16713554 0.20272289
0.21198988 0.011548695 0.06551179 0.14513856 -0.059126988 -0.15941156 0.19400021 -0.028953707
0.19552289 -0.23594823 0.15689851 0.2341953 -0.027427219 -0.19558549 0.21370766 -0.00425724
-0.0047355797 -0.074229 0.116434805 0.0047275242 -0.10705288 0.24092872 0.013450183 0.043238375
0.045060683 0.0036060272 -0.052285917 -0.08644164 -0.0816803 0.2000557 0.20366932 -0.2024819
-0.0048587876 0.07308239 0.021012641 0.07041378 0.114457004 0.033308037 -0.18770936 -0.02635733
-0.02669962 0.17133084 0.1083522 -0.10317643 -0.041141875 -0.19568323 -0.11132267 0.13775036
-0.21314852 0.10045993 -0.12636341 -0.04719491 0.14516322 0.058847956 0.16854256 0.22695757
0.19311044 0.16525276 -0.13833874 0.18353958 0.107941 -0.11091244 -0.12435629 -0.1893475
-0.08968803 -0.10601918 0.01063532 -0.14600387 0.12576254 0.14213012 0.108482145 0.13822457
-0.061088435 -0.07359036 0.055592984 -0.14909586 -0.17543104 -0.004054809 -0.20392056 0.14652008
0.18450081 -0.24933189 -0.034901485 0.07460707 0.20052958 0.15818393 0.16378285 0.15351503
0.20720644 -0.1866679 -0.20622562 0.08111629 -0.028302126 -0.16739745 -0.1517563 0.07393395
0.1887838 0.13934343 0.026097998 0.10793846 -0.17418772 -0.17170328 -0.14757942 0.096703
0.14704877 -0.14537364 0.11523351 0.17768013 -0.035313725 -0.08180841 -0.11479198 -0.011620213
0.16790499 -0.1525677 0.09133862 0.113837525 0.04683066 -0.043702696 -0.2451302 0.16344173
0.023489261 0.023962088 0.19163659 0.20432582 0.016057516 0.13839169 -0.03217446 -0.041560195
0.1792452 0.16009876 0.1334586 0.084768355 0.025887093 -0.07485242 -0.11602519 0.15345547
0.101981655 0.1871101 0.15180865 0.07740074 0.005864523 -0.09739225 -0.14762424 0.1212158
0.03976189 0.03839736 -0.09976125 -0.118492335 0.24834645 -0.2900074 -0.11480226 -0.112372704
0.18140754 0.1430008 0.031033127 -0.09538095 -0.1728741 -0.16528748 0.07701551 0.14358357
0.039247617 -0.09812667 0.16144104 -0.05671178 0.19155712 -0.13749026 0.030358411 0.14444087
-0.19378205 0.04079854 0.0012097835 0.17221583 -0.05544233 0.24690399 0.023518857 -0.08722832
-0.1577137 0.006895335 0.025498077 -0.07556897 -0.054583956 -0.18690059 0.1612769 -0.1853144
0.12818031 0.21687528 -0.058874477 -0.16127664 0.15781002 0.20362325 -0.2499407 0.037772197
0.12864771 -0.019296316 -0.22917333 -0.06451997 -0.14555654 0.09532069 0.080029674 0.09214907

atom_encoder.atom_embedding_list.2.weight f4 [12, 128]
00000000: 233a 023e 6d51 5e3d b8ee 543e 8729 2ebe
00000010: 0794 4d3e 20d8 123e 5118 ddbd f88c 163d
00000020: 3739 99bd 164b b8bd ee7f 8b3e 30ab ac3e
00000030: 6434 213d ccf5 17be 834a 853d a65c 283d
00000040: de60 803d 7d70 74be 3b4b 29be d0a0 11be
00000050: 0237 62be ad65 f43d 9d70 32be 72de 54be
00000060: e93d d2bd 9baf 60bc 2b3e 663e 6d45 3bbe
00000070: 9bf6 68be 0ca3 50be 1a32 54be 239e 3bbe
00000080: 3804 4cba c618 0d3e c3d8 44be 5f56 873e
00000090: 616c 183e d267 853c b054 813d 70f3 c0bc
000000a0: 3113 1a3e 5768 82be 160d 0cbb 89a0 0abe
000000b0: a610 0f3e 3984 233d 0a86 24be 4a1e 903d
000000c0: f261 173e cec5 a13d c295 f63d e15c 003e
000000d0: 5579 44be 6858 963c 911c 62be 1d01 05bd
000000e0: 13fa 2e3e 9e49 883e 00f1 44bd b0e0 6fbd
000000f0: c266 12be 3fb0 11be b6c6 a53d ce7a ca3d
00000100: 7b8e 563e 7511 3a3e 4c86 2ebc 62b5 b4be
00000110: 9f4c 9bbd 4936 2a3d a5a8 9abe 12e1 163e
00000120: 2e49 463b 69da ddbd 518a 7d3d 5198 32bd
00000130: 94db 133e d8f9 59bd e214 0ebe 757c 74bc
00000140: 869a af3c 7f7e 03bd 6417 fa3c 0040 a93e
00000150: 5436 7a3e 3a56 c3bd 4666 17be 766e 0cbe
00000160: c562 65be 652b cf3d 5424 903d 9573 2abe
00000170: 7300 14be 95f7 66be 0801 48be 00e0 213e
00000180: b62a 28bc 17ac 9a3e 7489 b53d caf0 6f3e
00000190: 6bbf 8cbe ebce d23d 0aff 0e3e 4161 5b3e
000001a0: 39fc 903c bf90 f0be 30be ffbd 1991 de3d
000001b0: b619 6dbc dc38 01be f9d6 23bd 2975 5cbe
000001c0: 83e0 99bc d600 9bbd 6320 dc3d 938f 31bd
000001d0: 9f39 c83e 7099 a4bd c951 3dbe 64d0 0c3c
000001e0: 637e 9bbc a682 2abd 1a45 9b3d a489 99bc
000001f0: c53e b5bd b9c8 0d3e 6a46 36bd af7e 0d3e
00000200: 6942 1d3e d40b 1ebe 8533 773d 3d6c 693d
00000210: 18c1 84bd d3e6 cf3c 752d ad3d 6a7d 1ebe
00000220: 00bb 2a3e b4c3 513d dfff d9bd 41f0 15be
00000230: 7f85 d2bd af0a 503e ee64 bebd 643e 27be
00000240: 36f8 183e 0dfa 273d dd0c 14bd 12d0 1e3d
00000250: bdc1 a9bd 52c5 17be 026e 9b3d a99f 643e
00000260: b589 023e 9e0f babd 8412 22be acf8 51bd
00000270: 1554 c73c 1dc9 7c3d 1ab6 dbbc 3c9c 11be
00000280: 4702 3b3d bc5d 1abe 77fe 4a3d 4c49 17bc
00000290: 0c82 593e 18c8 efbc 01f5 343d adfa ae3b
000002a0: 13a2 2f3e 0cb0 413e 8699 1ebe 6186 033d
000002b0: 5d7f 63be 8380 9fbd 33d5 07be e65e 25be
000002c0: 367a 38bb f863 1dbe f28a 343e 718f f5bd
000002d0: e16d f1bd b08b c1bd 712c 0dbe d881 453e
000002e0: d1ba 0d3e 89c7 1e3e b944 5c3c 0736 f53b
000002f0: 4da3 11be 18ef 44be eeba 343e 76a5 c6bd
00000300: 81c2 15be 42b0 923c 2e97 46be 3845 15bd
00000310: b9e6 953d 1419 14be f717 2bbe bc05 f63d
00000320: 8399 583d 806f e83d 1bfd 8ebc 916b fd3d
00000330: 2e3d ce3d fabd 3fbe 26fb 48be 2445 063e
00000340: 070f b3bc fc02 163e 30fd 9b3d 1368 29be
00000350: d85d 9abd be29 bc3d 00f3 0ebd 3205 2d3e
00000360: 1b23 2ebe 4fc9 ae3d 7ecf 19be ad6a 0cbe
00000370: 3d77 17bd a1e4 12be 28ec b33c f779 f4bd
00000380: 18f2 063e 6961 0b3e 6de6 1f3e a299 51be
00000390: 13d0 f43d dc00 46be c4e7 033e be98 8bbd
000003a0: e894 813c 68b9 a43d 209d 163e 561e 56be
000003b0: 51e2 493e ca56 ff3d 1640 19be bd65 333e
000003c0: 3ba9 48be 1b4e ed3d eb89 203c 61ca 43be
000003d0: c553 5ebe bda2 edbd 5d02 b33c 5248 46be
000003e0: 662f 323e 2c15 c0bd 2d9d 58bd c70f b83d
000003f0: 6888 9e3d 5f32 d9bd f5fa 333e 9a1e 31bd
0.1271749 0.054276872 0.20794189 -0.17008029 0.20075999 0.14340258 -0.107956536 0.036755532
-0.07481616 -0.089986965 0.2724604 0.33724356 0.039356604 -0.14839858 0.065083526 0.04110398
0.06268476 -0.23871036 -0.16532604 -0.14221501 -0.22091296 0.119334556 -0.17425771 -0.20787981
-0.10265715 -0.013713743 0.22484653 -0.18288203 -0.22750323 -0.20374697 -0.20722237 -0.18322043
-0.0007782611 0.13778982 -0.19223313 0.26433083 0.14885093 0.016284857 0.06314981 -0.02355358
0.15046383 -0.2547023 -0.0021370105 -0.13537802 0.13971195 0.03992102 -0.16066757 0.07037027
0.14783457 0.078990564 0.12040283 0.1253543 -0.1918691 0.018352702 -0.2208121 -0.032471765
0.17087583 0.26618665 -0.048081398 -0.058563888 -0.14297011 -0.14227389 0.08094542 0.098867044
0.2095279 0.18170722 -0.010652136 -0.35294634 -0.07582974 0.041555677 -0.3020679 0.14734295
0.003025602 -0.10832674 0.061899487 -0.04360229 0.14439231 -0.053216785 -0.13875154 -0.014922251
0.021435987 -0.032103058 0.030528732 0.3305664 0.24434787 -0.09537931 -0.14785108 -0.13714013
-0.22400959 0.10115699 0.07038179 -0.16645654 -0.14453296 -0.22555383 -0.19531643 0.15808105
-0.010264089 0.3020942 0.08864108 0.23431697 -0.2748979 0.10293373 0.13964477 0.21423818
0.017698394 -0.46985433 -0.12487447 0.10867519 -0.014471462 -0.12619346 -0.039999936 -0.21529068
-0.018783813 -0.07568519 0.10748365 -0.043349814 0.3910646 -0.080370784 -0.1848823 0.008594606
-0.018981164 -0.041628502 0.075815395 -0.01874239 -0.08849863 0.13846101 -0.044500746 0.13817857
0.15357365 -0.154342 0.060351867 0.05698799 -0.06482142 0.02537862 0.08455936 -0.15477529
0.16672897 0.051212028 -0.10644507 -0.14642431 -0.102793686 0.20316575 -0.092965946 -0.16332394
0.14938435 0.04100995 -0.03614508 0.03877265 -0.08288906 -0.14821365 0.07589342 0.2232653
0.12747844 -0.0908501 -0.15827376 -0.051262543 0.024332086 0.061715234 -0.026820231 -0.14219755
0.04565647 -0.1507482 0.049559083 -0.009233784 0.21241015 -0.029270217 0.044178966 0.0053399415
0.1715167 0.18914813 -0.15488252 0.032110576 -0.22216554 -0.077881835 -0.13264923 -0.16149482
-0.0028149015 -0.15370166 0.17631128 -0.1199025 -0.11788536 -0.094504714 -0.13786484 0.19287813
0.13840796 0.15505804 0.013444119 0.007483247 -0.1422245 -0.19231832 0.17649433 -0.09699528
-0.14624979 0.017906312 -0.19393608 -0.036442965 0.073193975 -0.14462692 -0.1670836 0.120128125
0.052880775 0.11349392 -0.017454674 0.12374032 0.10070263 -0.18724814 -0.19627056 0.13112313
-0.021857752 0.14649576 0.07616651 -0.16543607 -0.075374305 0.09187649 -0.03489971 0.16896513
-0.17005579 0.0853449 -0.15020558 -0.13712569 -0.03697895 -0.14345028 0.021963194 -0.119373254
0.13178289 0.13611378 0.15615244 -0.20468763 0.119537495 -0.19336265 0.1288138 -0.06816243
0.015818074 0.08043176 0.14708376 -0.2091001 0.19715239 0.124677256 -0.14965853 0.17519279
-0.19595806 0.11587163 0.009798507 -0.1912017 -0.21711643 -0.116033055 0.021851713 -0.19363526
0.17400894 -0.09379038 -0.05288427 0.08987384 0.07740861 -0.10605311 0.17576201 -0.043242075

atom_encoder.atom_embedding_list.3.weight f4 [12, 128]
00000000: 9743 833d c4bd 1fbe f089 aa3d 318f e5bc
00000010: a375 43bd 6d8d 49bd 0271 14be f61d 833c
00000020: 96d7 d1bc 2fd4 263e 22d8 e83d 685a 8d3d
00000030: f7e1 383e 71b0 453c fec5 1d3e d2fe bd3d
00000040: 0e72 fcbc 594a 513b 3a74 2a3c 15da 2b3e
00000050: d157 52be 2e94 193e 7deb 82bd 45ab 4a3c
00000060: 1f65 10bd 6898 0fbd df81 873a bd7e ea3d
00000070: 1140 d9bd f5fc fdbd 91eb 713d 1b1d 08be
00000080: b306 d9bd 50fd 353e 8974 153e f04d 51be
00000090: 5677 1fbe 600d e2bd 54a3 06bc 01f8 193d
000000a0: 887a 363d ef90 f63d 0db5 39be 700b da3d
000000b0: 3ca4 bdbd 973f 243e affa 2ebe 1983 363b
000000c0: ca69 483d 81f2 4dbd 0279 ef3d 78ae 403e
000000d0: e590 07be 248a 053e 4470 bebd 0d90 4d3e
000000e0: 5181 d03d d954 39be 039b f63d 595f 8b3d
000000f0: f94f 07be ea42 c03d f88b 753c 70f5 3e3e
00000100: 8636 513e 8324 213e 7d9d 5e3d cc1a d83c
00000110: b932 84bd 6dbf 3fbe 6fbc 40be 2d44 41be
00000120: 4b6d ba3d e28a a3bd d411 35be ce10 603c
00000130: c61c 67bc a628 0c3a 223f a9bd d292 6f3c
00000140: 5912 dc3d 3801 263e a7e8 483e efcc e53c
00000150: 2f5d 02be 7fbb 0ebe 65f0 4b3c 3656 0e3e
00000160: 90c2 cfbd 053a c63d ef0b 823d a19f dfbd
00000170: 2e1b 25bd 4e25 a4bd 81a6 1cbd cdcf dbbd
00000180: 71f7 ea3d 3710 3dbe 9916 38be 2dfa ab3d
00000190: 26d0 92bd 8100 1fbe f848 873d c311 253e
000001a0: ac45 3b3e ffe1 373e 239b f33d 8ecd b73d
000001b0: 129d 39bd 0a56 9e3d ea0b 0abb 0628 a2bd
000001c0: 3272 70bc d078 453e 5d6e f0bd c1f3 fabd
000001d0: 9c85 443c c87f 793b a5c1 0bbe 6aa0 123e
000001e0: 5549 83bc 3d12 c7bb 5fa7 30be 333e 343a
000001f0: 3a09 21be 18e0 e0bd 28e8 333e f5ef 30be
00000200: a198 7a3d f885 363e 3f7b 4f3c 5cc3 eebd
00000210: b669 3fbe a10d 033e 0782 d43c 11a1 8bbd
00000220: 9798 1e3e 827c 0f3e 8399 443d ebf4 da3d
00000230: 3217 60bd 8cb0 333d 8043 323e ba71 bebd
00000240: f6a6 9a3d 3f45 2c3e 147c 17be f946 4cbe
00000250: d110 4f3e b894 e3bb ca16 02bd 93af 473e
00000260: 3077 453e 08f4 30be 1372 313e 8700 ee3c
00000270: e0a6 903d 6838 c93d f6fe 8b3d 8f2c dc3d
00000280: 1e11 06bd b834 ddbd 05a3 663d 781d 063e
00000290: aefb d0bb c38f 3c3d 17b0 fd3d 8fd7 0f3e
000002a0: 9b89 393e 54b0 42be 882f 50bd 4f91 203d
000002b0: d2b9 593d 0003 be3b 08c0 323e 7b57 a6bc
000002c0: 22cd 46be 25b7 2b3e c7aa cabd 3b35 393e
000002d0: 0dc4 253e 5cdf 463e fb50 a5bd ec58 dbbd
000002e0: eaab 933c 0b9b 4e3b 07ad 9cbd 0eac 4abe
000002f0: 8692 24bd fa17 dcbd d68d 413e d326 493e
00000300: 3876 c7bd c482 aebd de69 9b3d ac3a bebd
00000310: 7059 5f3d 82e3 493e d4f9 e93b 31c2 21be
00000320: c39c 0b3e c39c b0bd 605c bd3d c66e 12be
00000330: aa23 5f3d 1cd4 323e 577f 2b3e 13df 0abc
00000340: 4b76 423e 3d7b b3bd fe66 31bd 7eba e63c
00000350: 8377 263e b7a5 2cbe 570f ed3d 2756 483e
00000360: 6b3a 49be a96f 1a3e 02e3 a53d a38c 993c
00000370: 8979 143d f705 b33c 11de 5cbd 60b8 83bd
00000380: 7223 17be fcf2 03b9 e196 4abd 997f a3bc
00000390: ef3a 333d 066b d43d 39ea 093e a2b8 5ebd
000003a0: c0d9 093e b7e5 d13d cfb1 c43b 9313 3ebe
000003b0: 0bdf 283e ae4e f5bd 964e 9cbd bbea 50be
000003c0: 6300 283e d7b8 4cbd 750f c23d 885d 65bd
000003d0: 79e9 173e bf5d 92bd 35f3 a13c 53fa 463e
000003e0: c7b7 a7bd 3365 083e e421 c6bc c5d7 4cbe
000003f0: 0464 08bd 8b76 3e3d 6db4 053c c4e7 ae3c
0.06409376 -0.15599734 0.08327091 -0.02802238 -0.04771961 -0.04920714 -0.14496234 0.016005497
-0.025615495 0.16291879 0.11369349 0.06902009 0.18054949 0.012065993 0.1540756 0.09277119
-0.030816104 0.0031935184 0.010403687 0.1678241 -0.20541312 0.14997932 -0.06392572 0.012369935
-0.035252687 -0.035057455 0.0010338387 0.11449955 -0.10607923 -0.12401763 0.059062544 -0.13292353
-0.10596981 0.17772412 0.14595236 -0.20439887 -0.15572867 -0.11037707 -0.008217651 0.03759003
0.04455045 0.12039363 -0.18135472 0.10646713 -0.09259841 0.16039883 -0.17087816 0.0027849136
0.048929013 -0.050280098 0.11693002 0.18816555 -0.13238867 0.13040978 -0.09298757 0.20074482
0.10180915 -0.18098773 0.12041285 0.068052955 -0.13214101 0.09387763 0.014986984 0.18648314
0.20430955 0.15736584 0.05434941 0.026379965 -0.06454987 -0.18725367 -0.18821882 -0.18873663
0.09102877 -0.07985474 -0.17682582 0.013675882 -0.014105981 0.0005346633 -0.08263995 0.014622407
0.10745687 0.16211402 0.1962 0.028051822 -0.12730859 -0.13938712 0.012447451 0.13900074
-0.10144532 0.09679035 0.063499324 -0.10919119 -0.040309124 -0.08014928 -0.038244728 -0.10732994
0.11472977 -0.18463217 -0.1797737 0.083973266 -0.071686074 -0.15527536 0.066057146 0.16120057
0.18288296 0.17957304 0.11894824 0.08974753 -0.04531581 0.077312544 -0.002106423 -0.0791779
-0.014675664 0.19284368 -0.117398 -0.122535236 0.011994746 0.0038070548 -0.13648088 0.14319006
-0.016026178 -0.006075172 -0.17251347 0.00068757235 -0.15726176 -0.109802425 0.1756903 -0.17279036
0.061180715 0.17824543 0.0126636615 -0.116583556 -0.1869267 0.12798168 0.025940908 -0.0681783
0.15487896 0.1401234 0.047997963 0.10691246 -0.05470962 0.04386954 0.17408562 -0.09299035
0.075513765 0.1682329 -0.14793426 -0.19948949 0.20221259 -0.006945219 -0.031760015 0.1950057
0.19283748 -0.1728059 0.17328672 0.029052986 0.07063079 0.09825212 0.06835739 0.107506864
-0.032731168 -0.10801071 0.05630781 0.13097179 -0.006377659 0.04603554 0.12387102 0.14047073
0.18118899 -0.19012576 -0.05082658 0.039201077 0.053155728 0.0057986975 0.17456067 -0.020305386
-0.1941419 0.16769083 -0.098958544 0.18086712 0.16188069 0.19421142 -0.080720864 -0.1071032
0.018026311 0.0031525518 -0.0765019 -0.19792196 -0.0401788 -0.10746761 0.18901762 0.19643717
-0.09739345 -0.08521035 0.07588552 -0.092885345 0.054528654 0.19715694 0.0071403775 -0.15796734
0.13634019 -0.0862365 0.09246135 -0.14300069 0.05447737 0.17463726 0.16747795 -0.008476037
0.18990438 -0.0876374 -0.04331111 0.028165098 0.16256528 -0.1686009 0.115751915 0.19564115
-0.19651191 0.15081657 0.08099939 0.018743819 0.036248717 0.02185343 -0.053922717 -0.06431651
-0.14759615 -0.00012583652 -0.049460296 -0.019958304 0.043757375 0.103719756 0.13468255 -0.0543753
0.13461971 0.10248893 0.0060026417 -0.18562154 0.16491334 -0.119778976 -0.076321766 -0.20402043
0.16406398 -0.049980965 0.094756044 -0.0559974 0.14835157 -0.07146787 0.01976929 0.19431429
-0.081893496 0.13319854 -0.024186082 -0.20004185 -0.033298507 0.04649977 0.008160693 0.021350749

atom_encoder.atom_embedding_list.4.weight f4 [10, 128]
00000000: 5762 9cbd 7b16 e43d f766 2d3e ab21 ba3d
00000010: a7aa d0bd c132 b6bd 9f7b 19bc bf8f 183d
00000020: 0912 8f3d af0c 2abe 1893 003e 3abc b7bd
00000030: 901f 41be 3c7e 213e b716 8ebd 13b6 393d
00000040: 0933 1cbe f456 dcbd 0d34 3e3e e86e 2c3e
00000050: ed2d 7cbc e48e 193e 9974 16be 6849 4d3d
00000060: 1f07 093d be14 f43d 181c a4bc 5385 32be
00000070: 94da 3b3e 13bf 14be 1b74 603d b372 0c3e
00000080: 7fd6 44be 494a 9dbd 19c1 f2bd 93d0 16be
00000090: f5b7 cfbc ec63 a4bc de4f b7bd a555 25be
000000a0: 2b67 3dbd 02cf aebd 6b62 8f3a af13 493e
000000b0: 6d23 4e3d 37a5 133d e979 16be f285 29be
000000c0: 28ce 9ebd e082 313e d6ff 88bd defb 82bd
000000d0: 8d53 43be 02b6 1c3e 6d7b 193e e0e3 e5bd
000000e0: 093d ab3d 4cf6 3ebe 5697 f1bd caaa 23be
000000f0: fe67 c13c 99ba c2bd 2895 2d3c 7624 033e
00000100: 1914 373d 0a53 0b3e c7fa 97bd 8f48 723c
00000110: c03f 50be ac14 9d3d 164a 36be 675c 78bd
00000120: 2eed afbd 485b 4bbe c8cd 0bbe e120 1abe
00000130: ed73 3c3e 51d7 22bc 453c b7ba 461a d6bd
00000140: 961b 58be d0ac 33bd f554 50be 8d5b a43d
00000150: 261a b63d c179 5cbb babf 16be 77b5 4dbe
00000160: 6822 ed3d 0f64 bf3d 9dad 1abe 850d f23d
00000170: 0ca3 683e 9b0b b83c 03c1 40be 95bc 2d3a
00000180: cf10 89bd 747e 7b3d 147a 02be 404e 293d
00000190: 4656 18bd 1674 d9bc 1666 3fbd d38b 2cbe
000001a0: 18ef a03d dd27 ab3d d36d 00be f1ac 4c3d
000001b0: 6f88 213e c4d6 bb3c 66e4 803c 29a0 69bd
000001c0: 4b4d 983d 8a58 4cbe 7119 0bbe ac0e 10be
000001d0: 75df f4bd 402a 50be ad0c a0bd e8bd 20be
000001e0: a903 113d 3edc 85bc d886 a33d fde5 193e
000001f0: 39c7 5b3e ea65 303e a34d c8bd 3136 2fbe
00000200: 02d3 1b3e 7e2a ecbd e257 81bd db81 05be
00000210: de65 19bd 6453 05be 4e76 fabd 3256 c03c
00000220: aea2 413c 770e 99be 2a30 583e e2cd 703d
00000230: b1a6 1dbe 32e7 153e 9793 dfbd e450 c0bd
00000240: 0a71 ea3d 70a6 16be ec09 8cbe 13cb d73c
00000250: 7442 bc3d 89e6 fd3d 59a4 f63d 5192 893c
00000260: 44e7 063e 2ae8 22ba fe28 0c3e 3760 bc3d
00000270: 2af5 293e feee d0bd e460 7f3d 1848 afbd
00000280: b4c9 d93c af51 423e 2b89 63be 117b 1abc
00000290: d60e 273e 14b9 ecbd bd76 983c 0403 553e
000002a0: dea5 823e 7d9e ddbd ed3a 0f3e 3681 b1bd
000002b0: 5482 3f3e 5887 f23d 5e4e b0bd de3b 69be
000002c0: 5506 5cbd b712 abbd fd6c 54be a6fd f33d
000002d0: c02a b73d 1540 813c dea5 4cbe 6e1b debd
000002e0: 7678 19bc c643 e13d 65b8 623e 5a56 773c
000002f0: 3193 a9bd 38e5 2dbe de1d 073e 0c0d b8bd
00000300: 24f4 17bc debc 04be 5074 0cbe 7009 0dbe
00000310: 593f 653e 622f 19be bb1b 36be 527d c03d
00000320: f42f 4dbd 061f 64be a88d ac3c f9e8 e93c
00000330: ef2a a9bc 0cb3 6b3d 618d 2e3c ef78 13bd
00000340: 719e 243d 8883 1f3e 67d1 243e 8fd6 1e3e
00000350: 715f 463e 4ca3 47bd 1aa1 373d 418f 28be
00000360: 89f0 15be b01f f1bd 637b ecbd 0860 303d
00000370: 2b04 a43c a51e d03d 3c11 b6bd b3ae 603c
00000380: a052 e4bd e755 503d d637 e13d 61e4 ce3d
00000390: 2b29 8a3b f893 d7bd e574 42be 8601 cd3c
000003a0: 74fb 513e e164 68be 3fdf 193e e889 263e
000003b0: e9e8 d13d 8568 b8bc dff3 ba3d 4c05 d43d
000003c0: 929d bbbc bd75 f03c ae67 843c b957 d8bd
000003d0: c468 e83c 691c 5bbe a522 b03d cc83 363e
000003e0: de21 53bd 4a5d 393d 4552 2c3e 63d3 203e
000003f0: 6920 35bd 4a9f 86bb 4258 c0bd b4a8 2c3d
-0.07635944 0.111371 0.16933809 0.09088453 -0.10188799 -0.08896399 -0.0093678525 0.037246462
0.06985862 -0.16606401 0.12556112 -0.08971448 -0.18859696 0.15770811 -0.06937926 0.045339655
-0.15253843 -0.107587725 0.18574543 0.16839182 -0.015391809 0.14995915 -0.14692916 0.050118834
0.033454057 0.11918019 -0.020032927 -0.17433672 0.183451 -0.14526014 0.054798227 0.1371563
-0.19222449 -0.076801844 -0.11853237 -0.14728002 -0.025356272 -0.020067178 -0.0895078 -0.16145952
-0.046240967 -0.08535577 0.0010939365 0.19636415 0.050326753 0.036046233 -0.14694943 -0.16555002
-0.07754165 0.17335081 -0.06689422 -0.06395696 -0.19074841 0.15303805 0.1498849 -0.11225104
0.08361251 -0.18648642 -0.11796443 -0.1598312 0.023609158 -0.09508247 0.010594644 0.12806877
0.0446969 0.13605896 -0.07420879 0.014787807 -0.20336819 0.076699585 -0.17801699 -0.060634997
-0.0859016 -0.1985904 -0.13652718 -0.15051605 0.18403597 -0.009939031 -0.0013979754 -0.1045423
-0.21104273 -0.04386598 -0.20344909 0.080252744 0.08891706 -0.0033641907 -0.14721575 -0.20088755
0.11578828 0.093452565 -0.1510529 0.11818985 0.22718447 0.022466471 -0.18823628 0.0006627527
-0.06692659 0.061399892 -0.12741882 0.04133439 -0.03719165 -0.026544612 -0.046728216 -0.16850214
0.078581035 0.08357213 -0.12541895 0.049969617 0.15774702 0.022929557 0.015733909 -0.057037506
0.074366175 -0.1995565 -0.13583924 -0.14068097 -0.119566835 -0.20328617 -0.07814918 -0.15697443
0.03540388 -0.016340371 0.07984704 0.1502914 0.21462716 0.17226377 -0.09780433 -0.17110516
0.15217212 -0.11531542 -0.063155904 -0.13037817 -0.037450664 -0.13020092 -0.12229596 0.023478601
0.011818571 -0.29893848 0.21112123 0.058790095 -0.15395619 0.14638975 -0.109168224 -0.09390429
0.11447342 -0.14711928 -0.2735132 0.02634195 0.091923624 0.12397487 0.120430656 0.016793402
0.13174158 -0.0006214405 0.13687512 0.09198039 0.16597429 -0.10201834 0.06234826 -0.08558673
0.026585437 0.18976472 -0.22220294 -0.009428755 0.16314253 -0.11558738 0.018611306 0.20801932
0.25517172 -0.10821245 0.13987322 -0.08667223 0.1870206 0.11842221 -0.08608697 -0.22776744
-0.053716976 -0.08353179 -0.207447 0.11913614 0.08943701 0.015777627 -0.19985148 -0.108450755
-0.009367099 0.10999255 0.22140653 0.015096271 -0.08280028 -0.16981971 0.13194987 -0.089868635
-0.009274516 -0.12962672 -0.13716245 -0.13773131 0.22387446 -0.14959481 -0.17784016 0.09398903
-0.05009456 -0.2227746 0.02106364 0.028553473 -0.020650355 0.0575438 0.010653825 -0.036004003
0.040190164 0.15577519 0.16095506 0.15511535 0.19372346 -0.048739716 0.044831373 -0.16460897
-0.14642538 -0.11773622 -0.11546972 0.043060333 0.020021519 0.10162095 -0.08890006 0.013713527
-0.11148572 0.050863173 0.10996978 0.101021536 0.0042163334 -0.1052627 -0.18989904 0.02502514
0.20506078 -0.22694732 0.15026568 0.16263545 0.10249502 -0.022510776 0.09128546 0.10352573
-0.022902284 0.029353017 0.01616272 -0.10563607 0.028370269 -0.21397556 0.08600358 0.17823714
-0.05154597 0.045254983 0.16828258 0.15705638 -0.04422036 -0.004108344 -0.09391834 0.042153075

atom_encoder.atom_embedding_list.5.weight f4 [6, 128]
00000000: 4775 2abc 1c17 113c 769f 88bc d788 8a3d
00000010: fac1 1ebe c5ab 2f3e 0483 03be c8bc 16be
00000020: 58d9 06bd b03c 493e 411e fbbc 8eb4 04be
00000030: 6a52 88bc 782e 383e da27 0c3e 9fb9 2dbe
00000040: 3c91 94bd 78a6 08be 0e34 3fbe 0ce5 483e
00000050: 8f41 acbc 7681 38be 70e6 08be 0978 9ebd
00000060: c061 babd 062f 2ebe f962 9f3d c3f4 043e
00000070: 0f53 ddbd 0605 6fbd 0165 4b3c 0495 353e
00000080: 049d d13c 4d5f 38be 20aa 1dbe fd24 0f3e
00000090: 9d15 41be f75d 563d 734b 11bd af59 0ebd
000000a0: fe44 24be b00b 43be f408 ccbd cf15 1fbe
000000b0: 9800 36bd 9136 d4bd 72f0 21be f3b1 453e
000000c0: f5f6 9bbd 9133 07be dfc4 18be 324e 0d3e
000000d0: 3527 cabd 0031 ee3d ada6 38be e4c7 12be
000000e0: 1196 513e 851d 53be 398c bc3d d7ce a93d
000000f0: 9e06 31be 102d e53d 06c8 1bbd 80d1 393e
00000100: 445d 3e3e 9d40 4a3e 9b5a 76bd ddec 503e
00000110: 8f99 29be c8b9 8c3c d77a 5b3e 0960 373c
00000120: 5de2 b7bd d01c da3c 187b 1ebe ece8 b43d
00000130: 2a63 c5bc 470e dcbd fa3c a83d 714d b13d
00000140: 212a a83d 5f6c 423e c164 0d3e 8983 a8bd
00000150: 8545 edbd 8eaf 22be 9008 273e f231 3c3e
00000160: 3c9a ca3d 35d6 4a3d 612d 833a 0767 86bc
00000170: da4b 91ba 8c6a 223e 35d6 b63d aa8d 17be
00000180: 8ee7 f93d 6cd4 0e3e 6071 86bd e665 1dbe
00000190: 98a6 9c3d 465e d2bc 1881 28be 5d80 2cbe
000001a0: 417c 8fbd 08a8 87bc 765b 4dbe ee7e 4cbe
000001b0: f6b4 c23d 20a3 e4bd cc82 14be 6004 b5bc
000001c0: 1195 1d3e ee49 6dbd 60b2 e9bd 858a 013e
000001d0: 35a4 913d 9de3 3cbe cad6 153e bcaa 413e
000001e0: fe6c 43be 20c9 8bbd cf92 8bbd 43c2 70bd
000001f0: 7138 d53d 3278 96bd d8ca 053d a6e9 083e
00000200: 8ee3 9e3e 14ff e23e 51c6 92be aad6 ed3d
00000210: 4b4a 10bc 886d 60be 3180 393e 89fe 7a3d
00000220: 72d8 c03e 23f5 5abd a5a0 abbd 4f63 a1be
00000230: df14 f9be 557d f3bd ecaa b7bd 117b d53e
00000240: a11f 423e bf57 a73e 7476 8ebe d19a f53d
00000250: 91b2 3a3e 5c8a 173e b971 14be a497 b3bd
00000260: 8525 e43d a15b 7c3e 2794 0cbe 7372 5dbd
00000270: 8257 613e 8084 c6be 2370 8e3e 471c 523e
00000280: bbf8 c63d 73d4 96bd 2a60 993d 8074 863e
00000290: aa4e 233d a589 55be 2ee6 593c 233e 583d
000002a0: 5041 083b 7c68 483d cd01 33be 80a7 803e
000002b0: e5f7 97bc 7e1a 933a 92c0 773d 3308 ee3e
000002c0: fbc7 99be e6d0 d93d e7e3 563e 8fde b0be
000002d0: 350a 31be 45a5 bb3e a19e 813e e7dd 81be
000002e0: 3bb5 fabe 6c9c 59be aa9e 32bc 401a 043e
000002f0: ae11 71bd de29 8abe 8cf1 4b3d 8a69 cfbd
00000300: 6a79 83be 6ca5 23bd 2bda 813d 973f 213e
00000310: 0f4d 2b3e 240a 4fbe 8eda 77be 441d 983e
00000320: 6342 3d3e 86ae 1cbd 2e3d a03c c89f 8abe
00000330: d9f9 fbbe 9fde bb3c 9499 323e b413 34be
00000340: fe2f 47bd e4a5 0bbc df8f 6fbe dc64 033e
00000350: 76fe 173e 95d7 f23d 1b42 4b3e f4ac a13e
00000360: 73bf b43d e790 44be a335 f5bd 60eb 1fbe
00000370: 2f4c 5fbe 4b0a a43b 6b7b 6d3e 30fa 353e
00000380: 2ab9 1abd 08db dbbd d322 c4bd 59bd a93b
00000390: 1701 bc3e 74c6 49be 2055 1e3e 9d13 dfbe
000003a0: 0eac bd3d aad9 6dbe 64c6 b7bd b409 b43e
000003b0: ad04 793e 7cf8 63bc 28ef 0b3e 642d d8bb
000003c0: 339f 57be d34b f33d a3e5 f4bd 1e72 5d3d
000003d0: 924a b8be fa86 af3e 9470 a0bd 504a a7be
000003e0: 17b3 d6bd fbcb 083e f5c9 d33d b20f dabb
000003f0: 0862 15be 21b7 88be 8bbc 4dbe 3253 7abe
-0.010403938 0.008855607 -0.0166776 0.067643814 -0.15503684 0.17155369 -0.12842947 -0.14720452
-0.03292212 0.19652057 -0.030654075 -0.12959501 -0.01664086 0.17986476 0.13687077 -0.1696534
-0.07254264 -0.13344753 -0.18672201 0.19618624 -0.021027355 -0.18018135 -0.13369155 -0.07737739
-0.091006756 -0.17010126 0.077825494 0.12983994 -0.10806858 -0.0583544 0.012414218 0.17732626
0.025587566 -0.18005104 -0.15396929 0.13978954 -0.18855901 0.052335706 -0.035472345 -0.034753498
-0.16041943 -0.19047427 -0.09962645 -0.15535663 -0.04443416 -0.1036197 -0.15814379 0.19306163
-0.07615463 -0.13203265 -0.1491885 0.1379936 -0.098707594 0.1163044 -0.18032332 -0.14334065
0.20467402 -0.2061673 0.09206433 0.08291405 -0.1728768 0.111902356 -0.038032554 0.18146324
0.18590266 0.1975121 -0.060145 0.20402856 -0.16562484 0.017178431 0.21433578 0.01119233
-0.08978722 0.026625067 -0.15476644 0.08833489 -0.024095137 -0.10744911 0.08214755 0.08657349
0.082111605 0.18986653 0.13807966 -0.08228213 -0.115855254 -0.15887281 0.1631186 0.18378428
0.09892699 0.04952069 0.0010008031 -0.01640655 -0.0011085228 0.15860957 0.089275755 -0.14800134
0.12202369 0.1394822 -0.06564593 -0.15370902 0.07648963 -0.025679719 -0.16455495 -0.16845842
-0.070061214 -0.016559616 -0.20054421 -0.19970295 0.09507172 -0.11163926 -0.1450302 -0.022096813
0.15388896 -0.057931833 -0.114109755 0.12650497 0.07111398 -0.18446203 0.14632717 0.18912786
-0.19084546 -0.06825471 -0.06815111 -0.058779012 0.10411156 -0.07347144 0.03266415 0.1337038
0.31032985 0.44335234 -0.28666928 0.116132095 -0.008806775 -0.21916783 0.18115307 0.0612779
0.37665135 -0.053456437 -0.0838025 -0.3152108 -0.48648736 -0.118891396 -0.08968148 0.41695455
0.18957378 0.32684132 -0.27824748 0.119924195 0.1823218 0.14798874 -0.14496507 -0.087691575
0.11139969 0.24644329 -0.1372839 -0.054064225 0.22006038 -0.38772964 0.2781993 0.205186
0.0971541 -0.0736474 0.07489045 0.26260757 0.03986994 -0.20853288 0.013299508 0.052793633
0.0020790882 0.04892777 -0.17481156 0.25127792 -0.018550823 0.0011223105 0.060486384 0.4649063
-0.30035385 0.10635547 0.20985375 -0.345448 -0.1728905 0.36649528 0.25316337 -0.2536461
-0.48966393 -0.21251076 -0.010902086 0.12900639 -0.05885475 -0.26985067 0.049790904 -0.10127552
-0.2567857 -0.03995268 0.0634044 0.15746914 0.16728614 -0.20218712 -0.24204466 0.29709828
0.18482356 -0.038252376 0.019560423 -0.27075028 -0.49214056 0.022933302 0.17441398 -0.17585641
-0.048629753 -0.008523438 -0.23394726 0.12831444 0.14843163 0.11857525 0.19849436 0.31577265
0.088255785 -0.19195901 -0.11973121 -0.15617132 -0.21806405 0.00500611 0.23191611 0.1777122
-0.037774242 -0.10735136 -0.09576955 0.0051800427 0.3671958 -0.1970461 0.1546216 -0.4356965
0.092613325 -0.23227564 -0.08973387 0.35163653 0.2431819 -0.013914224 0.1366545 -0.006597208
-0.21056823 0.11879697 -0.11957862 0.05406391 -0.35994393 0.34282666 -0.078339726 -0.32673883
-0.104833774 0.13359062 0.103412546 -0.006654703 -0.14588177 -0.26702216 -0.20091455 -0.24445799

atom_encoder.atom_embedding_list.6.weight f4 [6, 128]
00000000: 5a27 80be a94e 1ebd f46b d23a 9ac9 153d
00000010: 573a 833e 77e2 233e 2a15 1f3d 6a1a 0abd
00000020: aa6b aabd da82 7c3e dcde 543e 9097 7d3c
00000030: 4ce6 23bd fc71 4fbe b4b5 ae3d a6b5 e3bd
00000040: 448f 023e 182c efbd 30db 8e3e 9174 533b
00000050: 6c34 a1bd e3ab 9c3d 5147 07be dd43 f6bd
00000060: 6d03 73be f46e ed3d a67b 75be 68ec e9bd
00000070: 385e 6d3d 0130 143e d002 2f3e b52c 523d
00000080: 3f98 5fbd 0cf7 0ebd b1c1 7bbd c8dd 06be
00000090: 71f2 c1bd c95b 3e3e c8fc 4c3d 710e fb3c
000000a0: 7a40 1fbe dce4 9e3d 9d09 2d3e 64c5 633e
000000b0: 1f47 18be 4a6a 5bbe daae f73d 107f 1d3e
000000c0: c2f8 393e 9466 f53d 5ed7 21be 09d3 51be
000000d0: 1119 523e fb1a 653e e563 843e 3f63 993d
000000e0: dcfa ea3d c6fa 5dbe 0779 a33c eefc 9d3d
000000f0: 777e 423e b2ac eabd 1367 203e 160f 823d
00000100: 774f 313e 1607 8ebe 0843 6dbe 6eea 883e
00000110: 9bdb 833d 1cec 62bc d19a 983d 326d 2e3e
00000120: 1a35 823e e092 7abe f072 72be 2c64 05be
00000130: d522 983d 2f37 3cbe 9216 3e3b 02a7 193e
00000140: 6014 48be 4ee9 30be fa6b 9ebd 1d71 e23d
00000150: 1f74 413d ec6d b8bd 1990 b73d ea2d 553e
00000160: f9cd 6c3e 1eb2 403e 9c1e 303d ab81 eebd
00000170: eceb 70be 2a8c 883d 8d11 61bd 6ffc 853d
00000180: 570b 3a3e 4cd2 7cbe 8ff8 83ba b542 de3d
00000190: e471 4fbe 7e07 06be 4076 8f3e 34d0 fbbd
000001a0: 483d c63d 403c 07be b92f c2bd 3be8 4b3d
000001b0: 00e0 3e3e 6df7 c8bc e7f5 bc3d fe55 123e
000001c0: 6551 73be 8a96 4ebe 7d48 593e 27fa ac3e
000001d0: 0a4c 1cbe 8ecf 76bd e843 8dbd 31dd a0be
000001e0: 55b6 b33d 7a94 9cbd 62d9 f6bd 4729 90bd
000001f0: 4da5 1f3e e979 253e 487d 5ebe 2515 3c3e
00000200: 13c6 a5bd cdd8 20be 57e2 94bd e0d8 453e
00000210: 4ad8 1a3e d142 60be a439 e8bd ec98 063e
00000220: c163 c73d bea2 343e 7372 4cbe 9286 1bbe
00000230: 16d8 c03c fbf1 d93c 18ed 353e 0bca b3bb
00000240: 8df8 aabc c672 9dbd efe7 3bbe 788a fe3d
00000250: e38a 8b3d c588 41be f369 4e3d a4dc d8bd
00000260: 5fe0 f9bd 3abb dabd 1c42 d93c be89 16be
00000270: b1be a6bd d88e 713e 66e9 11be 98fb 31be
00000280: a971 1d3d d79e 263e d95e f13c 40a7 02be
00000290: 847b 543d eb14 49bd f852 30be 67f6 4ebe
000002a0: 914f 313e 9d83 293e 6e69 89bd 3454 10be
000002b0: d98f fbbd e54b 433e 4b57 b53c 7102 c83d
000002c0: ea50 08bd 09b1 05be ecf5 653c 1e07 32be
000002d0: 3c5c 7ebb 4de4 1a3e e73f 373e d928 8ebc
000002e0: ed21 a6bc b419 973d 4fe3 05be 7e11 48be
000002f0: 6b04 2bbd 6710 e83d bde3 563e 8a13 ac3d
00000300: 27d6 c23d 35ed 3dbb 4308 44be a9fc 24be
00000310: cced 863d c19c 1f3e 5f71 ba3d 77ad 0f3e
00000320: c34a e23d 0d3d 19be 664e 2bbe c596 f1bd
00000330: 7b5e 64bd 9771 403e b373 043d c840 2ebe
00000340: f541 593d 51a6 52bd 205b a8bd 2764 1abe
00000350: 924f 443e df23 453d a23c 08be 8ae2 ed3d
00000360: 733e 47be 6f37 cb3d 7d12 ad3b 003b de3d
00000370: 5d7e 50bd c577 34be 5612 bebd 49bb 1fbe
00000380: 9657 1abe 8d70 27bd 3c4a cd3d 9368 b83d
00000390: c7ba 1dbe 2049 633d 166c d0bd e611 4f3e
000003a0: 3796 343e 0991 51bd c7db 05be bf32 e2bd
000003b0: 25c3 f23d adc0 5dbd 8cc2 fc3d 80bb 633d
000003c0: 750b 363e 1e28 e1bd 2893 e53d b73b 2f3e
000003d0: 2129 afbd 3a54 30be c0f8 d0bd 626f 88bc
000003e0: c3d7 403e 8704 f93d 85a5 213e 8206 e2bc
000003f0: 2579 4ebe 1628 3bbe 3b1e f13d a1e7 c83d
-0.25030023 -0.038649235 0.0016053901 0.036569215 0.25630447 0.16004358 0.038838543 -0.033716597
-0.083213165 0.24659291 0.20788139 0.01547803 -0.04001455 -0.20258325 0.08530751 -0.11118631
0.12749964 -0.11678332 0.27901602 0.0032265524 -0.07871327 0.07649972 -0.13210799 -0.12024663
-0.23731776 0.11593428 -0.2397295 -0.11422044 0.057951182 0.14471437 0.17090917 0.051312167
-0.054588553 -0.03490357 -0.061464015 -0.1317054 -0.0947007 0.18589701 0.05004576 0.030646535
-0.1555194 0.07758495 0.16898198 0.22243267 -0.1487088 -0.21427265 0.12093897 0.15380502
0.181613 0.11982456 -0.15804812 -0.2049066 0.20517375 0.22373573 0.25857463 0.07489633
0.11473629 -0.21677694 0.019955171 0.07714258 0.18993555 -0.1145872 0.1566432 0.06350534
0.1731547 -0.2773978 -0.23170102 0.26741356 0.06438371 -0.013850238 0.07451404 0.17033842
0.25431138 -0.24470091 -0.23676658 -0.13026494 0.07428519 -0.18380426 0.0029005152 0.15005115
-0.19539022 -0.17276499 -0.07735439 0.11056731 0.047229882 -0.09005341 0.08963031 0.20818296
0.23125447 0.18817946 0.04299794 -0.11645826 -0.23527497 0.06667359 -0.05494838 0.065422885
0.18168388 -0.24689597 -0.0010068583 0.10852567 -0.2025829 -0.13088796 0.28019905 -0.12295571
0.09679657 -0.13206577 -0.094817586 0.04978202 0.18640137 -0.024532044 0.0922659 0.14290616
-0.23761518 -0.20174614 0.21219058 0.337846 -0.15263382 -0.060256533 -0.06897718 -0.31418756
0.087750115 -0.07645507 -0.12053181 -0.07039123 0.15590401 0.16159786 -0.21727479 0.18367441
-0.0809442 -0.15707703 -0.072697334 0.19321012 0.1512157 -0.21900488 -0.11339119 0.13144273
0.097358234 0.17640206 -0.19965534 -0.15188053 0.023540538 0.026604643 0.17766225 -0.005486732
-0.020870471 -0.07687907 -0.18350194 0.124287546 0.068136 -0.1889983 0.05039401 -0.10588959
-0.122009985 -0.10680242 0.026520781 -0.14700982 -0.0814184 0.23589647 -0.1424919 -0.17381132
0.038438473 0.1627153 0.029464172 -0.12759113 0.051875606 -0.049092215 -0.1721915 -0.20211183
0.17315508 0.16554113 -0.06709562 -0.14094621 -0.12283296 0.1907192 0.022136351 0.09766091
-0.03328029 -0.13055815 0.014035683 -0.17385527 -0.00388123 0.15126152 0.1789547 -0.017353462
-0.020279849 0.07377949 -0.13074993 -0.19537923 -0.04175226 0.113312535 0.20985313 0.08402164
0.095135026 -0.0028980498 -0.19143777 -0.16112007 0.06588325 0.1558714 0.09103655 0.14031015
0.11049416 -0.14964695 -0.16729125 -0.11796335 -0.055754166 0.18793331 0.032336902 -0.170169
0.053041417 -0.051428143 -0.08220506 -0.15077268 0.19170979 0.048129912 -0.1330438 0.116154745
-0.19457416 0.099226825 0.005281745 0.10851097 -0.05090176 -0.17623813 -0.09280841 -0.15598787
-0.15072474 -0.04087882 0.10023925 0.09004321 -0.15403281 0.05548966 -0.10176866 0.20221671
0.17635427 -0.051163707 -0.1307212 -0.11044835 0.11853627 -0.054138828 0.12341794 0.055598736
0.17777808 -0.1099398 0.112097085 0.17112623 -0.085527666 -0.1721963 -0.10203695 -0.016654674
0.18832307 0.12159067 0.15785797 -0.027590994 -0.201634 -0.1827701 0.11773344 0.09809805

atom_encoder.atom_embedding_list.7.weight f4 [2, 128]
00000000: 475f 263e 4f75 e63c 4232 c8bd 4750 0e3a
00000010: eac3 b8bd d6c0 a93d a0c8 65bc df04 28be
00000020: 3b55 34bd 9799 05be 4422 4fbe d30e af3b
00000030: ebe1 77be 29cc 633e 1f4f 093e 92a4 413d
00000040: 4c6c 04bc 69dd f6bd 04cd 0c3e 6cb2 fb3d
00000050: 056a 303e c92e 20be 91fd 0a3e 0024 0cbe
00000060: 735c c53d c0c7 cf3d 48d2 093e 9d78 e8bd
00000070: 0579 193d 90fd 3a3e 4f64 92bd 1f34 11bd
00000080: 4982 f8bd 49e2 2cbe d130 893d fe19 16be
00000090: 5063 503e 7aa4 37be ea1d 38be a41f 38bc
000000a0: f508 61be 7605 0d3e f29a 2abe e551 793d
000000b0: 15cc 9ebd acd9 51be 99d8 1ebe c4c6 033e
000000c0: 6148 0bbd 664c 0ebd 1c33 20bd aa8c 98bc
000000d0: 6bac 2a3c 3b09 06be c2c9 6c3d c89f 2c3e
000000e0: f03d 46be 0305 80bd 5f91 40bd f491 6c3d
000000f0: 99d6 20bd bee4 cebd 9c94 1f3e a347 f0bd
00000100: 2971 6ebd 6469 063e f00b 0bbe 9a03 cb3d
00000110: 0233 293e e3f4 32be 7e42 113e 2ced aebd
00000120: cd9a ec3d 9dd5 cbbd 4961 f93d 0f14 943b
00000130: 8a3a b33d b916 183d f1e1 b4bc 8575 38be
00000140: 839d 113e c856 4b3e f515 a93d 4d6f 3dbe
00000150: 923b ad3d 7278 a5bd 51e7 113e 4294 943d
00000160: d356 fdbd 3c2f 2f3e 6666 8cbd 33de 093d
00000170: 8ff8 69bd 0c95 dbbc 35dc 53be e3d5 ea3d
00000180: 075c ca3d 862e bc3d 36fb 35bd 8227 ac3d
00000190: 2efb 01be 01cc c83d 8a35 e7bd 7003 c13d
000001a0: 96f7 383e 5f8b 4bbe 43b0 123e e011 d3bc
000001b0: a9f7 4dbe bac1 b03b 456e f8bd 0ab2 5e3e
000001c0: c48d 55bd 103c 5fbe 76bf f8bc f233 1dbe
000001d0: 8769 fd3d 7089 003e 3d10 04be 2e69 a23c
000001e0: 1357 253e 5feb a73d 6422 943d c6be a13d
000001f0: c6aa 4fbe 98be 3e3e f12e c73b 6d50 00be
00000200: 728b a7bd 47c3 143d ebae a0bd 991b 69bb
00000210: 6437 d5bd 9869 243e ffe4 a83d a368 c53d
00000220: f7f9 2cbe afa1 dabd 3bc6 8f3c 92e4 683e
00000230: c22d 3f3e 2733 77bd 94d2 0e3e 42d2 463e
00000240: e77e 36be ad0c 1cbe b224 6fbd afb3 fe3c
00000250: b23f 2ebe c059 813d 6ec2 11be 53c6 313e
00000260: 6afa aa3d 2fff 47be 0be5 5c3e 25e4 f7bd
00000270: 6914 d6bd 100f 96bc af61 df3d 141b 2fbd
00000280: c2c6 f83d fdad 3cbe 223e e9bd f726 a0bd
00000290: b130 14bc 7b9d 653e f2c0 3abd 4f55 0b3e
000002a0: 8947 353e c4da 36be 102f 5dbd 3363 fd3d
000002b0: 0d40 bb3d 4699 a43d 297f 3c3e 7b8b 043e
000002c0: 3d34 78be ae9d da3b c410 81bd a1a1 0bbd
000002d0: 5496 32be 97b1 e73d da5c 163e 6016 38be
000002e0: d026 b23c e5b6 1ebe 460c a63d bdf6 26be
000002f0: a5e6 3d3e 3f61 2eba db5b 413e 8665 32bd
00000300: 8a61 483e ae0b 98bd c34d 0cbe cc06 39be
00000310: 1355 19be 5ab9 45be 6bcb bcbc 6c6b 37be
00000320: 2880 f5bd 69b1 313e 04ec 5bbd ee65 ebbd
00000330: 5249 8f3d 3efe 54be b8a1 4fbd 27d5 adbd
00000340: 465f a43d aa94 e23d d96c 423e 0e25 45bd
00000350: 9bee 703d a908 083e a9c0 2dbe 6f72 9d3d
00000360: 05c0 343d fc75 5b3e 8e72 04bc afd4 83bd
00000370: c910 21be a5a0 e33a 4762 cb3d 732c e5bd
00000380: 6ba0 4bbe be57 4abe 21cc 143e 1ad0 e2bc
00000390: 4f14 3b3e 0787 24be d1d3 79bd 6d98 3e3e
000003a0: 8b98 243e dc8e 1f3e bcab 303e bf37 0a3e
000003b0: 2080 83bd 7a47 ccbd b653 41be 24a4 5ebe
000003c0: 1dd8 cbbd 9c78 c13d 5e91 1abe 061f 173e
000003d0: 506d 343e 0e8d 39be 8992 0dbd 06b8 49be
000003e0: f894 183e 56a5 dabd 85b9 133e 294e 463d
000003f0: 1df5 15be 0312 eabd c682 09be 7900 a3bd
0.16247283 0.028132109 -0.09775211 0.00054288324 -0.09021743 0.08288734 -0.0140248835 -0.16408108
-0.044026595 -0.13046871 -0.20227915 0.0053423434 -0.24207275 0.2224585 0.13409089 0.047276087
-0.008082461 -0.120539494 0.13750082 0.12289891 0.17227943 -0.15642847 0.1357329 -0.13685608
0.09636774 0.10145521 0.13459122 -0.1135113 0.03746893 0.18260789 -0.071480386 -0.035450097
-0.12134225 -0.16883196 0.06698764 -0.14658353 0.20350385 -0.17933837 -0.17980161 -0.011238012
-0.21976073 0.13771614 -0.1666067 0.060869116 -0.07753769 -0.20493191 -0.15512313 0.12868792
-0.034004573 -0.034740828 -0.03911124 -0.018621761 0.010417084 -0.13089459 0.0578096 0.16857827
-0.19359565 -0.06250956 -0.047013637 0.05775638 -0.039267156 -0.10102223 0.15584034 -0.117324136
-0.058213387 0.13126141 -0.13578773 0.09912796 0.16523364 -0.1747623 0.14185521 -0.08541331
0.115529634 -0.09952853 0.12176759 0.0045189927 0.087514 0.037131045 -0.022080394 -0.1801358
0.14220242 0.19857323 0.08256141 -0.18499489 0.08458628 -0.08079614 0.14248396 0.072548404
-0.12370076 0.17107862 -0.068554685 0.03365917 -0.05712181 -0.02680447 -0.20689471 0.11466577
0.09880834 0.09188561 -0.044429027 0.08405973 -0.12693474 0.09804536 -0.11289509 0.09424484
0.18063197 -0.19877385 0.14325051 -0.02576536 -0.20114006 0.0053941878 -0.12130407 0.21747604
-0.05213715 -0.21800256 -0.030364733 -0.15351847 0.12373643 0.12552428 -0.1289682 0.019825544
0.16146497 0.0819919 0.07233122 0.07897715 -0.20279989 0.18627393 0.006078594 -0.1253068
-0.08180894 0.036319043 -0.07845863 -0.0035569428 -0.104109555 0.16055906 0.082468025 0.096390985
-0.16892229 -0.1067537 0.017550578 0.22743443 0.18669799 -0.060351517 0.13947517 0.19416144
-0.17821847 -0.1523921 -0.058384605 0.03109154 -0.17016485 0.063159466 -0.14234325 0.17360811
0.08348544 -0.19530939 0.21571748 -0.12104062 -0.10453112 -0.01831773 0.109073035 -0.042750433
0.12147285 -0.18425746 -0.11388804 -0.07819932 -0.009044812 0.22423355 -0.045594163 0.13606761
0.1770307 -0.1785689 -0.05399996 0.123724364 0.09143076 0.08037047 0.18407883 0.12943833
-0.24238677 0.006671629 -0.06302026 -0.03408969 -0.17440158 0.113131694 0.14683858 -0.17977285
0.021747023 -0.15499456 0.0810781 -0.1630506 0.18545015 -0.0006652064 0.18882696 -0.04355385
0.19568458 -0.07424103 -0.13701539 -0.18068999 -0.1497386 -0.19308987 -0.023046216 -0.17912072
-0.119873345 0.17352833 -0.05369188 -0.11494051 0.069964066 -0.2080011 -0.050691336 -0.08487921
0.080259845 0.11063512 0.18986835 -0.04813104 0.058821302 0.13284554 -0.16968025 0.07687842
0.044128437 0.21431726 -0.008083953 -0.064370506 -0.1572906 0.0017366601 0.09930854 -0.11190119
-0.19885413 -0.19760033 0.14530994 -0.027687121 0.18269466 -0.16067134 -0.06099302 0.18612833
0.16073816 0.1558184 0.17253011 0.13497828 -0.06420922 -0.099745706 -0.1887959 -0.21742302
-0.0995333 0.094468325 -0.15094516 0.14757928 0.17619824 -0.18120214 -0.034563575 -0.19699106
0.14900577 -0.106760666 0.14426239 0.048414383 -0.14644285 -0.11429217 -0.13428792 -0.079590745
