logs/dict/ogbg-molbbbp-GCN-64-5-128-0.0001-0.5-0.0-cls-44.pth (torch, 402148 bytes, 43 tensors)

atom_encoder.atom_embedding_list.0.weight f4 [119, 128]
00000000: 41b7 22bd b8bd 413d 1a4d a2bd e97d 19be
00000010: 0850 493d 2382 57bc af87 6bbe 42f7 453d
00000020: eb55 0dbe 09d0 c0bd 7029 6ebe 0289 d9bd
00000030: b7db 20bc 149e 57be ad92 c13d f8df 1b3e
00000040: 4cdc d8bd 7af0 56be 7291 83be 4934 4f3d
00000050: c0e4 a43d 295a 673e 10b4 023e 3a5a e4bd
00000060: 59cb debc 77bf 05be 04b9 fdbc 4315 523e
00000070: c8ff 22be 3147 80be 0eb2 623d b823 623c
00000080: a046 013e c139 79be 5680 a83d 0eb3 273d
00000090: 49a8 13be ee9e 36be 6860 b2bd 5f82 033e
000000a0: ba72 65bd 7f3b d4bd 2eb0 c83d 054d 383d
000000b0: 037f 16bd 1736 16be 87df f7bd 5047 533c
000000c0: 5b6d a73d 2db4 0d3e db31 c03d 05f9 923d
000000d0: 44b5 383c ac04 90bd 1dd6 0d3d edb2 c03d
000000e0: dada 45be 2501 d63b 23ab eb3d bb17 0d3d
000000f0: afc6 893d ec11 fa3d b5df b73d fb22 16be
00000100: 3700 ff3d 44eb 2a3e 6b1d bbbc 316d 873e
00000110: be66 133e f6e8 763e 7700 19be e3cf dc3d
00000120: 4008 173d 16b0 203e 595b 073d 8063 75be
00000130: ebc3 17ba 49be 413e 82d1 6d3d a3ee 633d
00000140: e116 c6bd d1f8 2dbe e7ac f1bd c475 af3d
00000150: e9f5 65be dc73 51bd 045d b43d 8fee 9f3d
00000160: 34f2 41be 12c4 f7bd 712d 37bd 0396 4abd
00000170: 5797 103e 7d72 923d b3bc 063e cf5d 493d
00000180: 31f6 983d cd87 2c3d 19f8 183c 0e92 c5bd
00000190: 2ba7 22be dc78 f83c 4ad0 f3bd 68e5 f13d
000001a0: 4fb9 de3d 8c6d 32bd 9161 213d 2ce2 83bd
000001b0: b260 cbbd 018b 123d cd39 dc3c e4df 793b
000001c0: fc02 1f3d f27d 3c3d 2bcf 633d d8ee 97bd
000001d0: 7622 8fbd 78ac 48be 1598 b93d 2951 3dbe
000001e0: 388d 063e e8b8 373e 9a61 90be 671c 823d
000001f0: 82aa e83d 2647 f4bd ad1a 2fbe f42f d1bd
00000200: aada 983d 977e 5fba 70a3 783d f6d4 133e
00000210: 7c74 05bd fb7d 83bd a33c 65bd 2a8d e1bd
00000220: 0b06 733d f369 033e 66fe db3d 4303 7b3d
00000230: a661 e6bd e84d 63bd 4b74 1b3e 9aab 00be
00000240: 18a1 753d a49d 5b3d 507b 073c 0fe2 91bb
00000250: d960 d7bd 847e e73d f5e6 c03d 94c5 dc3d
00000260: eaf4 bcbd ea90 19be f35d 043e 976f 1e3e
00000270: e73a 3dbd fe23 90bd ddc2 2c3d cdf0 0b3e
00000280: e00b 2fbd dbaa 29bc f72b 753d adcd 3eba
00000290: 598e a63b a353 17bd 67b0 adbd 6758 07bc
000002a0: 3d5c 193e 69a8 93bd 0641 fa3c db16 07be
000002b0: c972 0ebe c88e 8abc 3625 abbd bcf0 d6bd
000002c0: a5f8 0c3e 7488 59bd 3f33 83ba 6203 b33c
000002d0: 48e8 a7bd 90f5 a43d 2bc5 b8bd e4cc a7bd
000002e0: 44f3 edbd c837 a8bd 8cb0 10be ae49 9e3d
000002f0: 6668 c5bd 40ab 01be c606 823d 53cc bbbd
00000300: 8181 233d 4296 c33d cff6 5c3d b7c0 08be
00000310: 6856 f3bd ea99 123e 40f0 0e3e 050a c2bd
00000320: d868 d53d 58d4 343c 5da3 ee3d 0bec e5bd
00000330: c4d9 7e3d 2318 c1bd a3ef b93d 1dba 363d
00000340: b1a2 ae3c 5c61 153d b7c5 10be 71b6 b8bc
00000350: 686b 0abe 97fe c4bb daf7 853d 65ba 8abd
00000360: f532 1dbe b4cf a8bd 24c8 f4bc 101a 40bd
00000370: 5ea5 df3d 71bf 81bd bb4d d3bd 73db a43d
00000380: 6d7f 403d 2629 bcbd b977 f33c 9268 0d3e
00000390: 769f 9b3c d954 59bc c671 dc3d a718 b4bc
000003a0: 3ed7 9d3d db0a c7bc a129 51bd 7ffa 71bc
000003b0: 89f1 5fbd 954b c5bc 1119 373c 0790 683d
000003c0: 72a3 85bd b98c 783d 7a8b 01be 6817 e0bd
000003d0: 6914 113e b29b dbbd 45a0 22bd 4e9f 1e3e
000003e0: 8683 d53d f8eb 36bd 6297 06be 96a0 84bd
000003f0: aee1 16be 9b7e b8bd 0d42 a0bd 3aae f23d
-0.039725546 0.04730007 -0.07924862 -0.14989437 0.04914859 -0.013153586 -0.23000978 0.048331507
-0.13802306 -0.094146796 -0.23257995 -0.10621835 -0.009818009 -0.21056396 0.09451804 0.15222156
-0.10588893 -0.20990172 -0.25696903 0.050586972 0.08051443 0.22592987 0.12764001 -0.11150022
-0.027196573 -0.1306132 -0.030972011 0.20515923 -0.15917885 -0.25054315 0.055345587 0.013802461
0.12624598 -0.24338438 0.08227603 0.040942244 -0.14419664 -0.17834064 -0.08709794 0.12842701
-0.056017615 -0.103629105 0.097992286 0.044995327 -0.03674222 -0.14669071 -0.12103181 0.01289542
0.08175155 0.13838263 0.09384509 0.07176403 0.011273686 -0.07032141 0.034628022 0.094091274
-0.19321766 0.006530898 0.11507251 0.03444646 0.06727349 0.122104496 0.089782156 -0.14661781
0.12451213 0.16691309 -0.022841176 0.26450494 0.14394662 0.24112305 -0.14941584 0.10781839
0.036873102 0.15692171 0.0330461 -0.23963737 -0.0005789387 0.18920244 0.05806113 0.055647504
-0.096723326 -0.16989447 -0.11800557 0.08567384 -0.22457089 -0.051135883 0.08806804 0.07809173
-0.1894005 -0.12097944 -0.04472107 -0.04945947 0.14120232 0.07150743 0.1315792 0.04916173
0.07468832 0.042121697 0.009336495 -0.09646998 -0.15884082 0.030331068 -0.11904962 0.11811334
0.108751886 -0.043561503 0.039399687 -0.06439623 -0.099305525 0.035777096 0.02688303 0.0038127834
0.038821205 0.04601855 0.055617493 -0.07418603 -0.06988995 -0.19597042 0.090622105 -0.18487991
0.13139808 0.1794163 -0.28199464 0.063530736 0.11360647 -0.11927633 -0.1710002 -0.102142245
0.07463582 -0.0008525638 0.06070274 0.14436707 -0.03258179 -0.06420513 -0.05596603 -0.11013253
0.059331935 0.12833385 0.10741882 0.061282407 -0.11249094 -0.05549422 0.15181081 -0.12565461
0.059968084 0.053617135 0.008269146 -0.004451997 -0.10516519 0.11303428 0.094190516 0.107798725
-0.09226401 -0.14996687 0.12926464 0.15472256 -0.04619875 -0.07038115 0.042178024 0.13666077
-0.042735934 -0.0103556765 0.05985638 -0.0007278573 0.005082887 -0.036944997 -0.08480912 -0.008260823
0.14976592 -0.07209856 0.030548584 -0.13192312 -0.13910975 -0.016913787 -0.08356707 -0.10495135
0.13766725 -0.053108647 -0.0010009779 0.021852199 -0.08198601 0.0805465 -0.09021982 -0.08193377
-0.11618665 -0.082137644 -0.14129847 0.07728897 -0.09639053 -0.12662983 0.06348948 -0.09169831
0.039918426 0.09550144 0.053946313 -0.13354765 -0.11881715 0.14316526 0.13958836 -0.09474567
0.10420388 0.011036955 0.11652253 -0.11226662 0.062219396 -0.09428432 0.0907891 0.044611085
0.021317812 0.036469802 -0.14137922 -0.022547932 -0.13517535 -0.006011795 0.065414146 -0.06773833
-0.1535147 -0.08242741 -0.02988059 -0.046899855 0.10920213 -0.06335343 -0.1031756 0.08049669
0.046996523 -0.09187536 0.029720174 0.13809422 0.018996935 -0.013264858 0.10763888 -0.021984411
0.0770707 -0.024297168 -0.05106509 -0.014769196 -0.054673705 -0.024083892 0.01117541 0.05677798
-0.06525315 0.06068108 -0.12650862 -0.109419644 0.14167942 -0.10723056 -0.039703626 0.15490457
0.10425477 -0.04465863 -0.13143685 -0.06475942 -0.14734527 -0.09008523 -0.07825098 0.11849637

atom_encoder.atom_embedding_list.1.weight f4 [4, 128]
00000000: 5d5d aabc 5fb4 19be 35a3 de3d 03f5 4dbe
00000010: ea6f 9bbd b773 af3d 81bf cf3d 2dc8 d5bd
00000020: cebe 9b3d 3383 c6bd d045 e5bc a3df 493e
00000030: 4ca4 b63d 810f 85bd ed32 04be e553 4b3d
00000040: c92b 593b 2804 163e 1ce0 5d3e b8ad c4bb
00000050: 6142 56be 58a0 e93d a42d bc3d a61d 063e
00000060: 022b 0fbe 7ef8 313e 222c 0ebd 67cf f7bd
00000070: 31ee 76be 735a aebd 9266 02bc 7715 68be
00000080: b646 0dbd 1d9e 383e aaee 373e 7eb0 273e
00000090: 1e04 a23d cf4b 1ebe ef33 10be 4bc0 89bc
000000a0: 3207 71be 26a4 283c 18ac d5bc 010e c23d
000000b0: dfe1 ee3c 940f 063e 0d30 8c3d 049a 2abe
000000c0: 1076 d7bd 3db5 8ebd 02dd bb3d 70b6 c139
000000d0: ad92 a1bd f8df 3ebd 18a8 623e 5c40 c53d
000000e0: f5fd 573e 0107 bc3c 66b0 b33d 7fe3 6e3d
000000f0: 2f9b adbd 643e b8bd 9ad0 223e dbef 503e
00000100: 688e 493e 7a44 23be cb05 b6bd 14c5 2ebd
00000110: cd75 fa3d 6e40 2e3c 7748 103e 2f55 b4bd
00000120: e763 2abe 3786 0e3e 4bf7 28be aaab c3bc
00000130: 1ce2 103e 48d3 00be 6e4b 5abe 949c 2ebd
00000140: 755c f4bd 3505 8b3d 7d77 47be 7637 503e
00000150: a830 2cbe a50b 013d 3812 a0bd 0c2c 9a3a
00000160: 6318 51be 059a 5cbe e0f3 ce3d 6a47 153c
00000170: 75f4 d4bd 55a6 1d3e 077a 723d c8c0 4d3e
00000180: 08c3 3d3e 6659 60be 7905 783d bfbe fa3b
00000190: 3ffd 2fbe b7f9 0dbd f3de 3a3d 875f d23d
000001a0: 214e ad3d 2b2e fbbd bbe2 97bd c5ce f13d
000001b0: b5a4 f83d 2a26 c63d 5946 733e e981 a5bd
000001c0: fa8d 69be b7c5 ed3d 9100 92bc 7402 4a3e
000001d0: d9b1 26be 8fb1 e03d ca51 f9bd 5388 d9bd
000001e0: 6954 dc3d c3de 2a3e e9e0 d5bd bf54 9fbd
000001f0: d2c7 edbd 650f 9f3d 9646 33be bb8f 033b
00000200: 9d70 06be 1b7e 2ebe dd25 f5bd 5bcd 263e
00000210: 8de3 8ebd 3330 543d e431 04be a86f fdbd
00000220: 9e02 063e 4096 fcbd 1ba9 a5bd aae8 89bc
00000230: 644b eabc dfe9 dc3d c541 aa3d cdb1 b4bd
00000240: 6030 23be f120 bc3d 78a2 c43d 4ab0 ec3d
00000250: 7e95 20bd 2998 adbc 80b9 8f3e fd34 f8bc
00000260: caf8 1bbe 45dc c1bc ec31 1bbe b8a6 cd3d
00000270: 11b9 02be 540a de3d fce0 ecbc 4e26 8f3c
00000280: abc3 473e 204a e4bd 84d2 4f3d 01e4 523d
00000290: ac74 cd3d 1b41 18be c344 fc3b 1e6b 423e
000002a0: ab0c 253e eab2 ccbd e433 edbc bb38 0fbd
000002b0: ad98 07bd 4de5 d03d 8097 5dbc 543a d13d
000002c0: 78e9 0b3d e043 813d 5e3c 98bc 4a1f c33d
000002d0: 1c7c 243e 2f8f d73d 4360 b6bd dc78 8ebd
000002e0: 03fa 653c 5e68 0ebe 3a3c df3c 0b36 a83c
000002f0: 757f 74bd 2634 b2bd 59a7 95bd e6df a03c
00000300: af6e 4abc 5272 ee3d 5599 4b3e 0513 ba3d
00000310: d798 c03d 21b4 413d 9f82 4c3c 8004 3bbe
00000320: 548e e4bd b7a1 24be 9b0b 4d3d 38bd 81bd
00000330: 70f2 653e 1a94 133e bc19 51be e6e5 e43d
00000340: c489 5a3e 7549 d2bd 3741 5b3e 386a ffbc
00000350: d1fd 9bbd e362 a7bd f046 5f3e e3f9 d0bd
00000360: 1b4b 31be 1334 2a3e ff1e 78bd e660 e4bc
00000370: 3b0b 8cbd 43fd 78bd fd70 443d 0bb8 1abd
00000380: 6029 953d 04e5 073e 8dd9 43bd 73ba c2bd
00000390: 2ea0 3e3e d4c6 c03b e2ae a13d e567 d13c
000003a0: 6258 273e 22bb 6dbd 0b9e 673d de2a 3bbe
000003b0: 5072 d3ba 2926 cb3d 7acd cbbd f1ca a03d
000003c0: 7f36 4e3c 961b 23bd 456c 64be 6f9e 063e
000003d0: 9d4c 31bc c995 f4bc 1d54 d43d db36 cc3c
000003e0: 9464 983d 2c5f 8cbd bd15 783d 9881 3b3e
000003f0: ddc9 6c3e 3cf3 cc3d bff2 d53c ea55 233e
-0.020796472 -0.15010212 0.10870973 -0.20112996 -0.07589705 0.08566993 0.10143948 -0.10438571
0.076047525 -0.09692993 -0.02798739 0.19714217 0.08918056 -0.06497098 -0.12910052 0.049640555
0.003313767 0.14650023 0.21667522 -0.006002154 -0.20923759 0.11407536 0.09188393 0.13097247
-0.1398125 0.17379948 -0.034710057 -0.12100106 -0.241143 -0.085133456 -0.007959025 -0.22664438
-0.034491263 0.18029065 0.17962137 0.1637592 0.079109415 -0.15458606 -0.14082311 -0.016815325
-0.23537901 0.010293042 -0.026083037 0.09475327 0.029160438 0.1309188 0.068451025 -0.16660315
-0.105205655 -0.06968162 0.09173013 0.00036947755 -0.07889304 -0.046600312 0.22134435 0.09631416
0.2109297 0.022952558 0.0877388 0.058322426 -0.084768645 -0.08996275 0.15899888 0.20403998
0.1968323 -0.1594409 -0.08887824 -0.042668417 0.122295 0.010635478 0.14090143 -0.0880531
-0.16639672 0.13918386 -0.16500585 -0.023885567 0.14148754 -0.12580597 -0.21317837 -0.042629793
-0.11931697 0.067881025 -0.19479175 0.20333657 -0.16815436 0.031505246 -0.07815975 0.0011762395
-0.20419459 -0.21543129 0.10105109 0.009111265 -0.10398189 0.15395482 0.059198406 0.20093071
0.1853143 -0.21909103 0.060552094 0.0076521332 -0.1718645 -0.034661975 0.045622777 0.10272127
0.084621675 -0.12264665 -0.07416292 0.11807016 0.121407904 0.09675248 0.23757304 -0.08081419
-0.22808066 0.11609977 -0.017822536 0.19727498 -0.16278781 0.109713666 -0.12173803 -0.10621705
0.107582875 0.1668654 -0.10443289 -0.07779836 -0.11610378 0.07766608 -0.17507395 0.0020074684
-0.13128896 -0.17040293 -0.119701125 0.16289274 -0.069769956 0.05180378 -0.12909657 -0.12374812
0.13086936 -0.123333454 -0.08088895 -0.016834576 -0.028600402 0.10786795 0.08313326 -0.08822975
-0.15936422 0.091859706 0.09601301 0.11557062 -0.039205067 -0.02119072 0.28071213 -0.030298704
-0.15231624 -0.023664603 -0.15155762 0.10041565 -0.1276591 0.10841814 -0.028915875 0.01747432
0.19508235 -0.11146951 0.050737873 0.051486973 0.10032019 -0.14868586 0.0076986267 0.18986174
0.16118114 -0.09995063 -0.028955407 -0.03496621 -0.033104587 0.10199986 -0.01352489 0.10216203
0.0341582 0.06311774 -0.018583473 0.09527452 0.16062969 0.10525357 -0.08905079 -0.06956646
0.014036658 -0.13907 0.027250398 0.020533582 -0.059691865 -0.08701353 -0.0730731 0.019638013
-0.012355491 0.116428986 0.1988271 0.09085659 0.09404152 0.047290925 0.012482314 -0.18263435
-0.111599594 -0.16077314 0.050059896 -0.06334919 0.22455764 0.14411965 -0.20419973 0.11176662
0.21341616 -0.10267917 0.21411596 -0.031178579 -0.07616771 -0.08173158 0.21804404 -0.10203912
-0.17313807 0.16621427 -0.060576435 -0.027878236 -0.068380795 -0.060788404 0.047959317 -0.037773173
0.07283282 0.13270956 -0.047814894 -0.095082186 0.18615791 0.005883077 0.078946844 0.025562236
0.16342309 -0.058039792 0.056547206 -0.18278071 -0.001613209 0.09919388 -0.09951301 0.07851208
0.012586235 -0.03982123 -0.22306927 0.13146375 -0.010821489 -0.02985658 0.10367606 0.0249285
0.07441059 -0.0685409 0.060567606 0.18311155 0.2312388 0.10007331 0.026116727 0.15950742

atom_encoder.atom_embedding_list.2.weight f4 [12, 128]
00000000: 748a f93d bb79 fa3d db65 023e 7cda eebc
00000010: c7b1 29bc 8e93 b5bd 7c66 8d3e 2386 363e
00000020: 7aff 26be 580b 1a3d eed8 68be 6f40 ed3c
00000030: f0a7 43bd 89e4 b53d 276e 823d 5ef7 61bc
00000040: 44d5 47bc 0e70 e43d 4d62 79be d33d 57bc
00000050: c379 82bd 4abd 94bd e1cf eabd f569 563e
00000060: 8512 1f3d 94dc ba3e e2ca d13d 6b9a 4bbd
00000070: fa2e 803d 4a90 153e 2302 34be 9083 66ba
00000080: 179c 443e fc76 3d3e 6bbc c83a 94f9 143e
00000090: e13d 883e 19bc a43d b0bb b3bc 6bc1 dd3d
000000a0: 26c5 48be 5880 8e3e 79c9 f33c 1698 563e
000000b0: 07a1 6f3e afd5 073e 8c4f 883d d803 89be
000000c0: 1794 c33d 0d37 813e cf2f 8a3d 2227 86be
000000d0: e986 a73d 6a15 be3d d43f 0c3e 77bc 14be
000000e0: 3341 63be 6195 0abe 79de 093e 893f dc3d
000000f0: cb1a 73be 1b4f 35be 96f5 113e b31b 8d39
00000100: 81e1 fabc 47d3 97be c5f9 7a3e 8f32 6a3e
00000110: 6585 633e f3bf 693b de2a 2e3d b4e4 2b3e
00000120: 361f b9bc 02c0 09be 76d3 11be eb57 8e3d
00000130: 6b94 19be b724 9dbd 5ac1 c9bd 2d5d 263e
00000140: c80c 0c3e 0133 593e f33c 49bd 4d6a a83c
00000150: 0b6e c7bc 1e9d 093e 1a25 a9be 4974 a2bd
00000160: 0d0a 18bd 3036 c33d 223a 3cbc 98e6 183e
00000170: 40f6 023e 64d4 13be ae37 35bd 7f14 6d3d
00000180: 67ee 3b3d 9c94 46be 836a 8cbe 1d8a 943d
00000190: f05c 95bd cfdf 5dbd 76ac 983e 954e 24bb
000001a0: 3a72 553e c4d3 503d 7d27 97be 09c6 f53d
000001b0: 867b 54be 66ef af3d 275a ab3d 923c 3bba
000001c0: ef44 163d 6c53 0cbe fb2a 17be afae c2bb
000001d0: 21d5 9b3e 3bb3 093e 2ee1 233e 1375 b53d
000001e0: d0f4 a4bc 9609 f7bd 275e d03c 920c ecbd
000001f0: 709f d03b dcb1 a0bd bce3 833d 92de 773d
00000200: 526d b6bd 61af 573d 40fe 6cbc 13e9 42be
00000210: 13bc 2a3d 052b 0cbd 76a1 febd 142d 10be
00000220: 22d2 e33d 5f12 b7bc 7094 603e 6a7f 1bbd
00000230: 1690 54be 1d52 d7bd 940c 1f3d f84a 4bbc
00000240: 86f3 963d 0af7 4abe efda 2bbe b42d 17be
00000250: a177 b73d 53f2 afbd 6c4a d3bd edfd ab3d
00000260: 4e65 1e3e 565b d3bd 8349 d9bd 2af6 0dbe
00000270: 90f7 c2bd 5da6 2f3e 5f76 1abe ef38 1f3e
00000280: 48bf 4abe 21bd 4fbe e7d1 a03d 2bd8 b6bc
00000290: 061f c2bd 3203 01be e14d 253e ae03 453d
000002a0: dbc3 c6bd 446b 4c3d 7e60 50bd 103d d9bc
000002b0: a1b9 cfbd cbd6 b63d 0187 543d 564b 4bbd
000002c0: f6e1 d33d 7ead 3cbe a7de d4bd b29e 513e
000002d0: 78e6 f4bc 90b2 3f3e 79ee f3ba 84e8 abbd
000002e0: 85bb 16be 0f42 793d f00e 31be fe8b a63d
000002f0: 0c4b 023e b4d5 163e 3c1c 04ba 441d 913c
00000300: f453 3abe a8d7 a1bd ca1f c93c aa11 223e
00000310: d23e 59be af92 a53d 79da 223c dd7e 0d3e
00000320: 7ba8 ee3d 65a9 1f3e de99 0b3e 5c9a 4abe
00000330: 47e2 a23c e133 d13d c489 33bd 3d8d cd3d
00000340: 1c47 213e a1cf 01bd 5001 d53c 3ac7 e1bd
00000350: 7371 e53d 62e2 ca3d 5307 f2bd 370c cc3d
00000360: 5631 9abd a3a3 1cbe 7cae 4f3e 256c 41be
00000370: f5c3 8dbd b0d8 56bd b5a3 24be 564d c9bd
00000380: 355f 823d 3a86 13be 5f8f 323e 36fd 6cbd
00000390: b2b7 313e d0b1 0e3e f538 ef3d cc3c 283e
000003a0: 08c8 4f3e 5b20 bfbd ff7a e63c 0f66 d83c
000003b0: 3163 19be 481b 10be 003e 423e bdd7 d93d
000003c0: fb11 6cbe da03 93bd d5aa d93d c0c6 dbbc
000003d0: 94f0 913d 5b2f 19be 5173 433e 70e5 9b3d
000003e0: c868 a43d da17 47bd 86ba 533d fc9d e5bb
000003f0: efde 0b3e 8aef 8bbd 98de 32be c5e3 833d
0.12184611 0.122302495 0.12734167 -0.029156916 -0.010357327 -0.088660344 0.27617252 0.17824607
-0.16308394 0.037608474 -0.22739002 0.028961388 -0.04776758 0.0888148 0.06368666 -0.013791887
-0.012196843 0.11154185 -0.24353905 -0.013137299 -0.063708805 -0.072626665 -0.11465431 0.20938857
0.03883602 0.36496413 0.10243775 -0.04970781 0.0625896 0.14605823 -0.1757894 -0.0008793408
0.19200169 0.1850242 0.0015314942 0.14548331 0.2660971 0.08043689 -0.021940082 0.10827907
-0.19606456 0.27832294 0.029759156 0.20956454 0.23401271 0.13265108 0.06655797 -0.26760745
0.0954973 0.25237313 0.067474 -0.2620173 0.08180029 0.09281428 0.13696223 -0.14525019
-0.2219284 -0.13533546 0.13463773 0.10754306 -0.2374069 -0.17705958 0.1425384 0.00026914253
-0.030625107 -0.2965338 0.24509342 0.22870849 0.22218855 0.003566739 0.04252135 0.16786462
-0.02259789 -0.13452151 -0.14240822 0.06950363 -0.14998023 -0.076730184 -0.09851332 0.16246481
0.1367675 0.21210863 -0.04913039 0.0205585 -0.024344465 0.13438842 -0.3303612 -0.07932336
-0.03711896 0.0953182 -0.011488469 0.14931715 0.1278925 -0.1443649 -0.044242553 0.057880875
0.045881655 -0.19392627 -0.27425012 0.072529055 -0.07293117 -0.05416852 0.29819077 -0.0025071253
0.20844355 0.050983205 -0.29522315 0.12000663 -0.20750245 0.085905835 0.083668046 -0.00071425096
0.036686834 -0.13703698 -0.1476249 -0.005941234 0.30436042 0.13447277 0.16003868 0.08860221
-0.020136267 -0.12062375 0.02543552 -0.11525835 0.0063666627 -0.07846424 0.06439921 0.060514994
-0.0890757 0.05265749 -0.014464915 -0.19034223 0.041683268 -0.034220714 -0.1243314 -0.14079696
0.11124064 -0.022347627 0.21931624 -0.03796331 -0.2075809 -0.10513709 0.038830355 -0.012408011
0.07370667 -0.198208 -0.16782735 -0.14763528 0.08958364 -0.085911416 -0.10316929 0.08398042
0.15468332 -0.10320155 -0.106097244 -0.13863435 -0.09519875 0.17153306 -0.15084217 0.15549062
-0.1979953 -0.2028699 0.07852536 -0.022319874 -0.094785735 -0.12598875 0.1614299 0.048099212
-0.09705325 0.049906984 -0.050873272 -0.026518375 -0.10142828 0.08927687 0.051886562 -0.049632393
0.10345833 -0.18425557 -0.1039403 0.20470694 -0.029895052 0.1872046 -0.0018610499 -0.08393958
-0.1471997 0.060854014 -0.17290854 0.0813217 0.1272394 0.14729959 -0.00050396076 0.01771415
-0.18196088 -0.07902461 0.024551291 0.15827051 -0.2121537 0.08084618 0.009939783 0.13817926
0.11653229 0.15591963 0.13632914 -0.19785446 0.019883288 0.10214973 -0.043832555 0.10036705
0.15749782 -0.03169215 0.026001602 -0.110243276 0.11203279 0.0990646 -0.11817803 0.09963267
-0.07528941 -0.15296797 0.20281404 -0.1888891 -0.069221415 -0.052452743 -0.16078074 -0.09829204
0.063658156 -0.14406672 0.17437504 -0.05785867 0.1735523 0.13935018 0.116807856 0.16429442
0.2029115 -0.09332343 0.028134821 0.026415853 -0.14979245 -0.14072907 0.18968964 0.10636852
-0.23053734 -0.07178469 0.10628287 -0.02682817 0.07125965 -0.14959471 0.19086958 0.07612121
0.08027798 -0.04860673 0.051691554 -0.0070073586 0.13659261 -0.06832798 -0.17467725 0.06439928

atom_encoder.atom_embedding_list.3.weight f4 [12, 128]
00000000: df64 1d3e 0147 503d dea0 523e 24cf 363e
00000010: c66d e33d d1c4 22be f373 35be 74a9 643d
00000020: ac2f 113e a55e 02be 101d e3bc ec1c 4ebe
00000030: 519d 073e ac31 06ba b257 1a3e 1eab 0c3e
00000040: 9609 2a3e e050 173e 70db c53d 7e64 693d
00000050: ae96 133e 9286 8e3d 31e4 8b3d 5c84 473e
00000060: 5190 083d ffbb 46be 20f0 2e3d 9774 93bc
00000070: d8f1 7dbd 8fec 12be 6872 9bbd 374f 12be
00000080: b7aa 313e 0bdb 26be 5062 443b 2186 003d
00000090: 0cc4 753d 09a4 dcbd 219d 393e 8e37 9ebc
000000a0: 772c 87bd cf70 9ebd eff2 853d 9be7 84bd
000000b0: 2b21 29be 6305 3bbe 2e1e edbd 53eb 28be
000000c0: 1182 3b3a bf10 44bc 3d2d 36bd 3ea2 a23c
000000d0: e656 a4bc ffbb 48be 51a8 453e 5a51 bb3d
000000e0: 3932 483e 6dd3 48be b557 02be 9456 2cbe
000000f0: 7270 073e 0728 d2bd 8dee 333e 0007 6e3b
00000100: 626c 283e aa99 89bd 9aed a7bc fe32 da3d
00000110: 931d 2b3e 8397 2abe 2ba2 423e 4070 19be
00000120: eb40 893d 9678 03bd 5acc b53d 87f7 bc3c
00000130: 3d85 46be 57b6 e43d 0b7c 65bb 8b5a 4dbe
00000140: 2072 4dbe 513d d3bd 8aff 5ebd e578 35bd
00000150: 70b5 01bc c252 03be 7609 0a3e 5f9e 033e
00000160: 5811 173e ce54 6dbd bc00 09be c072 2b3e
00000170: 920f c43d afda 423e 87f7 93bd 0408 07bd
00000180: f033 fa3d c08c d13c 5427 19be 9a31 e0bd
00000190: f84d a8bc a203 8aba 8f98 3ebe 304c c6bd
000001a0: f7d3 303e bc5e 1e3d 4ae0 13bd dc37 0a3e
000001b0: b033 4ebe ed61 22be 4724 e73c 00de de3b
000001c0: f1c7 4a3c b457 99bd 71e8 3b3e 035d 1d3e
000001d0: edda 403e fe17 cdbd 59aa 0d3e 8683 313e
000001e0: a294 d4bd b016 173e 2ad8 023e 13f1 d53d
000001f0: 0f2c 96bd 70d7 053d 5e0b fbbd b073 46be
00000200: f2d9 1a3e 15f2 1abd bda4 8dbb b224 84bd
00000210: 8087 4b3e 3f60 1cbe 9604 f6bd 9052 273e
00000220: 5a3e 413e bcde 183e 3c63 433e ba5a c33d
00000230: a0c5 0f3e c9c2 ed3c cf87 cdbd 4a24 603d
00000240: 223a 3c3d 1ffb 4d3d 50ab 363e 4d32 f93d
00000250: fd91 203e 9bf3 52be b8bc 1ebc 8a14 133e
00000260: 4662 cdbd 7b7a 9d3d 3cae 05be 3f4c cc3d
00000270: e7e5 d2bd 00b9 563d 60c0 a83d 464d ef3d
00000280: c309 1a3e 8357 bb3d 8576 10be 58c0 bc3d
00000290: 40cf 21be 1ce0 e93c fd9d 2fbe b5d0 b93d
000002a0: 5227 c3bd bba0 203b ed4f 03be 060a 043e
000002b0: 7af2 023e 8fa9 b33b c645 423e 2557 6a3d
000002c0: 2f4c 863d 90d3 0fbd a238 21be 6295 ddbd
000002d0: c024 24be 09d5 0fbe e6a2 963c 181d e43d
000002e0: 4a5d 883d 6d83 193e 9cb2 2dbd 4f03 8abd
000002f0: 5bb1 b6bd 67bc 15be 0fd4 12be 3fc2 4ebd
00000300: 33d7 b6bd 6e40 79bd 49a9 fdbd e66c 0e3d
00000310: e6ff 1c3e f533 d73d e4ac 3e3e 6006 7bbd
00000320: 9422 083e fc33 3c3e 5b67 a8bd 4e08 4bbe
00000330: 6966 51be d5c7 97bc 9896 2a3c a941 8a3d
00000340: 5af3 1ebe 9b3f 75bd fe51 4bbe 2fae 94bd
00000350: 25c0 00be 7464 913d 817b 3d3e e077 1d3e
00000360: 8ba5 3d3e 2cf3 eabd 08ff a7bd 5360 57bd
00000370: 2250 e13c e537 443e 388c 9d3d 2009 3ebe
00000380: 691e 34be f659 c73d c3aa 35bc 75d5 283e
00000390: 659a 7b3d e88f 8d3d 3036 8dbc 72c9 a63d
000003a0: 8d3b 083e f282 12be e337 46be f71f 163e
000003b0: da4a 14be 11f2 83bd e67c 17be 6279 bb3d
000003c0: e1c5 c23c 514e 453e 2437 383e 732c 353e
000003d0: 9c9d b83d d46d 6dbd cf35 603d 6a37 2ebd
000003e0: 814a 683d 1b1d 303d 156c b43d 9346 0ebd
000003f0: fcf6 4e3d ce6c 3dbe c613 4d3b 8932 15be
0.1537051 0.050848965 0.20569178 0.17852455 0.11104922 -0.15895392 -0.17720012 0.055825666
0.14178342 -0.12731417 -0.027723819 -0.2012822 0.13243605 -0.0005119096 0.15072516 0.13737151
0.16605219 0.14776945 0.09660995 0.056980602 0.14412948 0.06959261 0.068306334 0.19484085
0.033340756 -0.19407652 0.04270947 -0.01799993 -0.06199822 -0.14348052 -0.07590181 -0.1428803
0.17350279 -0.16294496 0.0029965825 0.031377915 0.060001418 -0.10773475 0.18126346 -0.0193136
-0.06600278 -0.0773636 0.065404765 -0.06489488 -0.16516559 -0.18263774 -0.11578022 -0.16496019
0.00071528653 -0.011966883 -0.044476736 0.019852754 -0.020060968 -0.19602965 0.19302489 0.09146376
0.19550408 -0.19611903 -0.1272877 -0.16829902 0.13226488 -0.10261541 0.17571469 0.003632009
0.16447595 -0.06718762 -0.02049904 0.10654257 0.167105 -0.1665936 0.19007175 -0.14984226
0.06701835 -0.03209742 0.088768676 0.023067249 -0.19386764 0.11167591 -0.0035016562 -0.2005407
-0.20063066 -0.103144296 -0.05444292 -0.044304747 -0.007916793 -0.12824538 0.13480172 0.12853383
0.1475271 -0.057942204 -0.13379186 0.16742992 0.09573282 0.19028734 -0.072249465 -0.03296663
0.122169375 0.02557981 -0.14956409 -0.10946961 -0.02054499 -0.0010529647 -0.18612884 -0.096825
0.17268358 0.038664564 -0.03610257 0.13497871 -0.20136905 -0.15857668 0.02821554 0.006801367
0.012376771 -0.07487431 0.18350388 0.15367512 0.18833514 -0.10014342 0.13834514 0.17335328
-0.10379912 0.14754748 0.12777773 0.10446372 -0.07332622 0.03267616 -0.122580275 -0.19380069
0.15122202 -0.037828524 -0.004322617 -0.064523116 0.19875908 -0.1527109 -0.120125934 0.16340089
0.18871441 0.14928716 0.19080824 0.09538789 0.14040232 0.029023545 -0.10035669 0.054722108
0.045953877 0.050288316 0.17838788 0.12167797 0.1568069 -0.2060074 -0.009688549 0.14363304
-0.1002851 0.07689377 -0.13054746 0.0997548 -0.10297757 0.052422523 0.082398176 0.116846606
0.15042786 0.09147551 -0.14107712 0.09216374 -0.15801716 0.028549246 -0.17150111 0.09073011
-0.09528984 0.0024509865 -0.12823458 0.12894449 0.1278781 0.0054828594 0.18971929 0.057212014
0.065574996 -0.03511387 -0.1574426 -0.10819508 -0.16029644 -0.1404611 0.018388223 0.11138362
0.066584185 0.14991541 -0.042406663 -0.06738912 -0.089205466 -0.14622651 -0.14338706 -0.050478216
-0.08927765 -0.06085246 -0.12385804 0.034771822 0.15331993 0.10507957 0.1862064 -0.061285377
0.1329444 0.18379205 -0.082228385 -0.19827387 -0.20449223 -0.018527905 0.010411881 0.06750805
-0.15522519 -0.059875112 -0.19855496 -0.072597854 -0.12573297 0.07099238 0.18504144 0.1537776
0.18520181 -0.114721626 -0.0820294 -0.052582096 0.02750403 0.19161947 0.0769276 -0.18558168
-0.17589726 0.097339556 -0.011088076 0.16487677 0.06142654 0.069122136 -0.017237753 0.081438914
0.13303967 -0.14307764 -0.19357257 0.14660631 -0.14481679 -0.06442655 -0.14793739 0.09154011
0.023775997 0.19268157 0.17989784 0.17692737 0.090144366 -0.05796607 0.054738816 -0.042533316
0.056711677 0.042996507 0.088096775 -0.034735274 0.05052851 -0.18498537 0.0031292303 -0.14570059

atom_encoder.atom_embedding_list.4.weight f4 [10, 128]
00000000: 0e6d a2bd 9bb7 24bd d843 063d a21c 4f3e
00000010: dba2 e6bd b9e0 c5bd 3571 e1bd 6e32 3fbe
00000020: b0b5 dd3d f580 2b3e e5b9 db3b 2e0d 58be
00000030: 0488 183e 88fe 01be d212 d23d b632 103d
00000040: d0be 0f3c 72d7 7dbc 6dc2 ba3c 35a5 1cbb
00000050: f9e7 35be eb9e 763d 5eb4 10be 0719 71bd
00000060: 1de7 06be 6884 483e 95e9 c4bd 1092 b7bd
00000070: c4b5 463e 8c6c cd3d dccd 283e b0a4 98bc
00000080: 5cba 533e 7821 03bd 15c9 23be dc2d 7abd
00000090: 3d01 593d 8b55 533e 491b abbd d251 13be
000000a0: dbee 1ebe 96a3 b53b ec06 323d a820 263d
000000b0: 7412 1f3e 1958 adbd 2b92 0ebd 80a4 b33c
000000c0: 5b1b 103e 76f4 e9bd 5a88 3a3d 21e0 d6bd
000000d0: 463c 0b3d d261 a0bd 4d42 35be eed5 4cbe
000000e0: 18ef acbd 4fdb 4d3e 429f 1bbe 4408 49be
000000f0: f259 01bc b19e 783c 1d89 2e3e 47f2 bcbd
00000100: c41a 0b3e 5265 3a3e bb84 86bd d63f 7fbd
00000110: 9316 19bd 90f3 fa3d 854e 52be e41e d03d
00000120: 16f3 8fbd 0e23 063e b7e4 293e 60b8 c4bd
00000130: d881 3c3e d440 253e 60ee 143e afdf 11be
00000140: c208 28be b08c d2bd b6c8 e43d 2e65 4b3b
00000150: e52a ba3d 1aa3 043e c00f 95bd 298c d33c
00000160: cffb d6bd 9ec8 44be a9a7 203e 4db6 c93d
00000170: b87c 9dbb 32f8 40bb 9857 4fbe 4519 eb3d
00000180: a200 363d 2af8 a6bd 7854 32be 367f 343e
00000190: 9776 08be d546 0abe e9ec 0e3e 8dcb 093e
000001a0: c5c4 f8bd 1a78 e13d 777d 333e fb23 2cbe
000001b0: 42ef f83d 7b10 b0bd 3ad0 223e bb55 1bbe
000001c0: 66fe f93c 3a08 8b3d c062 a1bd ca51 2cbc
000001d0: fbb8 113e 7bad e63d be92 02be a723 cdbd
000001e0: ef5a 8ebd 748a 41be c751 e63d ae50 e33d
000001f0: 3912 8f3d 5583 a9bd b18f 0bbe b8aa 1e3e
00000200: 61f6 2bbe bfe7 623d 9281 6c3e deb4 453d
00000210: 6e41 88bd 7df5 16be 10a8 773e 3b1c 833e
00000220: 2b96 9ebd e634 3f3e f0a4 163e 068c 643d
00000230: 4d1b ec3d 8458 22be 5a42 c83d 3526 44bd
00000240: 4010 413e b81e 17be b15a 85be 6823 4fbe
00000250: 5bd8 d1bd 51a1 1b3e de71 1fbe 46f0 52bd
00000260: 3025 6fbe c58d 463e bf33 17be b24e a9bc
00000270: 2fd7 f7bd 0ec6 a33d 9f19 1dbe 2916 543d
00000280: e413 24be 044a 273e ce2b ad3d 2166 7c3c
00000290: f681 1d3e 7599 bdbd 8701 953d 128e 1cbe
000002a0: f62f 603c 38f4 e23d ca9d 3abe 2a8f 473e
000002b0: 40ae 423d 72b3 ddbd 491b 1d3e 643f 7abe
000002c0: 059e a7bd b5d6 193e de8e 14be d7a4 fdbc
000002d0: 43ae 163e ec70 18be b722 183d 5859 4bbe
000002e0: 84b0 0fbe 55d7 cabc c695 9a3d 9d39 69be
000002f0: 6a15 69be 84ec 39bd db82 df3b 77cf c4bd
00000300: 9990 31be 50f5 2dbd 2d07 4d3d 0619 f53d
00000310: 0e4f 4fbe fd4c 81be af48 f93d 6209 71be
00000320: 5d37 14be 5d06 5c3d 9e59 043e d624 f7bd
00000330: 967b 163e 17a5 7a3c 4ad7 0fbe 5fa8 2f3e
00000340: f0ec 6c3d b635 233d 473b 033e cfd0 c33d
00000350: 59ad 13be 48bc a63d 0d48 51bd 9f6d a33d
00000360: dc2b 3ebd 7503 b13d b914 b2bd 6ced b93d
00000370: 5a27 eabd 9289 44be 8411 b93d 0827 13be
00000380: 737d 07be a554 a23d 128f 86be 3d8c 8fbd
00000390: 07bd 253e 778c 403e 7e39 8bbd 3489 193e
000003a0: 83f9 c43d 404e 5f3e 4d9f 7e3d 65f3 ff3d
000003b0: 9f8e c6bc ef59 c63d 1881 1bbe f25c 20be
000003c0: a840 f83c b073 44be 200c 3abe 8641 303d
000003d0: 2633 093e 2a38 133d d875 6f3d 1783 c13d
000003e0: 5c13 cd3d 89c7 153e 12d5 76bb 7b19 d2bd
000003f0: c15c ef3c c1e8 b8bd cb28 023e 329a b13d
-0.07930957 -0.040214162 0.032779545 0.20225766 -0.11261531 -0.09662003 -0.11007921 -0.18671581
0.1082567 0.16748412 0.00670551 -0.21098778 0.14895636 -0.12694752 0.10257496 0.03520461
0.008773521 -0.015493261 0.022797788 -0.0023902182 -0.17764272 0.06021015 -0.14131305 -0.05886176
-0.131741 0.19581759 -0.09614865 -0.08963406 0.19405276 0.10030469 0.16484779 -0.018633217
0.20676559 -0.03201434 -0.15994675 -0.06107889 0.052979697 0.20638101 -0.083548136 -0.1438668
-0.15520804 0.0055431826 0.043463632 0.040558487 0.15534383 -0.08464069 -0.034807365 0.021929026
0.14072935 -0.1142358 0.04554019 -0.10491968 0.033993028 -0.07831158 -0.17701073 -0.20003483
-0.08444041 0.20103191 -0.15197471 -0.1963206 -0.00789498 0.015174554 0.17044492 -0.09225898
0.13584429 0.18202713 -0.06568285 -0.062316738 -0.037375044 0.12253487 -0.20537765 0.10162142
-0.07028787 0.1309931 0.16591154 -0.09605479 0.18408906 0.16138011 0.14544058 -0.14245485
-0.16409591 -0.1028074 0.11171095 0.003103565 0.09090213 0.12952843 -0.07278395 0.02582367
-0.104972474 -0.19217154 0.15688957 0.09849224 -0.0048061274 -0.002944481 -0.20248258 0.11479429
0.044434197 -0.08152802 -0.17415035 0.17626652 -0.13326488 -0.13503583 0.13957562 0.13456555
-0.12146906 0.11009236 0.1752833 -0.168106 0.1215501 -0.085968934 0.15899745 -0.15169422
0.030516814 0.067886785 -0.07880163 -0.010517547 0.1423072 0.112635575 -0.1275129 -0.10016566
-0.06950938 -0.18900472 0.112460665 0.11099373 0.069858976 -0.08277003 -0.13629033 0.15494812
-0.16793205 0.05539679 0.23096302 0.04826819 -0.06653105 -0.14742084 0.24185205 0.25607476
-0.07743486 0.18672523 0.14711356 0.0557976 0.11528645 -0.15854079 0.097782806 -0.047888
0.18853855 -0.14757812 -0.26045755 -0.2022835 -0.10246345 0.15198256 -0.1557078 -0.051498674
-0.2335403 0.19390018 -0.14765833 -0.020667408 -0.1210159 0.0799676 -0.15341805 0.051778946
-0.16023213 0.16336828 0.08455621 0.015405209 0.15381607 -0.09257785 0.07275682 -0.1528857
0.01368331 0.11081737 -0.18224254 0.19488207 0.04752946 -0.10825242 0.1534244 -0.24438244
-0.08184437 0.1502331 -0.14507625 -0.03096239 0.14714913 -0.14886826 0.03714248 -0.198583
-0.14032179 -0.024760881 0.07548098 -0.22775884 -0.22762075 -0.045391575 0.006821019 -0.09609883
-0.17340316 -0.042470276 0.05005567 0.119676635 -0.20245 -0.2525405 0.121720664 -0.23538736
-0.14474244 0.053717006 0.12924811 -0.12067573 0.14695582 0.01529815 -0.1404697 0.17154072
0.05784315 0.039846145 0.12815581 0.095613115 -0.14421596 0.081413805 -0.051094104 0.07979893
-0.046428546 0.086432375 -0.08695359 0.09078488 -0.11433287 -0.19193104 0.09036544 -0.14370358
-0.13231449 0.07926301 -0.2628103 -0.0700917 0.1618539 0.18803583 -0.06798075 0.14993745
0.09617903 0.21807194 0.06216364 0.12497596 -0.024237929 0.09685122 -0.15185964 -0.15660456
0.030304268 -0.19184756 -0.18168688 0.043031238 0.13398418 0.035942234 0.058461994 0.094488315
0.10013458 0.14626898 -0.003766362 -0.10258766 0.029219033 -0.09028769 0.12710874 0.086719885

atom_encoder.atom_embedding_list.5.weight f4 [6, 128]
00000000: 29a0 1a3d b4e5 5dbd 4e13 8b3d c41b 79bd
00000010: 42fc 1cbe e24a 1a3e 0a36 24be eded 0fbd
00000020: de89 443e 5537 833c ae2c 3a3e 7667 d2bd
00000030: 4fee 403e 352d 153d 851e 0bbe fb24 bebd
00000040: 3fef 3fbe 20b1 143e 5d4c f8bd acde e8bd
00000050: 591d 22be 72cc 5abe d757 25bd 7090 893d
00000060: a156 f4bd 22d4 ec3c a3d3 c63d 3933 8fbd
00000070: c0fb 4b3e 627b 98bd 9ed9 ca3c bb46 2f3e
00000080: ac52 30be 39d3 0abd e5e3 223e 2f46 f9bd
00000090: 5674 97bd 01ac 6cbd 1a0d a1bd fbe7 e4bd
000000a0: 0163 bcbd c888 0d3e c850 43bc 4559 99bd
000000b0: c8f2 323e 4184 da3d 7d72 663d 2928 43be
000000c0: 4c83 5dbe b36d 2f3e 91b5 43be b4ab 233e
000000d0: cd4b 203e a259 b63d 71f7 f43c 3c10 3dbe
000000e0: c200 07be 6481 cebd 9df2 153d a9d4 a2bd
000000f0: 3f6f a53d d129 32be 3330 29bd 4420 f83c
00000100: 268d 1a3e 2513 ba3c e1ab 94bb 6fa3 06be
00000110: a797 e73d 4b22 51be 83ab 403e 6632 17bd
00000120: ef34 23be c66c 16bc 5ee8 cd3c 72cd f83c
00000130: df50 503e 126c 0b3e 7efc 47be fdb5 1f3e
00000140: 8f87 e13c 6653 133d b0e1 4b3d 1290 33be
00000150: de41 4bbe e060 1bbd 34ba 413e bb14 433e
00000160: 8b60 a8bd f6cd 2dbe a916 a9bd 539f 0cbe
00000170: 982a aabd 7b1b 153e 8589 2a3e 0749 1abe
00000180: 2458 303d 6580 c1bd e2c8 2dbe 7380 90bd
00000190: 27f1 f4bd f8cf 523e 8d2b 3bbe 235b 473e
000001a0: 77b2 803d 0c44 30be 5987 d9b9 b4e1 443e
000001b0: baf5 4d3e 40b5 cb3c d8ae 3ebe 751f f23d
000001c0: c1f6 50bd b3cd c7bc f575 3a3d dc7a 5a3e
000001d0: fb8f 34be bd0e ee3d ee80 043c 33bf 4f3e
000001e0: c323 35be 3022 32be e29d d13d 185b 04be
000001f0: b019 f03d 515a f03d 6423 2abd cb41 d33d
00000200: 2d8e a63e e1b4 043e f2b5 a73c af0e 113e
00000210: 42a0 6dbe 3cd6 bd3e 7be3 b8bd a7e8 92bd
00000220: 1e22 03bf 18e5 553d 0900 b4bd 3491 73bd
00000230: 3218 77be 3387 cbbd ef2f 45bd cf67 1f3e
00000240: 1b32 debc 590b 0bbd 3b7d 8f3c ace3 68be
00000250: 52c5 0dbe cdae 39be fd74 103e 6785 71be
00000260: edd0 a73e d4fc 8d3e 86f7 233e 5929 98be
00000270: 3ec2 833d 8d6e 9c3e 92a9 73be 75e7 633e
00000280: e549 c7be 1a32 75bd c15e 9b3c 8a56 4c3d
00000290: 95d5 1ebe 17e2 b43e d529 d03e c32f ba3c
000002a0: d17d 99bd 34bd c2bc 19e4 cabd 7aab 743e
000002b0: e139 823e fe57 653d 4fa7 49be a0ea 4a3e
000002c0: 3778 093e 928d 2cbe 509f 13be a18c 28be
000002d0: e969 503d 9272 f9bd 1c32 3bbe 4ba8 8fbd
000002e0: 390f 16bd 5e27 43be c4fa 82be a2a1 a53e
000002f0: ce7f 0d3d 7ffd 00be 7ebc 813c 8886 5abe
00000300: 4fb0 ddbc f4e3 d33d 808e 883d f3e2 eabd
00000310: 1124 79be b053 dcbe f4fe 3d3d e921 753e
00000320: b4ba 273e 368d 4c3e 1c17 cabd 9728 a63a
00000330: c57b 673c ee12 9abd 65f3 b5bd 9170 adbc
00000340: 74d1 753b 86e6 563d c0db 50bd def8 ec3a
00000350: c72e 553e 0bcc 4bbe 95c7 c03e c7fa 833e
00000360: fd28 603e 23bc ed3d a9e6 aabe b3e4 373d
00000370: 6dda f73d 8ff3 45bd 6deb 2bbd 7fb0 18be
00000380: df2b fe3d 52e4 3d3e 3fb6 a13e a9ba 92bd
00000390: 6d5b 7abe a08d df3d 49bb 18be 6b6e 7ebe
000003a0: 8de6 963d 7ea9 3f3d eda9 b23c 74e3 82be
000003b0: c9c2 0f3c e4b2 c73c d69e f43c 1c4c 43be
000003c0: 9447 b1be 3d80 603e b472 5d3e 6f05 7bbd
000003d0: 49db 8bbd 03fa 953e 00ab 433d 6f57 83be
000003e0: 8005 df3e 9db6 1dbe 28b2 2d3d fcfd 063d
000003f0: 7c3e 303e 9117 063e 89de 38bc 05c2 4c3e
0.037750397 -0.05417414 0.067907915 -0.060817495 -0.15330604 0.15067628 -0.1603624 -0.035139013
0.19193217 0.016017595 0.18181106 -0.1027364 0.18840908 0.036420066 -0.13585861 -0.09284397
-0.18743609 0.14520693 -0.1212394 -0.11370596 -0.15831508 -0.21367052 -0.040366974 0.067170024
-0.11930586 0.028909747 0.09708335 -0.06992192 0.19920254 -0.074454084 0.024761971 0.17116825
-0.17219037 -0.033892844 0.15907247 -0.121715896 -0.07395236 -0.057781223 -0.07863827 -0.11177059
-0.09198571 0.13821709 -0.011921115 -0.0748773 0.17475426 0.10669757 0.05626153 -0.19058289
-0.21632117 0.1713169 -0.19112231 0.15983468 0.15653916 0.08903815 0.029903146 -0.18463224
-0.13183883 -0.10083273 0.036608327 -0.07950718 0.08077859 -0.17398764 -0.041305732 0.030288823
0.15092906 0.022714207 -0.004537091 -0.13148282 0.11308222 -0.20423238 0.18815427 -0.036913298
-0.15938161 -0.009181207 0.025135215 0.030371401 0.2034335 0.13615444 -0.19529912 0.15596767
0.02753046 0.035968207 0.04977578 -0.17535427 -0.19849345 -0.037934184 0.18918687 0.19050877
-0.08221539 -0.16973099 -0.08256275 -0.13732652 -0.08308905 0.14561264 0.16654022 -0.1506692
0.043052807 -0.094483174 -0.16971162 -0.0705575 -0.11960059 0.20587146 -0.18278332 0.1946836
0.062840395 -0.17213458 -0.00041490307 0.19226724 0.20113268 0.0248667 -0.18621385 0.11822406
-0.051016573 -0.024390077 0.04552265 0.2133593 -0.17633049 0.11623905 0.00808738 0.2028778
-0.17689423 -0.17395854 0.10235192 -0.12925375 0.117236495 0.117359765 -0.041537657 0.103152834
0.32530347 0.12959625 0.0204725 0.14165758 -0.23205665 0.3707751 -0.090277635 -0.07173281
-0.51223934 0.052220434 -0.08789069 -0.05946465 -0.24130324 -0.099378966 -0.048141416 0.15566944
-0.027123502 -0.03394637 0.01751577 -0.227431 -0.13844803 -0.18133087 0.14107127 -0.23586045
0.32776585 0.27731955 0.16012391 -0.29719046 0.06433533 0.30553094 -0.23795155 0.22256263
-0.38923565 -0.059862234 0.01896608 0.049887218 -0.15511163 0.35328743 0.40656915 0.022727853
-0.07494701 -0.02377186 -0.099067874 0.23893538 0.25434783 0.05599212 -0.1969273 0.19816065
0.13424765 -0.1685088 -0.14416242 -0.16459896 0.050882254 -0.12180056 -0.18280834 -0.07014521
-0.03663561 -0.19057986 -0.25581944 0.3234988 0.034545712 -0.12596701 0.01583695 -0.21340382
-0.02706161 0.10346213 0.06667805 -0.114690684 -0.24330164 -0.43032598 0.04638572 0.23938717
0.16379815 0.19975743 -0.09867689 0.0012676892 0.01412863 -0.07523142 -0.088843144 -0.02117184
0.0037508877 0.052465938 -0.05099082 0.0018079539 0.20818625 -0.19902055 0.3765227 0.25777265
0.21890636 0.1160815 -0.33379105 0.04489584 0.12102208 -0.04832798 -0.041972566 -0.14911078
0.124107115 0.18544129 0.31584355 -0.07164509 -0.24448939 0.10915685 -0.14915194 -0.24846809
0.07368193 0.0467925 0.021809543 -0.25564158 0.008774468 0.024377294 0.029860895 -0.19072002
-0.34624922 0.21923919 0.21625787 -0.06128448 -0.06828935 0.29292306 0.0477705 -0.25652644
0.43558884 -0.15401693 0.04240623 0.032957062 0.17211336 0.13094927 -0.011283525 0.19995888

atom_encoder.atom_embedding_list.6.weight f4 [6, 128]
00000000: 6c4f 17bd a72b 6bbd c046 c93d ceab 3a3d
00000010: cf47 a3be fbfa 5d3e d11f 7b3e 938c 1f3e
00000020: cafe e5bd 19ec 463c a475 3bbd ad6d d73d
00000030: e150 173e a9e6 393e ea4d b9bd aee2 893e
00000040: 8a64 153d 0893 9cbe db46 583d 371c 743e
00000050: d441 bebd c636 eb3d f776 2f3c 2fdf 7ebd
00000060: 1a1f 073d 1088 553d 9010 3a3e 95fc 1a3b
00000070: ec11 85bd 9f84 a8bd a7a4 023e bdc6 013d
00000080: b917 683d a04e 423e a853 29be 5d9f 5ebd
00000090: 7c2c bcbd 35be 4d3e 5d2f 123e b4f0 073e
000000a0: a10c 133d 86b1 1dbe a8ee 51bd 9fb0 8e3e
000000b0: e436 873e 5a4c 98bc 48b6 c13d 08a5 573e
000000c0: e7b7 a8bd eb41 b53d 3aac f4bd 896a d43d
000000d0: 85ef 333d cb20 7b3d 946d 19be 09b9 efbd
000000e0: bba6 d03c 2876 cbbd 21e2 a93d 012c 303d
000000f0: d4ed 1e3e 2f30 1d3e 31ff d0bd 0d2f 373e
00000100: 0b3f 9f3d 081c d83d 371b 5c3d bfbc bc3d
00000110: 5892 1fbc fb7a af3d 361c 8ebd 5140 e23d
00000120: 949d 44bb c3ae e4bd 4b0f 9dbd 5d76 ed3d
00000130: 7ac9 26be cc55 dd3d 5b9d f1bd dd8e c73d
00000140: 5b8f 8cbe b3db 96bd 5eee 14be ae99 993e
00000150: f0f0 32bc b836 18be e87c 243e ab65 993d
00000160: 8a4c 4a3e 0e9a 13be 0ea0 073e a63e 9f3c
00000170: 7d87 b73d 974e 4f3c 5d1a 683e 0fbc 4c3e
00000180: f7a9 eb3c d78e a6bd 0196 fcbc 9324 14be
00000190: 7faa 713d 2ece 4e3e 2553 e7bd 042b 0abe
000001a0: a13e 08be cd7b db3d 6c6e 303c 2b04 ae3d
000001b0: d4a0 2a3e 2246 443e 756c 253d d224 573d
000001c0: 4a49 c43d 0fa9 eabc 922e 4f3e 5e48 ebbc
000001d0: 19b7 513e c026 3bbe ee35 01be ce3e c23d
000001e0: 036e 5dbe 12e2 75be 4ffa 313b 8b9d a5bd
000001f0: 904b b9bc fbfe 6cbd 2e9d 70be 01a8 16be
00000200: d032 24be f469 c1bd 6510 c1bd ceb1 19be
00000210: 3cd0 3c3e 3a32 2c3d e912 1fbe 0ef9 bb3d
00000220: 34d6 2bbc ea4f 443e 1372 223e e04a 3a3e
00000230: b448 183d 6c9d 2ebe 1230 c03d 6278 a1bd
00000240: 6c6d 933b 2601 68bc 5bde 5ebd 1a37 173d
00000250: beb4 1d3d c331 8cbd 6be9 433e 50e4 95bd
00000260: 67a4 b1bd 749b 073e 0233 143e 97f5 f5bc
00000270: de63 973d 0369 0dbd 4c54 05bd 5c29 523e
00000280: c2a5 2b3e 4a86 833d 8c46 443e 9b02 25be
00000290: 6589 c4bd 47f7 15be 96d9 103e 71a4 f2bd
000002a0: c128 04be 9961 7c3c 670d 233d 9c65 203c
000002b0: 0a33 53be fa5d 3c3e 7842 713a 2490 1d3d
000002c0: da89 f53d 19a3 4bbe 4213 ac3d a638 21be
000002d0: 516a 37be 8530 14bd fd9d 043e 8e0c 6ebd
000002e0: fe26 cdbd 8083 e83c 5f13 4f3e 7f49 51be
000002f0: f87c 26be 6ea2 3a3e 78b8 413e 2f1c 143e
00000300: 3ef4 363e 46ce 5cbc b519 0e3e 564d b6bd
00000310: d039 383b 5875 13bd 0580 723d 8445 0d3e
00000320: 3d7b e8bd 5dac bbbd 4e58 2ebe 7dfd 813d
00000330: dc24 1d3d f8c2 4dbc 8e0a d73d dd42 2cbe
00000340: 522d 9d3d 3c3b f5bb 71ed c53d e47e d3bd
00000350: 1e1b 483d fba0 cabd 8df6 843b f3d6 51be
00000360: 9147 6ebd 2a04 65bd f24f 2f3d c639 c3bd
00000370: c84e 583e 022f 41bd 13d5 293e c010 22b9
00000380: 9aee c33d bd65 483e 827b 573e 83bc 1bbe
00000390: 9b25 ebbd de34 803d c88d 0abd 16b2 b13d
000003a0: b8df 3d3e cf63 e93d df75 ff3d b118 38bc
000003b0: 7a28 07be 764a 21be d57f 153e 8863 e53d
000003c0: 7e0b 453e 0285 d3bd 8e29 1bbe c435 e33c
000003d0: 27d4 a23d bded f1bd c36c 05be b0b1 523d
000003e0: 6480 cd3d 87b7 48be 4801 013e 5c23 3bbe
000003f0: f036 c53d bdc3 b53d 01c3 c73d bafb 4a3e
-0.036940977 -0.057414677 0.098279476 0.045574002 -0.31890723 0.21677773 0.24523856 0.15580969
-0.11230238 0.012141251 -0.045766488 0.10518966 0.14776947 0.18154396 -0.09048064 0.26930755
0.036472835 -0.30580926 0.052801948 0.23838888 -0.092898995 0.114850566 0.010709516 -0.062224563
0.032988645 0.052131712 0.1817038 0.0023649086 -0.06497559 -0.082284205 0.12758122 0.031683672
0.05666325 0.18975306 -0.16535819 -0.0543512 -0.09188172 0.2009209 0.1427588 0.13275415
0.035900716 -0.15399751 -0.05125299 0.27869126 0.26409066 -0.018591095 0.094585955 0.21059048
-0.082382016 0.088504635 -0.11946912 0.103718825 0.043929596 0.06131057 -0.14983207 -0.117052145
0.025470128 -0.09934646 0.08295084 0.043010715 0.15520412 0.15350412 -0.10204924 0.17889042
0.07775696 0.105522215 0.05373689 0.09215688 -0.009739481 0.085683785 -0.069389746 0.11047424
-0.003000115 -0.11166146 -0.076689325 0.11594842 -0.16287795 0.1080738 -0.11797591 0.09744046
-0.27453122 -0.07366123 -0.14544055 0.3000006 -0.010921702 -0.14864624 0.16063273 0.07490095
0.1975576 -0.14414236 0.1324465 0.019439053 0.08961389 0.012653015 0.22666307 0.19993614
0.028767569 -0.08132713 -0.030833246 -0.14467077 0.05900049 0.20195839 -0.112951554 -0.13492972
-0.13305141 0.107169725 0.010768514 0.08496889 0.16662914 0.19167379 0.040386636 0.05252535
0.09584291 -0.028645067 0.20232609 -0.02872103 0.20480002 -0.182765 -0.12618229 0.09484635
-0.21623997 -0.2401202 0.0027157252 -0.080866896 -0.022619039 -0.057860356 -0.2349746 -0.14712526
-0.16035008 -0.09444037 -0.09426955 -0.15009233 0.1843881 0.042040087 -0.15534557 0.09178363
-0.010488082 0.1917111 0.15863828 0.18192625 0.03717871 -0.17052239 0.09384169 -0.07884289
0.004499128 -0.01416043 -0.054411273 0.036917783 0.038502447 -0.06845429 0.1913201 -0.07318938
-0.086739354 0.13242894 0.14472583 -0.030024333 0.07392095 -0.034523975 -0.032551095 0.2052359
0.1676245 0.06422098 0.19167536 -0.16114275 -0.095965184 -0.1464511 0.14145502 -0.11847771
-0.12906171 0.0154041285 0.039807703 0.009789851 -0.20624939 0.18395224 0.0009203325 0.03846754
0.11989184 -0.19886436 0.08402111 -0.15744266 -0.1791165 -0.036179084 0.12950893 -0.05811744
-0.10017203 0.028383017 0.20222233 -0.20438193 -0.1625861 0.18226025 0.18918025 0.14463876
0.17866609 -0.013476914 0.13876994 -0.089014694 0.002811063 -0.03600058 0.05920412 0.1379605
-0.11351631 -0.09163735 -0.17025873 0.06347177 0.03836523 -0.012558691 0.1050006 -0.16822381
0.0767466 -0.007483868 0.09664429 -0.10326937 0.048853986 -0.09893986 0.0040577115 -0.20492153
-0.05817372 -0.055912174 0.04280085 -0.09532504 0.21123803 -0.04716397 0.16585188 -0.00015455764
0.09566994 0.1957006 0.21043208 -0.1520863 -0.11481782 0.062600836 -0.03382662 0.08676545
0.18542373 0.1139599 0.12473654 -0.011236356 -0.13199034 -0.15751061 0.14599545 0.11200625
0.19242665 -0.103281036 -0.1515257 0.027735598 0.07950621 -0.11812923 -0.1302977 0.051438987
0.10034254 -0.1960126 0.12598145 -0.18275207 0.09629619 0.08875225 0.09753991 0.19822589

atom_encoder.atom_embedding_list.7.weight f4 [2, 128]
00000000: 4dc6 3b3e daf9 21be a4d8 8cbd 27ca 38bd
00000010: e61c e03d 3a8e 3e3c 2a34 b6bd 46d2 30be
00000020: 426f 99bd c42f 8cbd 4ad7 443e 218b 1a3e
00000030: cc36 3a3e c422 be3d 70cf 893d d3c4 e9bd
00000040: 44e0 453e 487d 373b 5ef9 1a3d 68e7 c53c
00000050: ac31 40bd 0b55 efbc e781 52be ce63 733d
00000060: 321a 62bd b65e 63be 57a6 5e3d e0e3 333c
00000070: 3c9a 09be aafb 0c3d 2163 3fbe a5f2 5ebe
00000080: 0ef4 7a3d 85be 3d3e c2af 9abd 9de9 543e
00000090: 64fe 5fbe cae9 43bd 2761 f43c 2d8a 343d
000000a0: abb6 ebbd 22ef 1c3e 5114 49be de1d 52bd
000000b0: 6e07 2abe 5297 383d 898d 313d 1ca5 093d
000000c0: 79d3 39be bccf 373e f7dd 0b3e 0bd6 09be
000000d0: 84d9 f53d a1a7 69bd abf6 ec3d a87c 3b3e
000000e0: 5e9f d73d 9cf9 0dbe da00 4dbd 1b80 4c3e
000000f0: ce58 56bd 4bf2 54be 9144 4abe e06b 66bc
00000100: a6da 1c3e 891a 5abe f157 083e 822a babd
00000110: 0cd1 603d 8980 30be ed91 193e b5fe 5a3d
00000120: 6d4d 193d ee27 18bc b740 1d3d a06f 503d
00000130: cdec 16be 6b80 4f3d 2bdb de3c 5cfc 3e3d
00000140: f6c1 a6bd bac0 81bd 847f 29be 58a1 d9bd
00000150: 0a34 3d3e d1b6 ef3d 811b 8abd 3cb6 9abd
00000160: 5b53 cb3d 10e9 343e 0974 e7bd 31ba 09be
00000170: 0e5c 1c3c 6c99 babd 3655 463c 3603 323c
00000180: 999e ad3b faf0 29be 0dbb 7a3d 412c 2bbe
00000190: c614 003e 18d4 893d a69d 26be 752c 6fbd
000001a0: 3143 04be 84b2 5ebe b4e0 0f3e 9036 273d
000001b0: 929b 08be 7d25 3dbd e421 a53d c05e 05be
000001c0: b5b2 ae3d f19d 4ebe b6d7 08bd ca8f 083e
000001d0: 3e46 833d 2442 353d 525c 373e 25f2 00be
000001e0: 0419 fb3c 4095 423e d503 273e e5e3 2abc
000001f0: b9f8 033e 3f49 4b3d a82f 1d3e 5ce6 8dbd
00000200: 28d9 04be b298 e03d 2d1a 62bc d84a 93bd
00000210: a50d 173e 6908 36be 7e25 9fbd 7c59 dfbd
00000220: ffcd d3bd 3e34 42bd ab1c 4f3d a798 4d3e
00000230: cbc6 5e3d 62f9 933d 6bb6 1f3e cabd 0dbd
00000240: 5a37 27bc cf96 933d 0d98 1b3d 3a3b 14be
00000250: f65b fd3d 9c84 f5bd 2b4c 553e c814 d0bd
00000260: ae65 4dbe 8e92 43be 9ee4 51bd 532c 023d
00000270: 439c 1bbd c403 a33c 853d 0b3e 08a1 343e
00000280: e61a f53d 8160 2abe 6ef5 a13d 385a 3cbc
00000290: 7fd7 0a3d ea57 883d 976a 1b3e 5424 8b3d
000002a0: 950d 133d f188 13be 87f1 7ebd 6a6d 4c3e
000002b0: fcc0 05be 85a8 c2bd e92c 47be 2e86 3bbe
000002c0: dea3 aebc c095 933d 15a3 453e 1c4a fc3d
000002d0: 6a8d c63d 7651 fa3d 3b5b efbd 3bf4 f13d
000002e0: bebe 013d 1957 2b3e 40c7 5ebd 37d0 24be
000002f0: 0fa0 b2bb c571 4fbd 5daf d73c 469c 1ebe
00000300: 1202 fa3d d21b cbbd c64f 71bd 6545 cd3d
00000310: b821 603d 7145 183d 6ec3 25be a93e 82bc
00000320: ebd2 ff3d 22f5 ccbc 62f4 e8bd 9693 fe3d
00000330: 2267 39be 3c71 56bd 4d7d e7bd 1525 b83d
00000340: 4c13 953c c1f7 40be 7ec8 d63a 1804 f33d
00000350: b6a0 c6bd eda7 fd3d 031e e1bd bed8 59bd
00000360: 164f f73c 2409 e8bc c5f1 a53d d3c2 193e
00000370: b1f8 28be cc5a 5cbc fde8 43be 7964 cf3d
00000380: ec22 c6bd 7664 393d 70be 6d3d a7c7 99bd
00000390: 4522 30be f56e 3138 0d99 9b3d 96b5 843d
000003a0: 0ad3 4ebc e00b 70bb a5ed 31bd ca03 cabd
000003b0: 73eb 14bc d796 0dbe fedd 973c 0779 d43d
000003c0: a529 98bd 4194 243e ca7d f0bd 3fa2 513d
000003d0: f819 133e d4e4 64bc e450 b8bc bd42 b13c
000003e0: ef7e 823c d83a 363e f1ab 4ebe 8d09 52bc
000003f0: 4c6b 27be 4559 313d e8f1 64bd c7d9 04bc
0.18337364 -0.15817967 -0.068772584 -0.045114662 0.10943012 0.011630589 -0.08896668 -0.17267713
-0.07491924 -0.06845048 0.19222751 0.15092136 0.18184966 0.09283975 0.06729019 -0.11414494
0.19323832 0.0027998257 0.03783547 0.024158195 -0.04692237 -0.029215356 -0.20557366 0.059421353
-0.055200763 -0.22204098 0.054357853 0.010979623 -0.13437742 0.034419693 -0.18690158 -0.21772249
0.061267905 0.18529709 -0.075530544 0.20792241 -0.21874386 -0.04783038 0.029831482 0.044077087
-0.115094505 0.15325597 -0.19636656 -0.051298015 -0.16604397 0.045066185 0.04334787 0.033604726
-0.18147077 0.17950338 0.13658892 -0.13460557 0.120043784 -0.05704463 0.11570486 0.18309271
0.10528444 -0.1386475 -0.05004964 0.19970743 -0.052330784 -0.20795552 -0.19752719 -0.014063805
0.15317783 -0.21299185 0.13314797 -0.09090139 0.054886863 -0.17236532 0.14997073 0.053465564
0.037427355 -0.009286864 0.038391795 0.050887704 -0.1473877 0.05065958 0.027204117 0.046627387
-0.08142464 -0.06335588 -0.1655255 -0.10626477 0.18476883 0.11704791 -0.06743527 -0.0755429
0.09928008 0.17667031 -0.11301429 -0.13449933 0.009543432 -0.09111294 0.012105277 0.010865023
0.0052984473 -0.16595832 0.06121354 -0.167161 0.12507924 0.06729907 -0.16271076 -0.058392007
-0.12916256 -0.21747786 0.14050561 0.04082352 -0.13340595 -0.04617833 0.08063105 -0.13024426
0.085301794 -0.20177437 -0.033408843 0.13336101 0.06409882 0.04425253 0.17906311 -0.12592371
0.030651577 0.19002247 0.16310056 -0.010430311 0.12887849 0.0496304 0.1535021 -0.06928703
-0.12973464 0.10966624 -0.013800186 -0.0719201 0.14751299 -0.17776646 -0.07770823 -0.1090574
-0.10342025 -0.047413103 0.05056445 0.20077763 0.054388802 0.072253 0.1559693 -0.034604825
-0.010206068 0.07206499 0.037986804 -0.14475718 0.12371056 -0.11988184 0.20829837 -0.10160214
-0.20058319 -0.19098875 -0.051243417 0.031780552 -0.03799082 0.019899257 0.13597687 0.17639554
0.11968021 -0.16638376 0.0790814 -0.011496119 0.03389692 0.06657393 0.1517738 0.067940384
0.035901625 -0.14407708 -0.062242057 0.19963613 -0.13061899 -0.09504799 -0.19450726 -0.18312904
-0.021318372 0.07206297 0.19300492 0.12318823 0.09694941 0.12222569 -0.11687323 0.118141614
0.031676047 0.16732444 -0.05438924 -0.16095053 -0.0054512094 -0.05064561 0.026328737 -0.15489301
0.12207426 -0.09917416 -0.05891397 0.100230016 0.054719657 0.0371756 -0.16187832 -0.01589902
0.12491401 -0.025019232 -0.11374737 0.124304935 -0.18105748 -0.052354082 -0.11303196 0.08991448
0.018197678 -0.1884451 0.0016386656 0.11866015 -0.09698622 0.12385545 -0.109920524 -0.053185217
0.030189078 -0.028324671 0.081027545 0.15015726 -0.16501118 -0.013449382 -0.19131847 0.101265855
-0.096746296 0.045261823 0.058042943 -0.07508784 -0.17200573 4.2303425e-05 0.075975515 0.06479947
-0.012623558 -0.0036628172 -0.043439526 -0.09864004 -0.009089339 -0.13827072 0.018538471 0.10374647
-0.07429818 0.1607218 -0.11742742 0.05118012 0.14365375 -0.0139705725 -0.02249951 0.021638269
0.015929667 0.17795885 -0.20182778 -0.01281966 -0.16349524 0.043298025 -0.055894762 -0.008108563
