logs/dict/ogbg-molbbbp-GCN-64-5-128-0.0001-0.5-0.0-cls-49.pth (torch, 402148 bytes, 43 tensors)

atom_encoder.atom_embedding_list.0.weight f4 [119, 128]
0.006619448 -0.023886278 -0.092639536 0.09703998 -0.005349019 0.02538141 0.1465732 0.13318104
-0.1994408 0.075672224 -0.06546285 -0.03257096 -0.04015652 -0.16064984 0.008779832 -0.06673294
0.1361193 0.038040217 -0.092096984 -0.30002984 0.07712718 0.028833298 -0.06110222 -0.077051334
-0.0632959 -0.10295117 -0.08790885 0.10178454 0.056601554 0.001465493 0.07068573 0.13530828
0.1290885 -0.14489461 -0.09478304 0.0946653 -0.15019217 0.0125081055 -0.103739455 -0.051497858
0.05855439 0.07432786 -0.07033049 0.09151431 0.149569 0.013043008 -0.111872815 0.006756503
0.03203405 -0.11494582 0.04056954 -0.16040957 -0.13755262 -0.052169595 0.14643434 -0.16826989
-0.10891141 -0.011628255 0.10517649 0.053560227 0.25014842 0.12401001 0.19205473 0.1189866
0.13830808 -0.13379215 0.13930131 -0.052347504 -0.008239035 0.13187642 -0.18428014 -0.186284
-0.0063865725 -0.05278495 -0.0849684 0.16275096 -0.15192758 0.02962347 -0.047866773 0.22238024
-0.023908522 0.014591976 0.0064025233 -0.04134721 -0.03396073 0.2024068 0.13836038 -0.06049935
0.12459956 -0.0089818 -0.14229605 -0.10527957 0.13578807 0.067815654 -0.103090025 -0.12885346
0.1399862 -0.105641015 -0.083159134 -0.041070357 -0.055914316 0.072938874 -0.08194893 0.04188981
0.11353452 0.046096504 -0.03732678 -0.1978785 -0.11110335 0.12998511 -0.105038434 -0.21900724
0.107365325 0.12026818 0.09637388 -0.23789178 -0.09768039 0.10916549 0.22194347 0.036887676
0.07340444 0.060580224 0.06820625 -0.2353451 0.39535138 -0.009698312 0.01736544 -0.053982254
0.056962993 0.040551156 0.14800908 0.11762049 0.06784821 0.12805088 0.13675804 0.061586928
0.051819593 0.08260663 -0.13736475 0.11049574 -0.09806788 0.12401821 -0.1322084 0.040479586
-0.047747847 0.05850544 -0.1278974 0.13338259 -0.0349022 0.09504748 0.1478428 0.13181627
-0.12866949 -0.021772549 0.1359723 -0.0086626075 0.10814677 0.0286294 -0.059888933 -0.020703327
0.0049499497 -0.06980801 0.10554524 -0.12562346 0.017839238 0.13469207 -0.015528824 -0.14991894
-0.032235056 -0.12418869 -0.065258875 -0.12126251 0.09666485 -0.056883976 -0.05464868 0.15373482
-0.10902758 -0.13927063 -0.1552183 0.006105269 0.04012505 0.093316026 0.020382067 -0.041276336
0.08478791 0.08816008 0.032736078 -0.058450814 -0.10757919 0.09640706 -0.12026562 0.030091042
-0.04017341 0.048381727 -0.13120444 -0.009856293 -0.08897523 -0.13359317 0.03003378 -0.11057006
-0.10260653 0.00824581 -0.06851146 0.14086528 0.14564796 0.10023237 -0.009533101 -0.014320163
0.12511438 -0.120639965 0.13486066 -0.058114614 -0.139923 -0.01572142 0.14697881 0.022128051
-0.06317153 -0.053058594 0.018058274 0.1457408 -0.0006254649 0.12733905 -0.0852197 0.031739205
0.071401305 -0.016760524 0.1298079 -0.04121714 -0.13751455 0.015068049 -0.05863843 -0.13514397
-0.058343925 -0.08536858 0.0450064 -0.08842637 -0.053498097 -0.06788834 -0.09792946 -0.0675907
-0.10777054 0.014451911 0.010433061 -0.027751215 0.022346307 0.14309518 -0.005410985 0.15127067
0.14383583 0.088447005 0.09102456 -0.105313234 0.06002267 -0.12459741 -0.052863322 -0.15164112
00000000: f4e7 d83b 28ad c3bc ccb9 bdbd e6bc c63d
00000010: d346 afbb adec cf3c 4917 163e 9c60 083e
00000020: 363a 4cbe 0afa 9a3d 6311 86bd 2069 05bd
00000030: 2a7b 24bd 6481 24be 49d9 0f3c 48ab 88bd
00000040: dc62 0b3e 0fd0 1b3d 589d bcbd 839d 99be
00000050: dbf4 9d3d cf33 ec3c 5246 7abd 17cd 9dbd
00000060: 48a1 81bd 10d8 d2bd 8e09 b4bd 6a74 d03d
00000070: 08d7 673d c915 c03a aec3 903d 418e 0a3e
00000080: c72f 043e 415f 14be 9c1d c2bd e1df c13d
00000090: facb 19be ccee 4c3c 5a75 d4bd 6bef 52bd
000000a0: bad6 6f3d 3439 983d 6f09 90bd db6b bb3d
000000b0: 9e28 193e 57b2 553c 931d e5bd a865 dd3b
000000c0: 2336 033d b768 ebbd 3f2c 263d 6842 24be
000000d0: 98da 0cbe c9af 55bd e2f2 153e f14e 2cbe
000000e0: f20c dfbd 7084 3ebc c666 d73d f861 5b3d
000000f0: 7413 803e f6f8 fd3d ffa9 443e 3faf f33d
00000100: a2a0 0d3e cf00 09be 01a5 0e3e 566a 56bd
00000110: 04fd 06bc 9d0a 073e efb3 3cbe 3cc1 3ebe
00000120: 7446 d1bb 0835 58bd ea03 aebd 30a8 263e
00000130: e792 1bbe ebac f23c f30f 44bd a5b7 633e
00000140: cedb c3bc 2f13 6f3c 42cc d13b b15b 29bd
00000150: 681a 0bbd ba43 4f3e 58ae 0d3e 2bce 77bd
00000160: 0e2e ff3d 6628 13bc 0eb6 11be d19c d7bd
00000170: 070c 0b3e efe2 8a3d dd20 d3bd 29f2 03be
00000180: 8b58 0f3e 515a d8bd 564f aabd 6439 28bd
00000190: 6906 65bd fa60 953d d7d4 a7bd a694 2b3d
000001a0: c984 e83d b0cf 3c3d f7e3 18bd a9a0 4abe
000001b0: 278a e3bd d11a 053e 641e d7bd 6f43 60be
000001c0: 5ae2 db3d 2a4f f63d ab5f c53d e799 73be
000001d0: a80c c8bd 2892 df3d 2645 633e 8817 173d
000001e0: 1155 963d f822 783d b8af 8b3d 4efe 70be
000001f0: 7f6b ca3e abe5 1ebc f841 8e3c 7f1c 5dbd
00000200: 0752 693d f818 263d b18f 173e 03e3 f03d
00000210: 01f4 8a3d c51f 033e 4d0a 0c3e 9342 7c3d
00000220: c840 543d aa2d a93d 58a9 0cbe 974b e23d
00000230: d0d7 c8bd 42fd fd3d a461 07be eccd 253d
00000240: 3f93 43bd 66a3 6f3d 89f7 02be 7295 083e
00000250: 9cf5 0ebd 41a8 c23d 1a64 173e d8fa 063e
00000260: efc1 03be 585c b2bc 533c 0b3e 9ced 0dbc
00000270: 0e7c dd3d 3488 ea3c 194e 75bd 069a a9bc
00000280: 3033 a23b 80f7 8ebd 1a28 d83d 70a3 00be
00000290: 9823 923c b8ec 093e 9c6c 7ebc 5a84 19be
000002a0: e808 04bd a456 febd 72a6 85bd 7b58 f8bd
000002b0: 39f8 c53d 2cff 68bd 4bd7 5fbd a96c 1d3e
000002c0: da49 dfbd f69c 0ebe 8cf1 1ebe b50e c83b
000002d0: 2a5a 243d 791c bf3d 4bf8 a63c 6011 29bd
000002e0: 49a5 ad3d 468d b43d 4416 063d 1f6a 6fbd
000002f0: 7a52 dcbd 1171 c53d d24d f6bd 7d81 f63c
00000300: e08c 24bd eb2b 463d 755a 06be 4a7c 21bc
00000310: a538 b6bd a6cc 08be 6709 f63c 8e72 e2bd
00000320: 5f23 d2bd 6f19 073c bd4f 8cbd fd3e 103e
00000330: bd24 153e a146 cd3d b930 1cbc 1e9f 6abc
00000340: fc1d 003e 1612 f7bd ea18 0a3e 9709 6ebd
00000350: fa47 0fbe 35ca 80bc 9d81 163e e345 b53c
00000360: 1360 81bd f853 59bd f2ee 933c 143d 153e
00000370: 3df6 23ba 2b65 023e ab87 aebd f800 023d
00000380: d93a 923d 5e4d 89bc 5dec 043e 4ed3 28bd
00000390: 9dd0 0cbe fadf 763c da2e 70bd 2e63 0abe
000003a0: 0afa 6ebd b9d5 aebd a258 383d e218 b5bd
000003b0: d220 5bbd 0b09 8bbd 3e8f c8bd fe6c 8abd
000003c0: cdb6 dcbd b5c7 6c3c 6eef 2a3c 8456 e3bc
000003d0: 9a0f b73c 8b87 123e a24e b1bb b3e6 1a3e
000003e0: b349 133e b423 b53d 166b ba3d 77ae d7bd
000003f0: 55da 753d ed2c ffbd 3687 58bd cf47 1bbe

atom_encoder.atom_embedding_list.1.weight f4 [4, 128]
0.022678599 -0.083422065 0.08431816 -0.06612459 -0.07355943 -0.05815617 0.073333494 -0.058735378
-0.11985013 0.021168474 0.041404873 0.09080706 -0.028323425 -0.23810712 -0.24046625 -0.08271321
-0.06350145 0.08328423 -0.17202224 0.06409736 0.059373427 -0.08186403 -0.18338719 -0.17444605
-0.19160436 -0.09711833 -0.096993886 0.14695562 0.10909924 0.09603142 0.1723607 0.2099292
0.21627384 0.21529025 -0.044015203 -0.12472105 0.028521754 -0.04609842 -0.12747613 0.07549476
-0.0060001067 0.15067379 -0.15010627 -0.06353602 0.14722918 0.08254448 0.20349257 -0.073387794
-0.18390714 0.16692187 -0.010598331 -0.1800546 0.15872087 -0.007956403 0.19985116 -0.018289594
0.048658606 -0.06482229 0.19701527 -0.15411657 0.17230004 -0.03291884 -0.1830741 -0.1362338
0.115303 -0.096276894 -0.011447187 -0.038297947 -0.16779676 -0.20060232 0.15033658 -0.15771705
-0.06826573 0.17034096 -0.13030237 0.085522465 0.09323891 -0.076371424 -0.047982205 0.16809542
0.12291546 -0.03934204 0.22299953 0.13168472 -0.08939478 0.08839972 -0.14262351 0.036792688
0.10011018 0.16428198 -0.20237136 -0.19004609 0.20839179 -0.0070171934 -0.19206196 0.00764909
-0.16807073 0.10501543 -0.15671305 0.088138044 -0.1105375 0.079471864 0.12433435 0.06816513
-0.14230956 0.02605124 0.15900189 -0.062231913 -0.13850608 0.23961589 -0.13757297 -0.09537963
0.06497361 0.008223408 -0.17026617 -0.056584667 -0.14326034 -0.062338028 0.14266963 0.033212677
-0.06751752 -0.081770524 -0.031204253 0.19126113 0.18587038 0.11418441 0.021500312 0.17465013
-0.03481469 -0.08914585 -0.052048944 -0.047099683 -0.08594238 0.033911075 0.051129516 0.15429123
0.082519785 0.034446456 -0.14521183 -0.18692908 -0.18992688 0.03447547 0.12934926 0.1540127
-0.04504283 -0.07328419 -0.13229002 -0.07923835 -0.036404464 -0.031468607 0.11161804 -0.0341072
-0.066232376 0.08471948 -0.10551595 -0.08606895 -0.1632498 0.2774071 -0.034933288 -0.0863859
-0.17506248 -0.06511484 0.12602961 -0.14638379 -0.09018363 0.04988551 0.12443848 -0.16933249
-0.16001295 -0.22277623 -0.030917406 0.10452944 0.11052256 0.07008732 -0.17845753 0.08337025
-0.048119735 -0.07877461 0.13215873 -0.16091834 0.006148133 0.12854216 0.012343724 0.13454996
0.023329457 -0.03463415 -0.067684375 -0.20299818 -0.02840356 -0.16695215 0.12658882 -0.14524771
0.14067243 -0.0764459 0.05073686 -0.13520345 -0.14515944 0.18115553 0.09443625 -0.048580978
0.068884626 0.050975736 -0.12908742 0.20519993 0.044482037 -0.08487774 -0.062616736 0.05169758
-0.05061442 0.2637265 -0.2034457 0.2175521 0.080134444 0.02178523 -0.22445904 0.19200264
0.03131082 -0.08240704 -0.13898705 0.044817153 -0.19734342 0.1285245 0.07111356 -0.12289491
0.051612206 -0.09230583 0.116020426 0.03761204 0.05275961 0.010343111 0.03933964 0.038865983
-0.11730363 0.2375862 0.06878054 -0.06430447 -0.08073401 -0.05052719 -0.024265314 0.07548408
-0.09582645 0.026552914 -0.12917092 0.073290035 0.19387558 -0.214464 -0.03254519 -0.12076618
0.18870966 -0.053595733 0.06486057 -0.07200243 -0.15070198 -0.10320408 0.19065861 -0.044962127
00000000: 78c8 b93c 30d9 aabd 00af ac3d 546c 87bd
00000010: 54a6 96bd 2a35 6ebd df2f 963d 8294 70bd
00000020: fc73 f5bd 8269 ad3c 2898 293d 0df9 b93d
00000030: 8706 e8bc 5ad2 73be c93c 76be 8b65 a9bd
00000040: 0c0d 82bd ec90 aa3d 9926 30be 7a45 833d
00000050: 8d31 733d 54a8 a7bd dac9 3bbe fca1 32be
00000060: ef33 44be fae5 c6bd bba4 c6bd 897b 163e
00000070: 6c6f df3d 1fac c43d 537f 303e aef7 563e
00000080: e476 5d3e 0c75 5c3e 4949 34bd c06d ffbd
00000090: 74a6 e93c b2d1 3cbd 1a89 02be ff9c 9a3d
000000a0: 8b9c c4bb 3b4a 1a3e 75b5 19be 2c1f 82bd
000000b0: 3fc3 163e 150d a93d 5b60 503e 574c 96bd
000000c0: 2752 3cbe 91ed 2a3e 9fa4 2dbc 3c60 38be
000000d0: b987 223e 935b 02bc c8a5 4c3e 0fd4 95bc
000000e0: 3f4e 473d 8cc1 84bd 5fbe 493e bcd0 1dbe
000000f0: 6c6f 303e e8d5 06bd c777 3bbe e080 0bbe
00000100: fb23 ec3d d22c c5bd fb8c 3bbc 4fde 1cbd
00000110: ead2 2bbe b26a 4dbe d5f1 193e 9480 21be
00000120: e7ce 8bbd dc6d 2e3e fc6d 05be 6726 af3d
00000130: 0bf4 be3d 9f68 9cbd fd88 44bd 3521 2c3e
00000140: 1abb fb3d 1e25 21bd fd59 643e 5cd8 063e
00000150: 9c14 b7bd ea0a b53d e60b 12be eeb3 163d
00000160: 9106 cd3d 8939 283e 703a 4fbe 719b 42be
00000170: a864 553e 7cf0 e5bb e4ab 44be 38a5 fa3b
00000180: bc1a 2cbe 5412 d73d 6379 20be b881 b43d
00000190: 7c61 e2bd 25c2 a23d 02a3 fe3d 299a 8b3d
000001a0: 99b9 11be 6969 d53c 64d1 223e e4e6 7ebd
000001b0: 8ad4 0dbe de5d 753e eedf 0cbe 6556 c3bd
000001c0: e210 853d 79bb 063c 415a 2ebe 53c5 67bd
000001d0: d7b2 12be 2956 7fbd fd17 123e 040a 083d
000001e0: a046 8abd 4e77 a7bd 10a0 ffbc f5d9 433e
000001f0: ce54 3e3e 84d9 e93d 6c21 b03c 7cd7 323e
00000200: d999 0ebd 1992 b6bd 4631 55bd 99eb 40bd
00000210: 8f02 b0bd 57e6 0a3d 2f6d 513d 85fe 1d3e
00000220: 2200 a93d ba17 0d3d 69b2 14be 566a 3fbe
00000230: 317c 42be 2736 0d3d 2274 043e 81b5 1d3e
00000240: d57e 38bd 0516 96bd 0977 07be b747 a2bd
00000250: d91c 15bd 3ae5 00bd 0098 e43d feb3 0bbd
00000260: d7a4 87bd 6881 ad3d bf18 d8bd eb44 b0bd
00000270: f52a 27be 4e08 8e3e 3516 0fbd 17eb b0bd
00000280: 9443 33be ee5a 85bd e80d 013e a2e5 15be
00000290: 32b2 b8bd c054 4c3d 9ad9 fe3d 7f65 2dbe
000002a0: 6fda 23be 741f 64be 8046 fdbc 8813 d63d
000002b0: a759 e23d f189 8f3d 92bd 36be 06be aa3d
000002c0: 3319 45bd 9554 a1bd 9e54 073e c7c7 24be
000002d0: 4776 c93b 8ea0 033e 553d 4a3c 77c7 093e
000002e0: 6b1d bf3c 8adc 0dbd 1b9e 8abd c1de 4fbe
000002f0: 95ae e8bc 81f5 2abe 80a0 013e d1bb 14be
00000300: 6f0c 103e ab8f 9cbd 74d1 4f3d c672 0abe
00000310: ada4 14be d680 393e cb67 c13d d9fc 46bd
00000320: 6213 8d3d efcb 503d 7e2f 04be ee1f 523e
00000330: cc32 363d 61d4 adbd 343d 80bd d7c0 533d
00000340: 1151 4fbd 2907 873e 1254 50be fac5 5e3e
00000350: 871d a43d f076 b23c 97d8 65be 579c 443e
00000360: c63f 003d 06c5 a8bd 9f52 0ebe 3192 373d
00000370: 6514 4abe ed9b 033e fca3 913d 54b0 fbbd
00000380: 5267 533d d70a bdbd 1e9c ed3d 150f 1a3d
00000390: 761a 583d 2776 293c 9a22 213d f031 1f3d
000003a0: e33c f0bd cc49 733e d0dc 8c3d 10b2 83bd
000003b0: df57 a5bd 99f5 4ebd 0dc8 c6bc 6697 9a3d
000003c0: a840 c4bd 7f85 d93c 6245 04be 1619 963d
000003d0: 5287 463e 739c 5bbe 1b4e 05bd 4254 f7bd
000003e0: 1b3d 413e 3387 5bbd 9ed5 843d 0376 93bd
000003f0: 9f51 1abe a95c d3bd 033c 433e 352a 38bd

atom_encoder.atom_embedding_list.2.weight f4 [12, 128]
-0.13194564 -0.016843153 0.14043364 -0.03800197 -0.10002597 0.04085376 -0.008228389 0.1322556
0.066282 0.24746946 0.12683734 -0.1358522 -0.19839552 0.09107734 0.0067722336 0.10992596
0.11577457 0.042276382 0.12979607 -0.014868043 0.076424815 0.2591231 -0.02365394 0.068007186
0.051868323 0.1040547 0.05246897 0.047705557 0.0109182205 0.08641783 0.11858934 -0.09452145
-0.08331038 0.17729126 0.06454575 -0.05698088 0.112437464 -0.15208751 -0.018059647 -0.21064584
0.21238528 -0.02657217 0.27777848 -0.09993953 0.047507077 0.025016962 -0.19771875 0.11795711
0.105679825 0.024905605 -0.16899733 -0.07050381 -0.12786466 0.16180831 0.090355285 0.27567843
0.009167749 0.016537258 0.12876569 0.0004707132 -0.08932609 -0.23953214 -0.14263757 -0.08082587
-0.045867205 0.20447294 -0.19232853 -0.14656432 0.09169347 0.08082329 0.021383839 0.100345984
0.11213006 0.13994181 0.036320977 -0.1288676 -0.10110082 0.17094356 -0.11145933 -0.05108568
0.108935036 0.082356624 -0.16072056 0.16398025 0.17307736 -0.212342 -0.008611224 0.0944512
-0.14930125 -0.019085128 0.0032855165 -0.15242442 -0.08533931 0.12609713 -0.087908626 0.0971743
0.09705363 -0.010663266 0.108938724 0.03900354 0.037944287 0.33322617 -0.1599619 -0.26485676
-0.12615332 -0.16319776 0.01999198 -0.07094674 -0.080834344 -0.09107957 0.19912106 0.08015482
0.073469825 0.111874744 0.37498012 0.140214 0.06369337 0.051349483 0.074769676 0.13287067
-0.23826313 0.122999445 -0.05073996 -0.23812243 0.042757187 -0.134764 0.021206632 -0.18746331
-0.17531541 -0.14145374 0.12318232 0.18090375 0.027017763 -0.19813359 -0.080709785 0.15382381
0.021220604 -0.08598011 -0.18518403 -0.13194047 0.13445811 0.0016410241 0.017254509 0.05285567
-0.17396829 -0.21512234 0.051354647 0.13664989 -0.06597163 -0.21061793 0.0898404 -0.14798938
-0.07122649 0.21356969 0.119702846 0.0010002003 0.09839903 0.20298041 -0.13695721 0.0002823953
0.0033852411 -0.06440517 0.03499156 0.086634554 -0.07505098 -0.15617408 0.039079297 -0.058782768
0.16611305 0.10868121 0.0641817 0.057601694 0.12698677 -0.10201301 0.0033892302 -0.18080197
0.112398244 0.009124966 -0.12659393 -0.12593222 -0.15721212 -0.1223844 0.19223551 0.016464042
-0.12371657 -0.084827095 0.03854157 0.15436691 0.19272448 0.16496104 0.045316394 0.018705182
0.13552883 -0.15178178 0.02841135 0.17635849 0.18573146 0.1066114 0.003281379 -0.1741012
0.052055348 -0.02514436 0.19090368 -0.11930832 -0.044054065 0.18439531 0.16003351 -0.0953783
0.058200955 -0.1580239 -0.018774483 -0.023360597 -0.109661765 -0.051810645 0.098099425 0.009952598
0.17163609 0.031771496 0.11764584 -0.1887092 -0.13314568 -0.037742987 0.049876157 -0.0133707225
-0.042944103 -0.21178496 -0.03480298 0.03226924 -0.019546602 -0.18806055 0.18328929 -0.1584034
0.1531184 -0.023231942 0.0020586941 0.0038777818 0.0379117 0.18656528 0.106032334 0.07820753
0.027570128 -0.065373965 0.043013178 0.112426765 0.17602558 0.17242272 -0.02166611 0.17480597
-0.03733754 -0.044730306 0.092313565 0.0059876265 0.102954954 0.13147739 -0.10802001 0.19475605
00000000: c21c 07be a7fa 89bc d6cd 0f3e f4a7 1bbd
00000010: 6ada ccbd 4656 273d 5dd0 06bc 036e 073e
00000020: dbbe 873d a268 7d3e a6e1 013e d71c 0bbe
00000030: 3228 4bbe c286 ba3d 9de9 dd3b dd20 e13d
00000040: 381b ed3d 002a 2d3d 43e9 043e 1899 73bc
00000050: 9d84 9c3d c8ab 843e e8c5 c1bc 5a47 8b3d
00000060: e173 543d a11a d53d b4e9 563d e766 433d
00000070: 56e2 323c d5fb b03d f8de f23d 7694 c1bd
00000080: a29e aabd d78b 353e 9030 843d c964 69bd
00000090: 9d45 e63d d4bc 1bbe d3f1 93bc 8bb3 57be
000000a0: 877b 593e e1ad d9bc fb38 8e3e 19ad ccbd
000000b0: c896 423d 5ff0 cc3c c976 4abe 7f93 f13d
000000c0: aa6e d83d d706 cc3c a30d 2dbe 4d64 90bd
000000d0: f4ee 02be 14b1 253e 310c b93d b925 8d3e
000000e0: 5434 163c 2579 873c 27db 033e 0eca f639
000000f0: 99f0 b6bd ea47 75be 950f 12be 0988 a5bd
00000100: 40df 3bbd 5b61 513e c5f1 44be f514 16be
00000110: c9c9 bb3d ae86 a53d 292d af3c 3282 cd3d
00000120: 72a4 e53d e84c 0f3e 4ec5 143d def5 03be
00000130: f20d cfbd d40b 2f3e ca44 e4bd 383f 51bd
00000140: 5519 df3d 97aa a83d ee93 24be 70ea 273e
00000150: 313b 313e 2e70 59be 1716 0dbc a16f c13d
00000160: 6de2 18be 6a58 9cbc d251 573b 2615 1cbe
00000170: 60c6 aebd 9b1f 013e 7009 b4bd 5203 c73d
00000180: 0ec4 c63d fbb4 2ebc 441b df3d 2dc2 1f3d
00000190: 786b 1b3d 9f9c aa3e 0dcd 23be 4e9b 87be
000001a0: 562e 01be 501d 27be 39c6 a33c 864c 91bd
000001b0: 7a8c a5bd ed87 babd 64e6 4b3e 3628 a43d
000001c0: 5977 963d 961e e53d 65fd bf3e 4294 0f3e
000001d0: ab71 823d d653 523d d820 993d 400f 083e
000001e0: 40fb 73be 22e7 fb3d b4d4 4fbd 5ed6 73be
000001f0: 2922 2f3d 93ff 09be 88b9 ad3c 62f6 3fbe
00000200: e285 33be 40d9 10be 0347 fc3d d53e 393e
00000210: 5b54 dd3c 88e3 4abe 2c4b a5bd fd83 1d3e
00000220: d5d6 ad3c 5716 b0bd e2a0 3dbe 671b 07be
00000230: 63af 093e a217 d73a 5459 8d3c 307f 583d
00000240: be24 32be 0849 5cbe 4059 523d f3ed 0b3e
00000250: 221c 87bd 3aac 57be 3efe b73d 878a 17be
00000260: 32df 91bd 03b2 5a3e c426 f53d 2719 833a
00000270: 6e85 c93d 19da 4f3e 833e 0cbe 750e 9439
00000280: ecda 5d3b dce6 83bd 4f53 0f3d 756d b13d
00000290: 54b4 99bd 19ec 1fbe 9d11 203d 33c6 70bd
000002a0: 8a19 2a3e 4194 de3d b271 833d c1ef 6b3d
000002b0: d208 023e 32ec d0bd d91d 5e3b 2724 39be
000002c0: 0d31 e63d e280 153c d7a1 01be 60f4 00be
000002d0: 37fc 20be aca4 fabd 63d9 443e 99df 863c
000002e0: 1d5f fdbd d4b9 adbd c4dd 1d3d 5c12 1e3e
000002f0: 9159 453e 8ceb 283e af9d 393d 9c3b 993c
00000300: 12c8 0a3e af6c 1bbe ebbe e83c 5297 343e
00000310: 6330 3e3e 1457 da3d 670c 573b 9647 32be
00000320: fd37 553d 8bfb cdbc 417c 433e ec57 f4bd
00000330: 0972 34bd 20d2 3c3e d3df 233e b355 c3bd
00000340: 2064 6e3d 04d1 21be f2cc 99bc b95e bfbc
00000350: 5996 e0bd 6637 54bd 5ae8 c83d 3910 233c
00000360: 5fc1 2f3e d422 023d 4df0 f03d fc3c 41be
00000370: 5757 08be 6498 1abd f14a 4c3d e010 5bbc
00000380: 28e6 2fbd 28de 58be 928d 0ebd c02c 043d
00000390: 3220 a0bc f292 40be 30b0 3b3e 8034 22be
000003a0: 12cb 1c3e ea50 bebc 28eb 063b 6222 7e3b
000003b0: 4c49 1b3d f80a 3f3e 7b27 d93d 452b a03d
000003c0: c0da e13c c9e2 85bd 962e 303d 0140 e63d
000003d0: 0d40 343e 958f 303e 207d b1bc 5600 333e
000003e0: 40ef 18bd 2037 37bd e50e bd3d da33 c43b
000003f0: 0cda d23d 02a2 063e 9839 ddbd 216e 473e

atom_encoder.atom_embedding_list.3.weight f4 [12, 128]
0.0042993203 -0.09860387 0.026896983 0.09972971 -0.07697102 0.18644385 0.19917361 -0.03967456
0.07533405 -0.15630393 0.058213055 -0.025040284 0.16676351 0.09734515 -0.088555254 0.11398635
-0.171071 0.09899895 0.18362938 -0.14355214 0.18169321 -0.13869917 0.15985079 -0.11582007
-0.11794318 -0.1655334 -0.14994107 0.10269605 0.055687316 -0.083641484 -0.0010201915 0.11659508
-0.08719393 -0.18986474 -0.062170897 -0.16743043 -0.13651624 -0.04318251 -0.09384686 -0.0388326
0.1566137 0.040932287 0.20250192 -0.07323777 -0.14428014 -0.114441626 0.14368515 0.17518844
0.1689515 -0.116514064 -0.0057522766 -0.11783669 -0.027031187 0.060254302 0.16672504 0.08205033
0.17007862 -0.16186391 -0.107330486 -0.098315075 0.017693717 -0.07333866 -0.12088122 -0.17567298
0.19738725 0.064730965 0.014048677 0.13964501 -0.046869677 -0.1161637 0.06536362 0.029259102
-0.08325701 0.12179436 -0.08275439 0.13473769 -0.07864699 -0.020762756 -0.08201131 -0.16645673
0.19713154 0.10461253 0.05745485 -0.15671018 0.13618422 -0.09456839 -0.18866187 0.18169111
0.15101442 -0.035285115 0.14580184 -0.11003611 -0.09419031 -0.04119035 0.14662053 0.0723373
0.032414813 0.18489878 -0.19762921 -0.17504427 -0.069701515 -0.05820353 -0.026530234 0.17653406
-0.068157814 -0.16191834 0.10455389 -0.16016147 -0.16111802 -0.02381489 -0.10340599 -0.0783025
-0.18811776 0.11145531 0.121802084 0.17304209 -0.116024785 0.0906827 -0.11210793 0.1888461
0.00038249468 0.048225548 0.064536296 -0.07659072 -0.056320816 0.0794776 -0.07909533 0.016833814
0.035743028 0.010673401 -0.20475373 -0.021203492 0.08613383 -0.0121285785 -0.17791627 -0.14915885
0.20532334 0.027026694 0.19701566 0.05677962 -0.20034318 0.20316444 0.054526974 0.17454451
0.18683925 -0.15529114 0.14324896 0.1717982 0.14364888 0.06771432 -0.06967605 0.18697326
0.1335053 0.15311246 -0.031063927 -0.20172967 0.10796024 0.16346209 0.13276026 -0.1646408
-0.09606344 -0.104044475 0.11035128 0.08889347 0.117910825 -0.12324771 -0.123940885 -0.146647
-0.12322705 0.06512175 -0.000260508 0.029085193 0.085717574 0.14803876 -0.11208977 -0.116367124
0.054578677 -0.08351123 -0.20353413 0.033693787 -0.18229434 0.03405296 0.022552773 0.0549875
-0.12698036 0.19321793 -0.1314927 0.18319626 0.15564808 0.051076107 -0.15269633 0.018362707
0.1802298 -0.03218027 -0.13385114 -0.08580065 0.19940776 0.106028564 -0.01879552 -0.17483881
0.17211765 0.15094058 0.1395528 -0.08863894 0.0062253913 -0.033648524 0.19385146 -0.09619273
0.044292063 0.18294178 0.061712366 0.17309448 0.024105605 0.19408844 -0.11609223 -0.025122292
-0.015902169 -0.13275036 -0.17897654 0.17987423 0.19418183 0.058490813 -0.1618622 0.09921629
-0.10263626 -0.021904785 0.20509437 0.15363228 -0.13843375 -0.014567966 0.1912654 0.10742037
-0.07931226 -0.09169046 -0.0512053 0.1945703 -0.020178957 0.2061074 0.02474071 -0.119662
-0.16977412 0.013283342 -0.012279711 0.13313589 0.017404236 0.10596758 0.15956603 0.2065788
-0.19308785 -0.029863458 0.08310998 0.19879071 0.09289221 -0.029245604 0.04445756 0.060372487
00000000: 50e1 8c3b d3f0 c9bd 1057 dc3c 173f cc3d
00000010: fba2 9dbd 23eb 3e3e 2bf4 4b3e cb81 22bd
00000020: bd48 9a3d 230e 20be d070 6e3d 4821 cdbc
00000030: 0ec4 2a3e e55c c73d 755c b5bd ad71 e93d
00000040: 3c2d 2fbe f6bf ca3d 5709 3c3e 55ff 12be
00000050: c90d 3a3e 2807 0ebe edaf 233e 1333 edbd
00000060: 328c f1bd 9681 29be 278a 19be 4f52 d23d
00000070: 6218 643d 3a4c abbd f2b7 85ba 67c9 ee3d
00000080: bb92 b2bd e76b 42be e9a6 7ebd e272 2bbe
00000090: eaca 0bbe 25e0 30bd c832 c0bd ef0e 1fbd
000000a0: 575f 203e 9da8 273d aa5c 4f3e affd 95bd
000000b0: 2cbe 13be 5f60 eabd 3322 133e 9964 333e
000000c0: 9f01 2d3e ed9e eebd 987d bcbb 5d54 f1bd
000000d0: 8270 ddbc 37cd 763d f8b9 2a3e 010a a83d
000000e0: 1729 2e3e a7bf 25be 16d0 dbbd 6a59 c9bd
000000f0: 6af2 903c 9432 96bd 9390 f7bd 9ee3 33be
00000100: e21f 4a3e ab91 843d 6c2c 663c 1aff 0e3e
00000110: 6bfa 3fbd 3ce7 edbd 5ddd 853d c9b0 ef3c
00000120: a782 aabd 526f f93d 227b a9bd adf8 093e
00000130: ac11 a1bd a816 aabc 8cf5 a7bd a273 2abe
00000140: dadc 493e 183f d63d c755 6b3d a278 20be
00000150: e073 0b3e 12ad c1bd 9430 41be 3c0d 3a3e
00000160: 86a3 1a3e 2087 10bd 144d 153e 9d5a e1bd
00000170: d9e6 c0bd 36b7 28bd b123 163e 9425 943d
00000180: 65c5 043d 1b56 3d3e 505f 4abe ce3e 33be
00000190: abbf 8ebd d366 6ebd ef55 d9bc 58c5 343e
000001a0: 5396 8bbd eccd 25be 5a20 d63d 5e01 24be
000001b0: 1ffc 24be 7217 c3bc 85c6 d3bd 105d a0bd
000001c0: f1a1 40be ae42 e43d 5f73 f93d f231 313e
000001d0: 679e edbd dab7 b93d d898 e5bd df60 413e
000001e0: 9189 c839 2788 453d 9b2b 843d 98db 9cbd
000001f0: a8b0 66bd 27c5 a23d bbfc a1bd 11e7 893c
00000200: 4867 123d 7ddf 2e3c f6aa 51be f2b2 adbc
00000210: ef66 b03d f2b6 46bc af2f 36be 19bd 18be
00000220: 4840 523e 1667 dd3c 79be 493e bf91 683d
00000230: c326 4dbe 570a 503e ad57 5f3d ccbb 323e
00000240: ca52 3f3e a404 1fbe dbaf 123e deeb 2f3e
00000250: b118 133e cead 8a3d 51b2 8ebd eb75 3f3e
00000260: 9db5 083e 83c9 1c3e c779 febc 3992 4ebe
00000270: 421a dd3d 9b62 273e 4ef2 073e 9997 28be
00000280: e9bc c4bd 4515 d5bd daff e13d c80d b63d
00000290: 3b7b f13d 4c69 fcbd b8d4 fdbd a22a 16be
000002a0: 775e fcbd 8d5e 853d cb94 88b9 1244 ee3c
000002b0: b28c af3d 7997 173e 528f e5bd e351 eebd
000002c0: e48d 5f3d f007 abbd 406b 50be 7f02 0a3d
000002d0: 5eab 3abe 1e7b 0b3d 98c0 b83c 933a 613d
000002e0: 2407 02be ecda 453e 06a6 06be cd97 3b3e
000002f0: 3662 1f3e 2e35 513d 6d5c 1cbe 636d 963c
00000300: 298e 383e 75cf 03bd 4610 09be 40b8 afbd
00000310: 8c31 4c3e 8125 d93d 10f9 99bc f208 33be
00000320: 9c3f 303e 2b90 1a3e eee6 0e3e 5588 b5bd
00000330: 5efe cb3b 09d3 09bd ff80 463e b200 c5bd
00000340: 986b 353d 1755 3b3e 1bc6 7c3d ae3f 313e
00000350: 1e79 c53c 1fbf 463e c3c1 edbd 44cd cdbc
00000360: 4445 82bc b6ef 07be a045 37be f330 383e
00000370: 9ad7 463e 1094 6f3d 34bf 25be e931 cb3d
00000380: f632 d2bd aa71 b3bc 4204 523e c851 1d3e
00000390: 94c1 0dbe 7aae 6ebc 14db 433e 36ff db3d
000003a0: 776e a2bd 35c8 bbbd a6bc 51bd 703d 473e
000003b0: 574e a5bc d10d 533e 08ad ca3c 5a11 f5bd
000003c0: 44d9 2dbe 60a2 593c d730 49bc c654 083e
000003d0: 5493 8e3c 8805 d93d 4765 233e 6589 533e
000003e0: d2b8 45be 36a4 f4bc 9135 aa3d cb8f 4b3e
000003f0: 453e be3d 7a94 efbc 2119 363d 2449 773d

atom_encoder.atom_embedding_list.4.weight f4 [10, 128]
-0.18887755 -0.17704932 -0.010192795 0.18728071 0.1811877 0.1734476 0.14220285 -0.07253055
-0.1812874 0.08523156 -0.022229843 -0.120072424 0.09898561 -0.10792954 0.10263702 0.13982464
-0.06168964 0.03957091 -0.025159616 -0.12493772 0.15984145 -0.029715851 -0.07228805 0.092006736
-0.07650964 -0.1401288 -0.109259166 0.12771507 -0.12126234 -0.011345695 0.054051965 0.19657049
0.10372206 0.16745758 0.014803249 -0.05141802 -0.029381942 -0.13219324 0.08384764 -0.18328878
-0.0062553356 0.008574446 -0.10885116 0.032553177 -0.17144668 -0.14187531 0.005265629 0.18917671
0.1841166 -0.05335239 -0.1713226 0.18423069 -0.06547526 -0.016242396 0.15805213 -0.16510148
-0.10633921 -0.09728595 0.0031643542 -0.13354261 -0.09571673 0.034783218 -0.08891692 0.105912656
0.022055045 0.19290957 0.13921587 -0.06773636 0.083291955 0.0017719269 0.10884839 0.056087814
-0.112595595 0.16598773 -0.14642414 0.21727036 0.15949902 0.099321574 0.07124434 0.03715467
0.20162918 -0.013658445 -0.103638195 -0.15829217 0.19741842 0.15752846 -0.08304496 0.17530575
-0.17160279 -0.111620456 0.10789507 -0.07740413 -0.06775112 -0.01722508 -0.08996603 0.015448611
-0.0024566816 0.013407424 -0.09290827 0.040868614 0.009269308 0.022932041 0.17124982 0.1018885
-0.1578693 -0.010698465 -0.086948074 -0.19991823 -0.05813711 0.023790514 -0.14916252 0.15743469
0.016624756 0.088656895 -0.17309405 0.008680689 0.12629913 -0.09198793 0.16529578 -0.11517676
-0.15886925 -0.16034459 0.1609024 -0.088427894 0.014448794 -0.07542207 -0.08116217 -0.043415185
-0.122729 -0.03435834 0.08539572 0.05894356 -0.07011131 0.008269226 -0.07586722 -0.03256248
0.11131697 -0.0879679 -0.107589185 -0.037507016 -0.09236615 -0.006368287 -0.1350248 0.19448975
-0.010887496 -0.003824621 0.03885156 0.01866449 0.0631677 -0.09042739 0.085045986 -0.12932783
0.07862657 -0.04354565 -0.15704527 -0.17822151 -0.061032105 -0.12094034 -0.11474753 0.04627645
0.0069188303 0.12911554 0.030052926 0.15241314 0.009840094 -0.26224324 0.10403305 -0.2233832
-0.1269912 -0.21788587 0.29235774 0.123209886 -0.11222713 0.2383668 -0.116858855 0.16180855
-0.2705841 0.061378844 0.09406863 -0.054745443 0.033845615 0.099432446 0.1534765 -0.14856637
0.047869556 0.19001539 -0.03158985 -0.1312247 -0.15059061 0.11376128 -0.08197348 -0.16344309
-0.09807407 -0.118969046 -0.18038583 0.104659155 0.11972987 0.2081845 -0.2126252 0.05519982
-0.1094114 -0.20817444 -0.12797292 -0.032652177 0.13980955 -0.1439685 0.0075819087 -0.1909479
0.20531921 -0.08035505 -0.22323333 0.19559464 -0.13402633 0.1573908 0.15926209 0.10355712
0.030859238 0.09987307 -0.09185668 0.25077334 0.18771918 -0.14505956 0.22077367 0.09183489
0.1900454 0.16050409 -0.21251415 -0.1578223 -0.04324056 0.0019891954 -0.11348777 -0.22417943
-0.10280958 -0.08165805 0.064180575 0.111027636 0.14827497 0.06468188 0.00989064 0.1702442
-0.20280217 -0.2496901 -0.107912436 0.063360475 -0.114598215 0.09124278 -0.15526666 0.14241286
0.16869822 0.13008896 0.05008234 0.06165232 0.002310209 -0.10336381 -0.13735744 -0.04727401
00000000: 1e69 41be 6b4c 35be aeff 26bc 84c6 3f3e
00000010: 4589 393e 3f9c 313e a09d 113e e68a 94bd
00000020: 67a3 39be e28d ae3d 5c1b b6bc 88e8 f5bd
00000030: f8b8 ca3d 2a0a ddbd 5c33 d23d 312e 0f3e
00000040: 47ae 7cbd 1b15 223d 8a1b cebc 59df ffbd
00000050: 7aad 233e a86e f3bc c20b 94bd 076e bc3d
00000060: 16b1 9cbd ed7d 0fbe 45c3 dfbd bdc7 023e
00000070: 6458 f8bd 4be3 39bc 9865 5d3d c649 493e
00000080: 3b6c d43d 007a 2b3e 5489 723c b49b 52bd
00000090: 66b2 f0bc aa5d 07be 50b8 ab3d 0eb0 3bbe
000000a0: 8ff9 ccbb d57b 0c3c 5bed debd 7b56 053d
000000b0: b88f 2fbe c347 11be 4c8b ac3b 8ab7 413e
000000c0: 1089 3c3e 0988 5abd 316f 2fbe f8a6 3c3e
000000d0: e517 86bd c60e 85bc 6bd8 213e 5d10 29be
000000e0: 5fc8 d9bd db3d c7bd 0e61 4f3b 65bf 08be
000000f0: 2207 c4bd d978 0e3d 131a b6bd bce8 d83d
00000100: c8ac b43c 168a 453e 9b8e 0e3e 5cb9 8abd
00000110: f994 aa3d 0040 e83a e8eb de3d 56bc 653d
00000120: 8598 e6bd b0f8 293e 36f0 15be 1f7c 5e3e
00000130: b653 233e 1c69 cb3d 8de8 913d 7f2f 183d
00000140: e177 4e3e acc7 5fbc 4340 d4bd 5817 22be
00000150: 0e28 4a3e 244f 213e 7a13 aabd 5a83 333e
00000160: a4b8 2fbe 4499 e4bd 17f8 dc3d 0e86 9ebd
00000170: 19c1 8abd 9c1b 8dbc 1c40 b8bd 2c1c 7d3c
00000180: 4700 21bb d0aa 5b3c b146 bebd d965 273d
00000190: 4cde 173c fadb bb3c 1d5c 2f3e ebaa d03d
000001a0: 7da8 21be 9d48 2fbc d511 b2bd 5db7 4cbe
000001b0: 2e21 6ebd 53e4 c23c 0fbe 18be 8f36 213e
000001c0: a430 883c bf91 b53d 913f 31be 7339 0e3c
000001d0: 8f54 013e 2b64 bcbd 4c43 293e cbe1 ebbd
000001e0: 9fae 22be 5f31 24be 99c3 243e af19 b5bd
000001f0: a2ba 6c3c e376 9abd 5a38 a6bd 1fd4 31bd
00000200: 5859 fbbd 55bb 0cbd f4e3 ae3d cd6e 713d
00000210: 8596 8fbd a67b 073c 4660 9bbd 3c60 05bd
00000220: 27fa e33d 8428 b4bd b857 dcbd f5a0 19bd
00000230: 772a bdbd 10ad d0bb f143 0abe 5228 473e
00000240: 7861 32bc 7ea6 7abb d022 1f3d 46e6 983c
00000250: 115e 813d ff31 b9bd 972c ae3d 846e 04be
00000260: f806 a13d ec5c 32bd 7ad0 20be b37f 36be
00000270: cdfc 79bd 92af f7bd c100 ebbd 608c 3d3d
00000280: 5bb7 e23b dd36 043e 8e31 f63c 3112 1c3e
00000290: 5838 213c bf44 86be 480f d53d 91be 64be
000002a0: fb09 02be 791d 5fbe eaaf 953e 7755 fc3d
000002b0: 56d7 e5bd 6d16 743e b253 efbd 24b1 253e
000002c0: 008a 8abe 6268 7b3d 0ea7 c03d c23c 60bd
000002d0: b3a1 0a3d 3da3 cb3d f228 1d3e c821 18be
000002e0: de12 443d 6593 423e 5c64 01bd c55f 06be
000002f0: 6d34 1abe adfb e83d b6e1 a7bd a05d 27be
00000300: 0fdb c8bd 0ba6 f3bd 10b7 38be 8a57 d63d
00000310: ef34 f53d 512e 553e 6cba 59be 3519 623d
00000320: 1613 e0bd ae2b 55be 550b 03be 4abe 05bd
00000330: 3c2a 0f3e 7a6c 13be a971 f83b d987 43be
00000340: 333f 523e 3091 a4bd 4797 64be f649 483e
00000350: 333e 09be 0e2b 213e 9a15 233e c115 d43d
00000360: 83cc fc3c 418a cc3d 5b1f bcbd 5d65 803e
00000370: 7539 403e 7e8a 14be 7e12 623e ee13 bc3d
00000380: 439b 423e 2f5b 243e 4f9d 59be 2b9c 21be
00000390: 031d 31bd 295d 023b 476c e8bd 4b8f 65be
000003a0: d48d d2bd 563c a7bd 1b71 833d 7562 e33d
000003b0: 65d5 173e ef77 843d 5a0c 223c 7f54 2e3e
000003c0: 5fab 4fbe c3ae 7fbe 3201 ddbd 23c3 813d
000003d0: 78b2 eabd 7fdd ba3d 39fe 1ebe add4 113e
000003e0: 3abf 2c3e 0a36 053e 2423 4d3d 2587 7c3d
000003f0: e066 173b 68b0 d3bd 6ea7 0cbe 64a2 41bd

atom_encoder.atom_embedding_list.5.weight f4 [6, 128]
0.15109316 -0.012273248 -0.10112992 0.05652489 -0.06333578 0.0036401502 -0.12690549 0.19937699
-0.06606966 0.03481162 -0.13398065 -0.18130119 -0.047726277 0.19904359 0.16472347 0.08057565
0.0949963 0.15484579 0.1967865 0.10866 0.08857193 0.03710118 0.09266172 -0.11229939
-0.117419764 -0.12700443 0.00292576 -0.14320314 -0.15534456 -0.01656248 0.16519806 -0.05649594
-0.13359532 0.011315917 -0.19711588 0.15689096 0.20713547 -0.13036127 0.02553729 -0.007054019
-0.12664637 0.121595174 -0.047718406 0.019749437 0.03137306 0.10093202 -0.18229344 -0.0014873773
-0.19454391 0.060672034 -0.05529817 0.0060529946 -0.12389697 -0.052577525 0.017907234 -0.07414491
0.1541444 -0.19730356 0.18188393 -0.13750711 0.0033762304 -0.03285729 0.03688673 0.022275286
0.11041177 0.0067462022 -0.0142008625 0.014671429 -0.11692454 -0.12026231 0.19233488 -0.19588168
-0.15699847 -0.13410467 -0.03681424 0.00078808126 -0.007995407 -0.1572602 -0.03683052 -0.13269003
-0.15516911 -0.030979235 -0.16549496 0.11562429 0.11822463 0.0019457999 0.034822963 -0.10035152
-0.0024702484 -0.12018358 -0.07017412 -0.0137833115 0.15592256 -0.13864475 0.1925586 -0.021799428
0.06162441 -0.18650354 -0.20541087 -0.091961905 0.11067714 -0.0562206 -0.086549684 0.038924508
-0.20262058 0.03424807 -0.04000716 0.17391439 -0.17809083 0.06210099 0.16680734 -0.14646068
0.05137357 -0.019613562 -0.11490967 0.049561862 -0.19838859 -0.14010541 -0.1837155 -0.14427042
-0.09130433 -0.16290744 -0.2092988 -0.048980966 -0.18639769 0.03654079 0.04510947 -0.12819014
-0.2215935 0.24497913 0.23324221 -0.28129527 0.107543215 0.112509765 0.055785432 -0.10992207
-0.088439636 0.095749475 -0.14548753 -0.33676815 -0.06342894 0.1259053 -0.24617863 0.12945479
-0.047799964 -0.13797212 -0.20189247 -0.089314856 -0.23191603 -0.06010018 -0.14094664 -0.091545045
0.11925516 0.024301363 0.19444004 -0.16878007 0.045920316 -0.06945882 0.22613466 0.040795814
0.20387822 0.25393122 0.24632071 0.09738835 -0.1339648 0.050632637 0.14183328 -0.028727377
0.11374158 0.04717198 0.30965585 -0.036229182 0.07206046 -0.062194448 0.18924867 -0.26500064
0.06860497 0.11844286 -0.24598698 0.068818904 0.03142094 0.032355193 0.26691937 0.20728649
-0.020582665 0.092311785 -0.02943657 0.19933598 -0.24230827 -0.19457653 -0.17455064 0.028630992
0.22409782 0.07436525 -0.012616255 -0.03839853 0.18528162 -0.006028844 -0.08281875 0.19827738
-0.08081207 -0.17976685 0.14842449 -0.072502114 -0.07375322 0.32605228 0.0371382 0.081731044
-0.08076216 -0.0958039 0.09454075 0.08305998 -0.21796086 -0.15622519 0.115924515 -0.18778959
0.22330882 0.10779978 0.24840389 0.14679441 -0.1090609 0.26896262 0.3196764 -0.22509468
-0.27036846 -0.05775469 0.03917627 -0.1549352 0.05515642 0.0023327435 -0.0050032525 0.07834827
-0.10161389 -0.016719278 0.086256646 -0.096967444 0.12862742 0.090934485 0.13581607 -0.14620171
0.21576716 0.28351247 0.059550367 -0.01213597 -0.15952969 -0.026474366 -0.2058261 -0.17729264
0.090888016 0.080260344 0.32522625 0.28024635 -0.086341076 0.037190657 -0.21386862 0.00342897
00000000: 2ab8 1a3e bc15 49bc 341d cfbd a586 673d
00000010: 30b6 81bd 968f 6e3b 83f3 01be 7b29 4c3e
00000020: 884f 87bd a196 0e3d 3932 09be 05a7 39be
00000030: a17c 43bd 15d2 4b3e 45ad 283e d904 a53d
00000040: 6c8d c23d e58f 1e3e 6682 493e 2289 de3d
00000050: 3365 b53d 68f7 173d 6ec5 bd3d 39fd e5bd
00000060: c679 f0bd 730d 02be 1cbe 3f3b d8a3 12be
00000070: a512 1fbe 0aae 87bc ae29 293e 4968 67bd
00000080: 36cd 08be 6566 393c bfd8 49be 06a8 203e
00000090: 521b 543e 6d7d 05be 9433 d13c 6625 e7bb
000000a0: 96af 01be e406 f93d 6074 43bd 92c9 a13c
000000b0: 0a81 003d 72b5 ce3d 22ab 3abe 1af4 c2ba
000000c0: 8536 47be 3d83 783d 5580 62bd 3358 c63b
000000d0: b2bd fdbd 885b 57bd 31b2 923c 49d9 97bd
000000e0: 08d8 1d3e f209 4abe c83f 3a3e aace 0cbe
000000f0: bf43 5d3b 5e95 06bd 8a16 173d a97a b63c
00000100: 911f e23d 3f0f dd3b bcaa 68bc 6f60 703c
00000110: 2276 efbd 164c f6bd 6ff3 443e 3595 48be
00000120: 35c4 20be bc52 09be 87ca 16bd 3d97 4e3a
00000130: 2bff 02bc d108 21be 99db 16bd e5df 07be
00000140: a7e4 1ebe 2ac8 fdbc 8377 29be 6ecc ec3d
00000150: c11f f23d 360a ff3a 86a2 0e3d 1985 cdbd
00000160: e4e3 21bb cf22 f6bd 73b7 8fbd 66d3 61bc
00000170: 2aaa 1f3e e4f8 0dbe 152e 453e b794 b2bc
00000180: e169 7c3d c9fa 3ebe 3a57 52be 8656 bcbd
00000190: b2aa e23d 9247 66bd f640 b1bd 4e6f 1f3d
000001a0: c57b 4fbe b447 0c3d 8cde 23bd 9d16 323e
000001b0: 715d 36be 9c5d 7e3d 8bcf 2a3e caf9 15be
000001c0: 186d 523d 9fac a0bc c355 ebbd 6101 4b3d
000001d0: 6126 4bbe cb77 0fbe eb1f 3cbe a0bb 13be
000001e0: c4fd babd 35d1 26be 6d52 56be 44a0 48bd
000001f0: 09df 3ebe ccab 153d b5c4 383d 4744 03be
00000200: 68e9 62be cfdb 7a3e 0cd7 6e3e ef05 90be
00000210: 9e3f dc3d 856b e63d 447f 643d d21e e1bd
00000220: d71f b5bd 4d18 c43d affa 14be e06c acbe
00000230: 08e7 81bd 52ed 003e 4016 7cbe cc8f 043e
00000240: e5c9 43bd 9048 0dbe e6bc 4ebe b5ea b6bd
00000250: 657b 6dbe 9b2b 76bd 5154 10be f87b bbbd
00000260: 0d3c f43d a713 c73c 4a1b 473e afd4 2cbe
00000270: f116 3c3d 6d40 8ebd d88f 673e 8319 273d
00000280: 74c5 503e 4603 823e 7f3b 7c3e 8b73 c73d
00000290: 122e 09be 2b64 4f3d be3c 113e ad55 ebbc
000002a0: 58f1 e83d 6837 413d 368b 9e3e 0d65 14bd
000002b0: 6f94 933d 9bbf 7ebd 67ca 413e 2aae 87be
000002c0: c380 8c3d 2c92 f23d 03e4 7bbe edf0 8c3d
000002d0: 3eb3 003d e186 043d a8a9 883e e942 543e
000002e0: fa9c a8bc f60d bd3d f624 f1bc bb1e 4c3e
000002f0: a91f 78be 123f 47be 67bd 32be 8b8b ea3c
00000300: e679 653e cf4c 983d 69b4 4ebc c747 1dbd
00000310: 77ba 3d3e 9c8d c5bb e09c a9bd 3a09 4b3e
00000320: cc80 a5bd cd14 38be 97fc 173e fd7b 94bd
00000330: ee0b 97bd 53f0 a63e 3a1e 183d 9b62 a73d
00000340: a266 a5bd d634 c4bd 959e c13d 5a1b aa3d
00000350: 2231 5fbe 7ff9 1fbe d569 ed3d ea4b 40be
00000360: 11ab 643e 22c6 dc3d 975d 7e3e 4651 163e
00000370: 525b dfbd 78b5 893e a0ac a33e 387f 66be
00000380: bc6d 8abe 2f90 6cbd 4c77 203d 55a7 1ebe
00000390: b3eb 613d f1e0 183b 53f2 a3bb 0f75 a03d
000003a0: f11a d0bd def6 88bc 53a7 b03d de96 c6bd
000003b0: e8b6 033e dc3b ba3d 5e13 0b3e e7b5 15be
000003c0: 11f2 5c3e 8c28 913e 16eb 733d f3d5 46bc
000003d0: c05b 23be c5e0 d8bc 14c4 52be 348c 35be
000003e0: 7f23 ba3d 895f a43d 0e84 a63e 737c 8f3e
000003f0: 97d3 b0bd 3b55 183d 6000 5bbe 92b8 603b

atom_encoder.atom_embedding_list.6.weight f4 [6, 128]
-0.0051256386 0.073690735 -0.048144255 -0.050936945 0.07277463 -0.06557044 0.18866736 0.029921304
-0.025212187 -0.16116282 0.05592848 0.15251522 0.15045114 0.03202821 0.20109764 0.091378644
0.21969612 -0.06946616 0.2556495 0.1495579 -0.105754994 -0.1449478 0.04586907 -0.17356648
-0.12513322 0.16888227 0.0010821586 0.16212592 -0.09210234 -0.2592551 -0.020345371 0.018262567
-0.13980067 -0.12957746 0.11967069 -0.14251664 0.07486331 0.21392018 0.24346998 -0.18573892
-0.03198577 0.21355449 -0.22878057 0.2881597 0.0017814784 -0.18047945 -0.19132398 -0.016373111
0.11557948 -0.16794142 -0.03185473 0.050403524 0.22664502 0.070475824 0.08945715 -0.16047515
-0.20302399 0.16535792 -0.089107625 0.11744738 -0.015193875 -0.045817032 -0.07040146 0.16047302
-0.2255963 -0.032068238 0.1943038 -0.04056377 0.086628325 -0.16390133 0.0068466617 -0.24368392
0.18801592 0.007667853 -0.045868102 0.15525283 -0.12832719 0.113817744 -0.115388684 -0.09763532
-0.096958056 -0.06633354 0.2338505 0.025128236 0.02907363 0.10368907 0.088808544 -0.1405365
-0.040964663 -0.15919876 -0.11073519 0.1613671 -0.23396017 0.19207549 -0.0537114 -0.27559286
0.02935995 -0.097839296 0.16248517 0.08051265 0.22832632 0.10174568 -0.009778409 0.0024348283
-0.08660361 -0.06370524 0.23868231 -0.042325895 -0.0053465962 0.19810975 0.061838318 0.03834268
-0.1536808 -0.18033196 -0.069763884 0.06043555 -0.09812397 0.12159115 -0.123284526 0.01301983
0.094173044 -0.08608022 -0.112162784 -0.030335395 0.074437805 0.07073244 -0.021958575 0.07031947
0.075503945 -0.035697926 -0.19087441 0.21312806 -0.13170761 0.06469267 0.1993572 -0.12932675
-0.15500244 -0.011339973 -0.04872944 0.025249777 0.17263299 -0.18268286 -0.01654329 -0.09492596
0.06848752 0.21199577 0.094493434 -0.1604291 -0.036878373 -0.014710655 0.060063798 0.014714063
0.13503051 -0.032579653 0.10811873 -0.14030449 -0.16905384 0.1953491 -0.04773302 -0.004097404
-0.12875965 -0.12316273 -0.13520761 -0.04686349 0.0781051 0.037889563 0.11888879 0.098978385
0.13968143 -0.09699127 -0.20251247 0.09120212 -0.18706872 0.036513682 -0.16282925 -0.109196916
-0.17657733 0.012588275 -0.173861 -0.038440797 0.07300213 -0.11292229 0.1352682 -0.13114345
-0.19393083 0.014322433 -0.06030945 0.16546564 -0.15089679 0.13733768 -0.057230428 0.16139793
-0.06514033 0.11694944 -0.20160015 -0.07587171 0.090742595 0.13277608 -0.20121562 -0.18691473
0.18865584 0.060568202 0.17523845 0.16828896 -0.17578591 0.046229925 0.18979232 -0.038026433
-0.13320951 0.08008307 -0.1356308 -0.17308006 -0.108635694 0.028094595 -0.20170711 0.17006174
-0.029589472 0.023595283 0.12713504 -0.1348668 0.088628925 -0.17487052 -0.03391535 0.073412515
0.038307615 -0.17551528 0.18879664 -0.0036709995 0.15285806 0.12936978 -0.16437799 0.17624275
0.20042308 0.08541337 -0.16799179 -0.029697223 -0.032110106 0.12000412 0.0381718 -0.10803872
0.14354736 -0.054960903 0.094475925 0.09397126 0.21075647 -0.08320709 -0.121484876 0.04552875
-0.020065896 -0.10809421 -0.08250769 -0.101539925 -0.12609681 0.17784742 0.07552077 0.088375576
00000000: f9f4 a7bb 2beb 963d e932 45bd 42a3 50bd
00000010: dd0a 953d cb49 86bd 0432 413e 861d f53c
00000020: ca89 cebc de07 25be 4315 653d f32c 1c3e
00000030: dd0f 1a3e 0330 033d 8aec 4d3e ba24 bb3d
00000040: 05f8 603e 4644 8ebd 7ee4 823e b525 193e
00000050: 1396 d8bd 326d 14be 35e1 3b3d 69bb 31be
00000060: ec22 00be 79ef 2c3e 38d7 8d3a 5604 263e
00000070: 27a0 bcbd 16bd 84be 56ab a6bc 619b 953c
00000080: e827 0fbe f4af 04be e815 f53d e2ef 11be
00000090: ef51 993d e40d 5b3e 3250 793e 5832 3ebe
000000a0: 8303 03bd 07ae 5a3e 7445 6abe ab89 933e
000000b0: 7f80 e93a 9bcf 38be 6fea 43be e720 86bc
000000c0: efb4 ec3d d6f8 2bbe 1b7a 02bd ed73 4e3d
000000d0: a215 683e a155 903d 4f35 b73d 9953 24be
000000e0: 85e5 4fbe 9653 293e 0f7e b6bd 4188 f03d
000000f0: bbef 78bc a4aa 3bbd a42e 90bd 0a53 243e
00000100: b702 67be fc59 03bd 93f7 463e 3226 26bd
00000110: 316a b13d c0d5 27be f659 e03b 4788 79be
00000120: 3f87 403e 9d42 fb3b 31e0 3bbd 99fa 1e3e
00000130: 3468 03be 4719 e93d e750 ecbd 07f5 c7bd
00000140: f291 c6bd e1d9 87bd 8176 6f3e bbd9 cd3c
00000150: d22b ee3c ef5a d43d 41e1 b53d cde8 0fbe
00000160: 90ca 27bd 0005 23be 22c9 e2bd 6b3d 253e
00000170: 4193 6fbe 70af 443e 7c00 5cbd 821a 8dbe
00000180: 4784 f03c f85f c8bd 8362 263e d1e3 a43d
00000190: 60ce 693e 0a60 d03d 9f35 20bc a491 1f3b
000001a0: 3c5d b1bd e577 82bd 2369 743e eb5d 2dbd
000001b0: 8032 afbb 48dd 4a3e 2d4a 7d3d 370d 1d3d
000001c0: 805e 1dbe f1a8 38be 5ee0 8ebd 448b 773d
000001d0: 38f5 c8bd c804 f93d 997c fcbd 2051 553c
000001e0: ccdd c03d d44a b0bd 9ab5 e5bd ef81 f8bc
000001f0: d972 983d 2bdc 903d 78e2 b3bc a703 903d
00000200: d0a1 9a3d fd37 12bd 9574 43be 3e3e 5a3e
00000210: 5cde 06be 977d 843d 4b24 4c3e 3b6e 04be
00000220: f6b8 1ebe 4bcb 39bc 8598 47bd 9fd8 ce3c
00000230: b4c6 303e 3711 3bbe cb85 87bc 8b68 c2bd
00000240: 2f43 8c3d 6b15 593e c685 c13d 8747 24be
00000250: c70d 17bd f604 71bc 7505 763d 4113 713c
00000260: 7045 0a3e 3e72 05bd 5a6d dd3d fbab 0fbe
00000270: 731c 2dbe 9809 483e b383 43bd 8443 86bb
00000280: 92d9 03be be3c fcbd dd73 0abe eef3 3fbd
00000290: 91f5 9f3d 1632 1b3d f77b f33d 2eb5 ca3d
000002a0: a608 0f3e 5ca3 c6bd 6e5f 4fbe 2dc8 ba3d
000002b0: f18e 3fbe 5f8f 153d b6bc 26be a2a2 dfbd
000002c0: b0d0 34be 0d3f 4e3c 9e08 32be 1974 1dbd
000002d0: 2482 953d cd43 e7bd bf83 0a3e 784a 06be
000002e0: ce95 46be a3a8 6a3c 0b07 77bd d36f 293e
000002f0: b084 1abe 40a2 0c3e 746a 6abd 8045 253e
00000300: 4b68 85bd 3083 ef3d 4570 4ebe a162 9bbd
00000310: 41d7 b93d 74f6 073e 780b 4ebe 9366 3fbe
00000320: ff2e 413e 5d16 783d b571 333e f153 2c3e
00000330: 3901 34be 975b 3d3d eb58 423e 9bc1 1bbd
00000340: 1368 08be 9802 a43d cde2 0abe e63b 31be
00000350: 647c debd a326 e63c 4f8c 4ebe aa24 2e3e
00000360: 9f65 f2bc e54a c13c b02f 023e 861a 0abe
00000370: 1583 b53d 4211 33be d2ea 0abd 4d59 963d
00000380: 72e8 1c3d 47ba 33be e853 413e 2795 70bb
00000390: d386 1c3e 8379 043e b452 28be fb78 343e
000003a0: b53b 4d3e 34ed ae3d 0a06 2cbe 9747 f3bc
000003b0: e385 03bd b8c4 f53d 095a 1c3d 6843 ddbd
000003c0: 14fe 123e af1e 61bd 987c c13d 0174 c03d
000003d0: 8bd0 573e 7b68 aabd 10cd f8bd 5b7c 3a3d
000003e0: 3c61 a4bc 7f60 ddbd cbf9 a8bd 2af4 cfbd
000003f0: 861f 01be a21d 363e a2aa 9a3d 41fe b43d

atom_encoder.atom_embedding_list.7.weight f4 [2, 128]
-0.19337313 -0.17388977 -0.17086565 0.12823993 0.11228949 0.20582029 -0.10926184 -0.15114342
-0.16998479 -0.05628124 -0.017423637 -0.0013534827 -0.16727607 -0.07493987 0.12914002 0.094260626
0.04259429 0.101009324 0.0733494 0.16900069 -0.06835645 0.15590376 0.012354992 -0.16738886
-0.16017595 -0.1942345 0.00050561136 -0.16873932 0.08112911 -0.10725002 -0.020992054 -0.118008874
0.08450057 -0.04184079 -0.11868083 0.013622751 0.0087373 0.008369327 0.13435447 0.016800765
-0.022012059 -0.13567728 -0.13207409 0.08520709 -0.18801518 0.15462439 0.14089483 0.15711601
0.16367581 -0.08398358 -0.19210273 0.1629608 0.20293434 -0.12809454 -0.1951936 0.18279627
-0.047342837 -0.03585112 -0.039412517 0.017646749 -0.14349656 0.0133436965 -0.095381275 -0.092536464
-0.0955541 0.07764315 0.042750992 -0.00576272 -0.115434535 -0.19775163 0.10326766 -0.17039108
0.07283392 0.0451287 0.03097675 -0.13207488 -0.0047082943 0.020103686 0.12577918 0.19760898
0.17870758 0.028613282 -0.053321183 -0.19141093 -0.11634459 -0.1805547 -0.15642254 -0.20764679
0.012908876 0.17934091 0.10840179 0.012363021 0.07432 0.03542942 -0.1833541 -0.17974819
-0.0024782235 -0.17241792 0.06077833 0.16651025 -0.08850074 -0.124518625 0.06761917 -0.1875317
0.09272294 -0.21941476 0.12836191 -0.22006603 -0.022854507 0.06428811 -0.13313551 -0.016298141
0.17219676 0.06302879 -0.028973572 -0.16366854 0.11483046 -0.09391594 0.07969009 -0.022581497
-0.09243979 0.06000232 -0.029658554 0.1546258 -0.07358469 -0.22382084 -0.13292214 0.09013552
-0.047437333 0.016305242 0.10261025 -0.04121312 -0.18448074 0.015989907 -0.19785307 -0.15480863
0.04282702 0.088514924 0.058265675 -0.0030056813 0.13765095 0.0828707 0.19005533 0.08722936
0.07332093 -0.037202135 0.0013233863 0.07687806 -0.21309526 -0.16151175 -0.06527982 -0.06499048
0.18167588 0.22022633 -0.19143523 0.1545571 0.082300566 -0.20377927 0.005501474 -0.04804073
-0.19083409 0.04443868 -0.14702448 -0.002166398 -0.035854608 -0.14305347 -0.04632097 0.2223751
0.0032360293 -0.078354545 0.11836258 0.036267202 -0.07061039 -0.13621363 -0.025105657 -0.052962746
-0.052650645 -0.02650904 0.16300417 0.1649595 -0.056921136 0.13994318 -0.10391948 -0.006480759
0.18281443 0.05506352 0.09483183 0.07593245 0.12279827 -0.00057672226 0.120996416 -0.014093349
-0.12395606 -0.048357487 0.1440489 0.031568 -0.19956419 0.1488184 0.07288362 0.19137391
0.015286081 0.15655372 0.15112776 -0.015646137 0.052686945 -0.20225008 -0.19909619 0.061556246
-0.023879083 -0.087309696 0.06829217 0.20400281 -0.11377308 -0.09571346 -0.17539033 0.20823374
-0.1642902 -0.037073545 -0.18407375 0.088972576 -0.13203822 -0.014635343 0.022429427 0.017117376
0.016398158 0.07447015 -0.07381327 0.15849894 0.17163226 0.14991021 -0.054709032 0.074066736
-0.12182418 -0.016399972 0.013163041 0.050940614 0.13678461 0.123910084 -0.071079284 -0.1300029
-0.049909275 0.17324536 0.07978248 -0.17734657 -0.18623485 -0.19649303 -0.09269842 -0.18783619
-0.13100266 0.0634741 -0.036424458 0.056925 0.03278414 -0.14633594 -0.21448155 0.050034214
00000000: 9b03 46be 2910 32be 68f7 2ebe 5451 033e
00000010: 08f8 e53d 8ec2 523e acc4 dfbd 57c5 1abe
00000020: 7e10 2ebe 2887 66bd 04bc 8ebc 5867 b1ba
00000030: 6b4a 2bbe 137a 99bd 483d 043e b70b c13d
00000040: 5a77 2e3d fadd ce3d 3638 963d 840e 2d3e
00000050: 77fe 8bbd 3ca5 1f3e 986c 4a3c fc67 2bbe
00000060: 2a05 24be 69e5 46be 018b 043a 00ca 2cbe
00000070: 0527 a63d e6a5 dbbd 87f7 abbc a3ae f1bd
00000080: a30e ad3d 4061 2bbd ef0e f3bd f631 5f3c
00000090: e426 0f3c 801f 093c 3894 093e c2a1 893c
000000a0: a252 b4bc fcee 0abe 6e3e 07be 0e81 ae3d
000000b0: 0d87 40be db55 1e3e bc46 103e 05e3 203e
000000c0: a29a 273e 95ff abbd 94b6 44be 32df 263e
000000d0: 05ce 4f3e 372b 03be d5e0 47be f22e 3b3e
000000e0: 90ea 41bd a0d8 12bd 056f 21bd ea8f 903c
000000f0: c3f0 12be 859f 5a3c 4257 c3bd c283 bdbd
00000100: deb1 c3bd 5f03 9f3d aa1b 2f3d 33d5 bcbb
00000110: f168 ecbd 677f 4abe ff7d d33d 007b 2ebe
00000120: f329 953d dfd8 383d f4c2 fd3c a33e 07be
00000130: 0948 9abb 7cb0 a43c 42cc 003e 025a 4a3e
00000140: 1fff 363e 6766 ea3c 5067 5abd 3a01 44be
00000150: 1346 eebd 55e3 38be 3b2d 20be 5ca1 54be
00000160: c07f 533c 25a5 373e c201 de3d 458e 4a3c
00000170: 1635 983d 711e 113d 2dc1 3bbe e90f 38be
00000180: b169 22bb 538e 30be b3f2 783d aa81 2a3e
00000190: e03f b5bd 9f03 ffbd eb7b 8a3d 4f08 40be
000001a0: 86e5 bd3d 43ae 60be 4e71 033e fd58 61be
000001b0: 6039 bbbc 7ca9 833d ad54 08be ae83 85bc
000001c0: 5954 303e 3d15 813d fc59 edbc ba98 27be
000001d0: 3b2c eb3d 0057 c0bd 8f34 a33d d5fc b8bc
000001e0: 1351 bdbd fec4 753d 7ff6 f2bc 3a56 1e3e
000001f0: 92b3 96bd 4a31 65be be1c 08be f998 b83d
00000200: a64d 42bd 9292 853c 5325 d23d 17cf 28bd
00000210: 85e8 3cbe 44fd 823c ff99 4abe 2786 1ebe
00000220: 636b 2f3d 5047 b53d fda7 6e3d f7fa 44bb
00000230: 5ff4 0c3e 1db8 a93d dd9d 423e 4fa5 b23d
00000240: 4929 963d 4461 18bd 7a75 ad3a 3f72 9d3d
00000250: a535 5abe 5663 25be 6db1 85bd bb19 85bd
00000260: 3e09 3a3e 0383 613e 9907 44be 3744 1e3e
00000270: 338d a83d 83ab 50be b545 b43b 5bc6 44bd
00000280: 036a 43be 5505 363d 968d 16be 21fa 0dbb
00000290: 48dc 12bd 9c7c 12be 0fbb 3dbd 4cb6 633e
000002a0: 9013 543b 5978 a0bd 1568 f23d eb8c 143d
000002b0: 2e9c 90bd 967b 0bbe 61aa cdbc 77ef 58bd
000002c0: 34a8 57bd 7c29 d9bc 91ea 263e 25eb 283e
000002d0: 2326 69bd 444d 0f3e bdd3 d4bd 8c5c d4bb
000002e0: b533 3b3e 498a 613d 3137 c23d 7982 9b3d
000002f0: a97d fb3d 2d2f 17ba f8cc f73d cae7 66bc
00000300: addc fdbd 8012 46bd 8e81 133e 724d 013d
00000310: 8e5a 4cbe da63 183e 0244 953d 86f7 433e
00000320: 7872 7a3c 9e4f 203e 3cc1 1a3e 542c 80bc
00000330: 44ce 573d a51a 4fbe dfdf 4bbe 6722 7c3d
00000340: 119e c3bc 6dcf b2bd c4dc 8b3d 1de6 503e
00000350: dc01 e9bd 6b05 c4bd 8699 33be 3a3b 553e
00000360: b13b 28be 6eda 17bd d47d 3cbe 4137 b63d
00000370: 0735 07be 14c9 6fbc ebbd b73c bd39 8c3c
00000380: 6e55 863c ce83 983d 692b 97bd 8c4d 223e
00000390: 5ec0 2f3e 1082 193e 9416 60bd 4db0 973d
000003a0: f57e f9bd 3c59 86bc cca9 573c 1ba7 503d
000003b0: 4411 0c3e 92c4 fd3d 0492 91bd 7b1f 05be
000003c0: ab6d 4cbd 3b67 313e ff64 a33d 579a 35be
000003d0: 59b4 3ebe 7835 49be abd8 bdbd 2158 40be
000003e0: 9025 06be b5fe 813d d031 15bd 302a 693d
000003f0: aa48 063d 17d9 15be 0da1 5bbe adf0 4c3d
